grsim_rnn_dynamics_network.pth (torch, 60578 bytes, 6 tensors)

gru.weight_ih_l0 f4 [192, 6]
0	0x3ef66c4e	0.48129505
1	0xbd9ac779	-0.07557578
2	0x3cb4d9af	0.022076456
3	0x3e64fc86	0.22361955
4	0xbe1adb3e	-0.15122697
5	0x3d8ec043	0.06970265
6	0x3e82f085	0.25574127
7	0x3e0495df	0.12947796
8	0x3ea1999e	0.31562513
9	0x3d95d6da	0.0731637
10	0xbc6a236a	-0.01429067
11	0xbdd92e61	-0.10604549
12	0x3eeee1e0	0.46656704
13	0xbd472cc8	-0.04862669
14	0x3bd1a64a	0.006397997
15	0x3ddfeadc	0.10933468
16	0xbe0d6f8e	-0.13812086
17	0x3ef010da	0.46887857
18	0xbbb95f38	-0.005657103
19	0xbea3f6f7	-0.32024357
20	0x3e9044dc	0.28177536
21	0xbae9f652	-0.0017849898
22	0xbe9f8bed	-0.31161442
23	0x3f015e05	0.5053409
24	0x3bab8a01	0.005234957
25	0xbed7eb77	-0.42171833
26	0x3d579f5c	0.05264221
27	0x3d6ab52a	0.057301678
28	0xbeaeda98	-0.3415115
29	0xbde091cb	-0.10965308
30	0x3e837faa	0.25683337
31	0xbd4413bd	-0.047870386
32	0xbf365112	-0.71217453
33	0x3e04658d	0.12929364
34	0x3dc3f864	0.09568861
35	0x3e968dc9	0.29405048
36	0xbda9d1bc	-0.08291957
37	0xbee296f5	-0.44255796
38	0x3ef6053f	0.48050877
39	0x3d24fdc4	0.040281072
40	0xbeb1e5a0	-0.34745502
41	0x3f3ffd6e	0.7499608
42	0xbdbb8788	-0.0915671
43	0xbe7962ca	-0.24354091
44	0xbef07e13	-0.46971187
45	0x3e9beb47	0.3045294
46	0xbe3e32fe	-0.1857414
47	0x3e04a4b6	0.12953457
48	0x3d2501e4	0.040285006
49	0x3d3159aa	0.0432984
50	0x3cdcb7b9	0.026943075
51	0x3e213428	0.15742552
52	0x3d105bdf	0.035243865
53	0x3f14632b	0.5796382
54	0xbd717a0a	-0.058954276
55	0x3ef60189	0.48048046
56	0xbc7ddd99	-0.0154947275
57	0x3dfae535	0.12250749
58	0x3ea5c3c6	0.32375926
59	0x3dcf53f8	0.10123438
60	0xbcb3febc	-0.021972053
61	0xbebd3df8	-0.3696134
62	0xbf063eef	-0.5243978
63	0x3e9e181d	0.30877772
64	0x3d81b921	0.06334139
65	0x3e0ea32c	0.13929433
66	0x3e99e749	0.3005927
67	0x3e39eaab	0.18155925
68	0x3f05aaad	0.52213556
69	0xbd7d04bf	-0.061772104
70	0xbd003c6c	-0.031307623
71	0x3f1be8b7	0.6090197
72	0xbe314b6e	-0.1731393
73	0xbdf189b7	-0.11793845
74	0x3df66c84	0.120324165
75	0x3e5edaa3	0.21763091
76	0xbe81f7e6	-0.25384444
77	0x3e0159bb	0.12631886
78	0xbe2bc3c9	-0.16773905
79	0xbd3423dc	-0.04397951
80	0x3df87563	0.12131765
81	0xbe532396	-0.20619044
82	0x3e389e72	0.18029192
83	0xbea54741	-0.32280925
84	0xbde4ccff	-0.111719124
85	0xbdb9ffca	-0.09081991
86	0xbecc53e7	-0.39907762
87	0xbcc3a10c	-0.023880504
88	0xbe5ef374	-0.21772557
89	0xbf68819c	-0.9082277
90	0x3e2eb9da	0.17063084
91	0xbee91b7d	-0.45528784
92	0xbdccd42c	-0.10001406
93	0x3e429b38	0.19004524
94	0xbe19ac6e	-0.15007183
95	0x3f340636	0.7032198
96	0xbd082d7d	-0.033246506
97	0xbeb2dc43	-0.3493367
98	0xbe95c62a	-0.2925275
99	0x3cb02d93	0.021506106
100	0xbebec22d	-0.3725752
101	0xbe1c55d1	-0.15267111
102	0xbe79b5f9	-0.24385823
103	0x3ee0b96d	0.4389147
104	0xbe28deaf	-0.16491197
105	0xbd5bb450	-0.053638756
106	0xba2d56b0	-0.0006612344
107	0xbf358958	-0.70912695
108	0x3e1acfd0	0.15118337
109	0xbd106b79	-0.035258744
110	0xbe78c133	-0.2429245
111	0x3efd2d03	0.49448404
112	0xbe2c7799	-0.16842498
113	0x3d67558b	0.056478065
114	0xbd157e5c	-0.03649746
115	0xbece0008	-0.402344
116	0x3f0a93ce	0.5413178
117	0x3e1dd46f	0.15413068
118	0xbe6f00ad	-0.23340102
119	0x3f304468	0.6885438
120	0x3dd907a3	0.1059716
121	0xbc89df81	-0.016830208
122	0xbf26198a	-0.6488272
123	0x3e95778c	0.2919277
124	0xbece94a7	-0.40347788
125	0xbf22242d	-0.6333645
126	0xbe8f87a0	-0.2803316
127	0x3e0f7875	0.14010794
128	0x3f0d6f57	0.55248016
129	0xbe9edf38	-0.31029677
130	0x3dd53dab	0.10412153
131	0x3e34c0ad	0.17651625
132	0x3d73b35a	0.059497215
133	0x3e763fa4	0.24047714
134	0x3d1a401d	0.0376588
135	0x3f22fa79	0.6366344
136	0x3d08ac35	0.033367354
137	0x3efb82c9	0.4912322
138	0x3e21c7b9	0.15798844
139	0xbd93d295	-0.072179
140	0x3e72d0b2	0.23712423
141	0x3e7fab5e	0.24967715
142	0x39f9f134	0.0004767269
143	0x3f9d7a4b	1.2302946
144	0xbedec7cc	-0.43511808
145	0xbeee5c0b	-0.46554598
146	0x3e46ed3f	0.1942644
147	0xbf0e21be	-0.55520236
148	0xbeb48df6	-0.35264558
149	0xbefdf839	-0.4960344
150	0x3dddae37	0.108242445
151	0xbc11b226	-0.008892572
152	0xbeadc2a0	-0.3393755
153	0x3ddc75d9	0.10764665
154	0xbe362af0	-0.17789817
155	0x3e7259a8	0.23667014
156	0x3e04a4d8	0.12953508
157	0xbccff552	-0.025385533
158	0x3cc7bc89	0.024381893
159	0x3d0b966f	0.03407901
160	0xbe3f8c6a	-0.18705907
161	0x3e8de361	0.2771254
162	0xbf1a68d5	-0.6031621
163	0xbea505f9	-0.3223112
164	0x3e8026e7	0.2502968
165	0xbecdd8a8	-0.40204358
166	0xbe5aacf6	-0.21355042
167	0x3e3431ad	0.17597075
168	0x3e2f7fe8	0.17138636
169	0xbe936133	-0.28785095
170	0x3f3da69b	0.74082345
171	0x3d08c1f3	0.03338809
172	0xbe0e118e	-0.13873884
173	0x3f626afa	0.88444483
174	0x3e8319c9	0.2560561
175	0x3f223fea	0.63378775
176	0x3de552b7	0.11197417
177	0x3ea8d505	0.3297502
178	0x3ead0ce8	0.3379891
179	0x3dea8064	0.1145027
180	0x3e5f1d42	0.21788505
181	0xbddd0977	-0.10792821
182	0x3f29dfca	0.663571
183	0xbd8949b7	-0.06703513
184	0xbdbb03ff	-0.091316216
185	0x3de1b12e	0.110201225
186	0xbe21b7e0	-0.15792799
187	0xbe5d1c98	-0.21592939
188	0x3b6e91ef	0.0036402901
189	0x3e9489c7	0.29011366
190	0xbee539fd	-0.44770804
191	0xbd146a8c	-0.036234424
192	0x3e43cf7f	0.19122122
193	0xbcb85e0c	-0.022505783
194	0x3f445462	0.7669126
195	0x3e313beb	0.17308013
196	0x3e653e87	0.22387134
197	0x3f76c38f	0.9639215
198	0x3eac1c02	0.33615118
199	0x3cd6da1b	0.026227048
200	0x3f486b71	0.7828894
201	0x3d49b9cf	0.049249467
202	0xb857335c	-5.1307827e-05
203	0x3f480103	0.78126544
204	0x3e41fd69	0.18944325
205	0xbd58da11	-0.05294234
206	0x3f12a250	0.5727892
207	0x3e87e528	0.2654202
208	0xbdc62895	-0.09675709
209	0x3fa9ff62	1.3281062
210	0x3de0ed1a	0.109827235
211	0x3d37f73a	0.044913508
212	0xbe892bc8	-0.26791215
213	0x3ef01c7e	0.46896738
214	0xbe288ef5	-0.16460784
215	0x3ed52a8e	0.4163403
216	0x3dcfb653	0.101421975
217	0x3eae3bd6	0.34030026
218	0x3f19ec98	0.6012664
219	0xbe3a73cc	-0.18208236
220	0x3d59bb2a	0.05315701
221	0xbdc9b854	-0.09849611
222	0xbed2cce6	-0.4117195
223	0xbdc31157	-0.09524792
224	0x3ed77db9	0.42088106
225	0xbe77efb9	-0.2421254
226	0xbe998445	-0.29983726
227	0xbf11003c	-0.5664098
228	0x3f489fd4	0.7836888
229	0xbf03f614	-0.5154736
230	0x3e443f29	0.19164719
231	0x3e81b1cf	0.2533097
232	0xbef89ce0	-0.48557186
233	0x3f55352c	0.8328426
234	0x3c507e26	0.012725389
235	0xbe623008	-0.22088635
236	0x3da933a9	0.082618065
237	0x3e7c56d1	0.24642493
238	0xbec88018	-0.39160228
239	0x3f224e49	0.63400704
240	0x3d9bc5fd	0.07606123
241	0xbe4d49ec	-0.2004773
242	0x3edf14a7	0.43570444
243	0xbce73613	-0.028224027
244	0xbda30312	-0.0795957
245	0x3f237ce7	0.6386246
246	0xbc2cf7e0	-0.010557145
247	0xbe4eede9	-0.20207943
248	0x3f17c34e	0.59282386
249	0x3e6d2b18	0.2316097
250	0xbd7dcb59	-0.061961506
251	0x3f91b71c	1.1384006
252	0x3ea96777	0.3308675
253	0x3d8eb38d	0.0696784
254	0x3e9f8acf	0.3116059
255	0x3e23c04f	0.15991329

gru.weight_hh_l0 f4 [192, 64]
0	0x3d02dc4e	0.03194838
1	0x3d677aec	0.05651371
2	0x3d3d8291	0.046267096
3	0x3d5a1361	0.053241137
4	0xbcab2e46	-0.020896088
5	0xbe02ab1a	-0.12760583
6	0x3c43283d	0.011911449
7	0x3ddc3249	0.10751779
8	0x3e7d3467	0.24727021
9	0xbe65dacd	-0.22446747
10	0x3c9bbeee	0.01901194
11	0xbdee7ff5	-0.116454996
12	0x3d8f032d	0.069830276
13	0x3d4792e4	0.04872407
14	0xbdc14b35	-0.09438173
15	0x3e060c04	0.13090521
16	0xbb5aac03	-0.0033366687
17	0x3df70a97	0.12062567
18	0xbc0c9c77	-0.008582226
19	0x3df19d77	0.11797612
20	0xbebb0f59	-0.36535147
21	0xbe2b7fdf	-0.16747998
22	0xbda9964c	-0.0828062
23	0xbe333294	-0.17499763
24	0xbe068d96	-0.13139948
25	0x3e376492	0.17909458
26	0xbb013f41	-0.001972154
27	0xbcbb8cf5	-0.022894362
28	0x3d8139d5	0.06309859
29	0xbde8dd3f	-0.11370324
30	0xbc8675aa	-0.016413528
31	0xbe03048e	-0.12794706
32	0xbdb561f9	-0.088565774
33	0xbe57e000	-0.21081543
34	0xbd37ccc4	-0.044873014
35	0xbd71b97e	-0.05901479
36	0x3da2a98f	0.07942497
37	0xbb26f338	-0.002547456
38	0x3d18f4b9	0.03734276
39	0xbe50f3d9	-0.2040552
40	0xbe205c20	-0.15660143
41	0x3cf01195	0.029305259
42	0xbdaeb169	-0.08529932
43	0xbe000bcd	-0.12504502
44	0xbcb2da25	-0.021832535
45	0xbc409417	-0.011754057
46	0x3d4e708b	0.050400298
47	0x3d8ef21a	0.06979771
48	0xbe2b8888	-0.16751301
49	0x3e155a60	0.14585257
50	0xbe283c7b	-0.16429321
51	0x3c761cc5	0.015021508
52	0x3d28f910	0.04125315
53	0x3e56cd2d	0.20976706
54	0x3d0527e9	0.032508764
55	0x3d46d4ac	0.048542663
56	0xbda604e5	-0.08106402
57	0x38cab594	9.665932e-05
58	0xbe073f40	-0.13207722
59	0xbe884e4a	-0.2662223
60	0xbd8867b6	-0.06660406
61	0x3da5e40f	0.08100139
62	0x3aaa7ff7	0.0013008107
63	0x3c9388a7	0.018009497
64	0x3e40f4ab	0.18843333
65	0x3c8a8824	0.01691062
66	0x3e7706c3	0.24123673
67	0xbbe8a476	-0.0070996834
68	0xbc8d5268	-0.017251208
69	0x3e2b4954	0.16727191
70	0xbdb11539	-0.08646626
71	0x3eb35939	0.3502901
72	0x3e863ade	0.26216787
73	0x3d9e857f	0.07740306
74	0xbd670a37	-0.056406226
75	0xbe07568e	-0.13216612
76	0x3e8d466c	0.2759279
77	0x3c3959ae	0.011312885
78	0xbde66c5d	-0.112511374
79	0xbdd64d17	-0.104639225
80	0xbe39faa1	-0.18162014
81	0x3daba7be	0.08381604
82	0xbde75818	-0.112960994
83	0x3dbbccfc	0.09169957
84	0xbebfddcb	-0.37473902
85	0x3e3bebaf	0.18351625
86	0xbea5f1dc	-0.32411087
87	0x3e76aa74	0.2408846
88	0xbe4d971d	-0.20077176
89	0xbbd20deb	-0.0064103506
90	0x3e8dda88	0.2770579
91	0xbbd3862a	-0.0064552026
92	0xbd9c25dd	-0.07624409
93	0xbe0093cf	-0.12556385
94	0xbbf3c514	-0.007439265
95	0xbeaa3282	-0.3324166
96	0x3dd82cd6	0.10555427
97	0xbe1caf34	-0.1530121
98	0x3e67a024	0.22619683
99	0xbcdf3da0	-0.027251065
100	0x3e13f4aa	0.144488
101	0x3e75525a	0.23957196
102	0x3de83e12	0.11339964
103	0xbeb87a38	-0.36030746
104	0xbc6bc1bb	-0.014389451
105	0xbea69d3b	-0.32541832
106	0xbe8daa93	-0.276692
107	0xbe29b385	-0.16572388
108	0x3dbdf914	0.092760235
109	0x3e170ffd	0.14752193
110	0xbc807848	-0.015682355
111	0xbe415e71	-0.18883683
112	0x3e2debe5	0.16984518
113	0x3e75dd16	0.24010119
114	0xbcbd7102	-0.023125175
115	0xbda7c8fc	-0.081926316
116	0x3e896295	0.26833025
117	0xbde7d93b	-0.1132073
118	0xbe5d1833	-0.21591263
119	0x3d56ffc6	0.05249002
120	0x3c505381	0.012715221
121	0xbd74c76e	-0.059760503
122	0x3e54e9ee	0.20792362
123	0xbdbb3164	-0.0914028
124	0xbddad064	-0.106842786
125	0x3d1e5c7f	0.03866243
126	0x3e1acb6b	0.1511666
127	0x3deba808	0.11506659
128	0x3e5810f7	0.21100222
129	0x3e7bf423	0.2460485
130	0xbd48cf47	-0.0490258
131	0x3d1e6da5	0.038678784
132	0xbc937773	-0.018001294
133	0x3e67bea9	0.22631325
134	0xbe76bd75	-0.2409571
135	0x3e5c7166	0.21527633
136	0xbd89c160	-0.067263365
137	0x3bee9b9a	0.0072817327
138	0xbde9829f	-0.11401867
139	0xbdd4faef	-0.10399424
140	0x3e0d85ab	0.13820522
141	0x3eaa3348	0.3324225
142	0xba17de89	-0.0005793353
143	0x3dfff899	0.12498588
144	0xbd2f09e5	-0.042734046
145	0x3cab8cca	0.020941157
146	0xbe3b9655	-0.18319066
147	0x3ccb1eda	0.024794985
148	0xbe09f658	-0.13472879
149	0x3d84bc56	0.06481235
150	0xbd47f10c	-0.048813865
151	0x3d6b7ba8	0.057490975
152	0xbe00c8dd	-0.12576623
153	0x3e091e99	0.13390578
154	0x3ccebb38	0.025235757
155	0xbdc73075	-0.09726039
156	0xbe40a4d2	-0.18812874
157	0xbe8497f7	-0.2589719
158	0x3e18c8e5	0.14920385
159	0xbe3a039b	-0.18165438
160	0x3da917de	0.082565054
161	0xbe1e98b7	-0.15487944
162	0x3e075e53	0.13219576
163	0xbd10eb78	-0.03538081
164	0x3de20f56	0.11038081
165	0xbc437a5b	-0.011931027
166	0x3e2af79b	0.16696016
167	0xbe8ec813	-0.2788702
168	0xbd3c0af5	-0.045908887
169	0xbe39b46b	-0.1813523
170	0xbe5cea43	-0.21573739
171	0xbe587c0e	-0.21141073
172	0xbe8d69ad	-0.27619687
173	0x3e2e01d8	0.16992891
174	0x3e889a5a	0.2668026
175	0xbe743578	-0.23848522
176	0xbe3105a4	-0.17287308
177	0x3e0de3d2	0.13856438
178	0xbd22bdd7	-0.039731827
179	0xbd62d18b	-0.055375617
180	0x3cd009d6	0.025395315
181	0xbe5295c6	-0.20564947
182	0xbd88e4ba	-0.06684251
183	0xbdbbc7f1	-0.09168995
184	0xbde74a04	-0.11293414
185	0xbdb1c804	-0.08680728
186	0x3ccb26a1	0.024798693
187	0xbe0dfd82	-0.13866237
188	0xbdc06e65	-0.09396056
189	0x3e1f19ef	0.15537237
190	0x3e3d7bc5	0.18504246
191	0xbd2bf99e	-0.0419861
192	0x3e8d1c52	0.2756067
193	0xbd658f41	-0.05604482
194	0x3e98abd0	0.29818583
195	0xbda07dda	-0.07836504
196	0xbdab3b1d	-0.08360884
197	0x3e581089	0.21100058
198	0xbe817f23	-0.2529231
199	0x3e7e8c27	0.24858151
200	0x3ef814d9	0.48453405
201	0xbe8a5cd9	-0.27023962
202	0xbd9497d2	-0.0725552
203	0xbe245edd	-0.16051812
204	0x3e52b822	0.20578054
205	0xbd8f16e1	-0.06986786
206	0xbe12417b	-0.14282791
207	0xbb3a32f4	-0.0028411718
208	0xbeed6706	-0.46367663
209	0xbeab26a7	-0.33427927
210	0xbe5df9d7	-0.21677338
211	0xbe41792a	-0.18893877
212	0xbf0732cb	-0.5281188
213	0x3e8e4e14	0.27793944
214	0xbe9910b2	-0.2989555
215	0x3ddab52c	0.10679087
216	0xbe24f593	-0.16109304
217	0xbe14a506	-0.14516076
218	0x3f0b9a39	0.545322
219	0xbe47403f	-0.19458102
220	0xbe61ff29	-0.22069992
221	0xbee11354	-0.4396006
222	0x3c80d013	0.015724218
223	0xbe965de6	-0.29368514
224	0xbd842f5f	-0.06454348
225	0xbe9a7de0	-0.3017416
226	0x3d9e629e	0.077336535
227	0xbe5a86e9	-0.21340527
228	0x3e903518	0.28165507
229	0x3edc610f	0.430428
230	0x3e28a83f	0.16470431
231	0xbe37ef4c	-0.17962378
232	0xbda6a7b8	-0.081374586
233	0xbed04ee5	-0.40685192
234	0xbeba54bc	-0.36392772
235	0xbeab1bf4	-0.33419764
236	0xbd05c143	-0.03265501
237	0x3bb31ef3	0.005466336
238	0x3defba32	0.11705436
239	0xbeb5d65e	-0.35515112
240	0x3e0de7a9	0.13857903
241	0x3e8bf8ca	0.27338248
242	0x3e01da63	0.12680964
243	0x3b916378	0.0044369064
244	0x3ecf384e	0.40472645
245	0xbe9c6e3a	-0.30552846
246	0xbead84c8	-0.33890367
247	0xbc070406	-0.008240705
248	0xbd81d2c6	-0.0633903
249	0xbe5cad06	-0.21550378
250	0x3e73a883	0.23794751
251	0xbd94e381	-0.072699554
252	0xbe377452	-0.17915466
253	0x3da20613	0.07911315
254	0x3e95782e	0.29193252
255	0x3e7f27e3	0.2491756

gru.bias_ih_l0 f4 [192]
0	0x3e1c2461	0.15248252
1	0x3e12d693	0.14339666
2	0x3d891ae2	0.066945806
3	0x3e25b95b	0.16183989
4	0x3be2354e	0.006903327
5	0x3dbb5275	0.09146587
6	0xbc8ac25f	-0.016938386
7	0xbdde623c	-0.108585805
8	0x3dc4220d	0.09576807
9	0x3e101c20	0.14073229
10	0xbc87001d	-0.016479546
11	0x3db8ba06	0.09019856
12	0x3e5ef042	0.21771339
13	0xbe2930eb	-0.16522567
14	0xbe4b1bba	-0.19834796
15	0x3c8fa059	0.017532514
16	0xbcb220a2	-0.021744076
17	0x3ba82d14	0.005132327
18	0x3d42d2e0	0.047564387
19	0x3e115020	0.14190722
20	0x3dc981d4	0.09839216
21	0xbb989b80	-0.004657209
22	0x3d703c7a	0.058651425
23	0x3e12bc22	0.1432958
24	0x3cd1818b	0.025574466
25	0x3e261dba	0.16222277
26	0x3e23c734	0.15993959
27	0x3e0a165f	0.13485096
28	0x3e7ebbca	0.24876323
29	0x3e20fc06	0.1572114
30	0x3d14482d	0.036201645
31	0x3dc44417	0.095832996
32	0x3d90d53d	0.07071922
33	0x3e721f00	0.23644638
34	0x3da3682c	0.079788536
35	0x3d92e105	0.07171825
36	0x3e3f121b	0.1865925
37	0x3cd65494	0.026163377
38	0x3e588394	0.21143943
39	0x3c3d65ea	0.011559943
40	0x3e423346	0.18964872
41	0x3d48ac89	0.048992667
42	0x3e479ea7	0.19494115
43	0x3e629656	0.22127661
44	0x3d5d9286	0.054094814
45	0x3d243867	0.040092852
46	0xbb85a053	-0.00407795
47	0xbb21b92f	-0.0024677028
48	0x3e7b34e2	0.24531892
49	0x3d629c49	0.055324826
50	0x3e078cae	0.13237259
51	0x3e6253ff	0.22102354
52	0xbcefdcfb	-0.029280176
53	0x3d05f55f	0.032704707
54	0x3dac9910	0.08427632
55	0x3d73e7eb	0.059547346
56	0xbcee6691	-0.029101642
57	0x3e08a9d2	0.13346031
58	0x3e2dc5d7	0.16970001
59	0xbe0a7485	-0.13521011
60	0x3df118d1	0.117723115
61	0xbc3d5381	-0.011555553
62	0xbdc01f08	-0.09380919
63	0x3dff7654	0.12473741
64	0xbe8952b7	-0.2682092
65	0xbd98b8a0	-0.074570894
66	0xbdc2c8a8	-0.095109284
67	0xbe335d62	-0.17516091
68	0xbe81648e	-0.2527203
69	0xbeb1e4db	-0.34744915
70	0xbe95dbe3	-0.29269323
71	0x3dc0833a	0.094000295
72	0xbeab5299	-0.33461455
73	0xbef582b4	-0.4795128
74	0xbde1cb46	-0.110250995
75	0xbdc080ec	-0.0939959
76	0xbdb02b68	-0.08602029
77	0xbdc27df4	-0.0949668
78	0xbdac2039	-0.084045835
79	0x3d075b00	0.03304577
80	0xbd2f7fd1	-0.042846505
81	0xbc8f3267	-0.017480088
82	0xbc12956d	-0.008946759
83	0xbe166b21	-0.14689304
84	0xbeb15070	-0.3463168
85	0xbe3bc2d7	-0.18336044
86	0xbe706aed	-0.23478289
87	0xbd81bd4e	-0.06334935
88	0xbe478c24	-0.19487053
89	0xbd82063a	-0.06348844
90	0xbeb4b110	-0.35291338
91	0xbd0f6bc1	-0.03501487
92	0x397cf680	0.00024124421
93	0xbe21cd88	-0.1580106
94	0xbe311095	-0.17291482
95	0xbed47b66	-0.41500396
96	0xbe1119c8	-0.14169991
97	0xbe17e0cd	-0.14831848
98	0xbc977d79	-0.018492447
99	0xbe818648	-0.2529776
100	0xbebde7e4	-0.3709098
101	0xbe6ad499	-0.22932662
102	0xbe127eff	-0.14306258
103	0xbe571efb	-0.21007912
104	0xbe0e7890	-0.13913178
105	0xbe8bd6a5	-0.27312198
106	0x3d3b302e	0.045700245
107	0xbe918176	-0.28419083
108	0xbb873ddd	-0.0041272477
109	0xbe895f73	-0.26830634
110	0xbe69f63d	-0.22847839
111	0xbdb25df8	-0.08709329
112	0xbd34d908	-0.04415229
113	0xbde2f0d9	-0.11081094
114	0xbe116f44	-0.142026
115	0xbf107e3d	-0.56442624
116	0xbe4c0c52	-0.19926575
117	0xbd0eece9	-0.034893904
118	0xbe291905	-0.1651345
119	0x3d6909ee	0.056894235
120	0xbecdea79	-0.4021795
121	0xbdbe7bc4	-0.0930095
122	0xbe848fb9	-0.25890902
123	0xbe992dd0	-0.29917765
124	0x3ca2ec7a	0.019888151
125	0xbe8f0a6d	-0.27937642
126	0xbd0a524a	-0.033769883
127	0xbea634cd	-0.3246216
128	0x3e15a322	0.14613011
129	0x3bb0eb94	0.005399177
130	0x3c96ebad	0.018422926
131	0x3e0d7659	0.13814677
132	0x3e2087eb	0.15676849
133	0x3c2716fe	0.010198353
134	0xbdfb3437	-0.122658186
135	0xbac314a8	-0.0014883475
136	0xbacebe30	-0.0015773233
137	0xbd49b9db	-0.04924951
138	0x3e18a212	0.14905575
139	0xbd8c5e39	-0.06853909
140	0x3ded6622	0.11591746
141	0xbccb41ac	-0.024811588
142	0xbd1e6987	-0.038674857
143	0xbd0461f0	-0.032319963
144	0x3d22186e	0.03957408
145	0x3c757658	0.014981829
146	0xbdc7731c	-0.09738752
147	0xbd151b20	-0.03640282
148	0x3c1fbfb1	0.009750293
149	0x3c33ad1a	0.010966564
150	0xbe13e499	-0.14442672
151	0x3d6f0360	0.058352828
152	0x3d31460c	0.043279693
153	0xbd79790f	-0.060906466
154	0xbcb936ae	-0.022609081
155	0xbc7109c2	-0.014711799
156	0x3cf77cc9	0.03021087
157	0x3c6afbf2	0.014342295
158	0x3d2352a9	0.039873753
159	0xbdd485c7	-0.103770785
160	0x3d864673	0.06556406
161	0xbcca8d8e	-0.024725702
162	0x3da93914	0.0826284
163	0xbd9b86db	-0.07594081
164	0xbd48a56f	-0.048985895
165	0x3df69c22	0.12041499
166	0x3d70a0c0	0.058747053
167	0x3d60b84e	0.054863267
168	0x3e3390fe	0.17535779
169	0xbd4112a9	-0.047136936
170	0xbe0ca87b	-0.13736145
171	0xbd3414b9	-0.043965075
172	0x3daeb334	0.08530274
173	0x3ab469c5	0.0013764432
174	0x3c027bb9	0.007964068
175	0xbe0956e8	-0.13412058
176	0x3dd4bf23	0.10388019
177	0x3c8acca4	0.016943283
178	0x3d77394c	0.060357377
179	0x3c88b015	0.016685525
180	0x3dc7ee06	0.09762196
181	0xbdd84142	-0.10559322
182	0xbce0f3f1	-0.02746007
183	0x3d26b31f	0.040698167
184	0x3e0d39da	0.137916
185	0xbd63e4bb	-0.055638056
186	0x3dd94a68	0.10609895
187	0x3db8e083	0.09027197
188	0xbe3d853f	-0.1850786
189	0xbda24481	-0.07923222
190	0x3dc07463	0.09397199
191	0xbe1fe7c3	-0.15615754

gru.bias_hh_l0 f4 [192]
0	0x3deb814d	0.114992715
1	0x3d9822e5	0.074285306
2	0x3e416334	0.18885499
3	0x3e2d8ced	0.1694829
4	0xbd5c3638	-0.053762645
5	0x3e2667c9	0.16250528
6	0xbe10dcd5	-0.1414674
7	0x3d9f885e	0.07789682
8	0x3e6a900d	0.22906514
9	0x3dba1e41	0.09087802
10	0xbc4c3c88	-0.012465604
11	0x3da2c155	0.079470314
12	0x3e397c84	0.18113905
13	0xbe42b78f	-0.19015335
14	0xbcab45ce	-0.020907309
15	0xbe1e60ee	-0.15466663
16	0xbc188efb	-0.009311433
17	0x3dba2cd2	0.0909058
18	0x3d0c438d	0.03424411
19	0x3e2e1cf0	0.17003226
20	0x3d483523	0.0488788
21	0x3d161ade	0.036646716
22	0x3b5725dc	0.0032828962
23	0x3d9beaf5	0.07613174
24	0xbc817917	-0.01580481
25	0x3c92e55d	0.017931635
26	0x3e0956c9	0.13412012
27	0xbca09fa8	-0.01960738
28	0x3e745495	0.2386039
29	0x3e4ecf08	0.20196164
30	0x3e0deee4	0.13860661
31	0xbd33b765	-0.04387607
32	0x3c018d23	0.007907185
33	0x3e99ee80	0.30064774
34	0x3e0db0d9	0.13836993
35	0x3d5fba0c	0.054620788
36	0x3d58a48c	0.0528913
37	0x3e1eed3f	0.1552019
38	0x3e2ca71f	0.16860627
39	0xbc27ef64	-0.010249946
40	0x3e078950	0.13235974
41	0xbc850920	-0.016239703
42	0x3defa004	0.117004424
43	0x3df19d3e	0.1179757
44	0xbe032c3a	-0.1280984
45	0x3e0cc8c1	0.13748457
46	0x3e215046	0.15753278
47	0xbd029a87	-0.03188565
48	0x3e55e1ea	0.2088696
49	0x3e08925d	0.13337083
50	0x3d77a950	0.060464203
51	0x3cc8b624	0.024500914
52	0x3e200a6c	0.15628976
53	0xbc2edba1	-0.010672481
54	0xbceea75e	-0.029132541
55	0x3debce57	0.115139656
56	0x3da51723	0.080610536
57	0x3e062a2c	0.13102025
58	0x3e3f8429	0.18702759
59	0xbdb79d7d	-0.089655854
60	0xbd5807d6	-0.052741848
61	0x3e16c458	0.14723337
62	0xbcc59795	-0.024120132
63	0x3e16bf60	0.14721441
64	0xbe85334d	-0.26015702
65	0xbe44c609	-0.1921617
66	0xbe0f0da2	-0.13970044
67	0xbdc547b6	-0.096328184
68	0xbe5a9665	-0.21346433
69	0xbefede25	-0.49778858
70	0xbe1f5c95	-0.15562661
71	0x3bf6f85d	0.0075369314
72	0xbe9e9a9d	-0.30977336
73	0xbeb53c05	-0.35397354
74	0xbdd41b80	-0.10356808
75	0xbe1caea0	-0.15300989
76	0xbe6f0c70	-0.23344588
77	0xbdafeb4e	-0.08589803
78	0xbe407c64	-0.18797451
79	0xbe07b916	-0.13254198
80	0xbdfd2fdd	-0.12362645
81	0x3da2af2c	0.07943568
82	0xbc73d2f3	-0.014881837
83	0xbe6510b8	-0.22369659
84	0xbe50aad9	-0.20377673
85	0xbdefa16a	-0.11700709
86	0xbd0ca368	-0.034335524
87	0xbe15e551	-0.14638259
88	0xbe7623ad	-0.24037047
89	0xbde3e8e2	-0.11128403
90	0xbe576846	-0.21035871
91	0xbd66bae5	-0.05633058
92	0xbdf3849f	-0.1189053
93	0xbdb7ac51	-0.089684136
94	0xbe5a1ea2	-0.21300748
95	0xbf01ef16	-0.5075544
96	0x3d9520ef	0.07281672
97	0xbe9c4406	-0.30520648
98	0xbd83c693	-0.064343594
99	0xbe726e91	-0.2367499
100	0xbed8135a	-0.42202264
101	0xbe2664d3	-0.16249399
102	0xbea40a3a	-0.32039052
103	0xbe2aa3bd	-0.16664024
104	0xbdad2121	-0.084535845
105	0xbe8b4ebf	-0.27208516
106	0x3d4d9494	0.050190523
107	0xbe9d7489	-0.30752972
108	0xbd728bfe	-0.05921554
109	0xbe94e71b	-0.2908257
110	0xbe423db1	-0.18968846
111	0xbe95feca	-0.2929595
112	0xbde6bb04	-0.11266139
113	0xbe71ffae	-0.2363269
114	0xbda267a4	-0.07929924
115	0xbf0f37ef	-0.5594472
116	0xbe0bad50	-0.13640332
117	0xbdc4064e	-0.09571515
118	0xbe48e7b8	-0.19619644
119	0xbd9cf852	-0.07664551
120	0xbea5d73e	-0.3239078
121	0xbd7faac9	-0.062418733
122	0xbdd7d040	-0.105377674
123	0xbeb61753	-0.3556467
124	0xbc81849c	-0.015810303
125	0xbe8e3482	-0.27774435
126	0xbd66a3a2	-0.056308396
127	0xbe199056	-0.14996466
128	0x3e0fe708	0.14052975
129	0xbe16bf9c	-0.1472153
130	0x3e427214	0.1898883
131	0x3d070dde	0.03297221
132	0x3c178530	0.009248063
133	0x3d490427	0.049076226
134	0xbcc99b09	-0.02461006
135	0x3d9fee54	0.07809129
136	0x3df45563	0.11930349
137	0x3d2e763d	0.04259323
138	0xbd452c0b	-0.048137706
139	0xbdbd855e	-0.092539534
140	0x3d403bd0	0.04693204
141	0x3cc9e389	0.02464463
142	0x3d4ce22b	0.050020378
143	0x3d14a4a8	0.03628984
144	0xbdab8d39	-0.083765455
145	0x3d83feb1	0.06445063
146	0x3ddb088e	0.10694991
147	0x3d27aa2d	0.040933777
148	0xbd324ce5	-0.043530364
149	0x3e205403	0.15657048
150	0x3cb8bde9	0.022551494
151	0xbd8b6b0e	-0.068075284
152	0xbcca9cfb	-0.024733057
153	0xbe296c07	-0.16545115
154	0x3e4dc266	0.20093688
155	0xbdf45610	-0.119304776
156	0x3e2a4f47	0.16631804
157	0xbe0018ab	-0.1250941
158	0xbdb511ce	-0.088412866
159	0xbcc78069	-0.024353223
160	0xbd89edbd	-0.06734798
161	0xbdf0a56d	-0.117503025
162	0xbadb2f43	-0.0016722459
163	0x3dee92f1	0.116491206
164	0xbe3044f9	-0.17213811
165	0x3cf16f9c	0.029472165
166	0xbcd34c55	-0.025793234
167	0xbdc5e1b0	-0.09662187
168	0x3cc86112	0.02446035
169	0xbdc78860	-0.09742808
170	0xbe114f86	-0.14190492
171	0xbe42a511	-0.1900828
172	0xbd4e6eba	-0.050398566
173	0xbe1f7ec5	-0.15575702
174	0xbe124ac2	-0.1428633
175	0xbd38853b	-0.045048933
176	0x3e0ac98e	0.1355345
177	0x3d36cd01	0.0446291
178	0x3cfc634a	0.030809063
179	0x3b9f0ac9	0.0048535806
180	0x3e07d161	0.13263465
181	0x3dcd1630	0.100139976
182	0xbdc46855	-0.09590212
183	0x3e28d33e	0.16486832
184	0x3dbccf7b	0.09219261
185	0x3cd71d3a	0.026259053
186	0x3d8f5e8b	0.070004545
187	0xbdae7211	-0.0851785
188	0xbd3943cc	-0.04523067
189	0xbe100a2f	-0.14066385
190	0xbd9a602a	-0.07537873
191	0xbd9cd495	-0.07657734

residual_head.weight f4 [3, 64]
0	0x3cd9e6d1	0.02659932
1	0x3c0da401	0.008645059
2	0xba15acaa	-0.0005709628
3	0x3c336db5	0.010951449
4	0x3ca930dc	0.02065318
5	0x3c093203	0.00837374
6	0x3c231b6b	0.009955267
7	0x3cfeed64	0.031119056
8	0xbad0e99b	-0.001593876
9	0xbc3e34a6	-0.011609232
10	0x3bd86bc0	0.0066046417
11	0xbb72b7f6	-0.0037035919
12	0x3c9547d5	0.018222729
13	0x3ba26457	0.004955809
14	0x3c1c927a	0.009556407
15	0x3d376e9b	0.044783216
16	0x3b4603ee	0.0030214745
17	0x3ce84d7b	0.028357258
18	0x3bb7306b	0.0055904887
19	0x3a17b0c6	0.0005786534
20	0x3cc4949b	0.023996642
21	0xbafe00d1	-0.0019378905
22	0xbcf5cc22	-0.030004565
23	0xbb806e68	-0.0039194115
24	0xbc8645a1	-0.016390624
25	0xbc7414ad	-0.014897508
26	0xbcd3c3f6	-0.025850277
27	0x3c5ee06d	0.013603312
28	0xba893718	-0.001046869
29	0x3b9a4046	0.004707369
30	0xba3b7b5c	-0.0007151866
31	0xbc7e8dac	-0.015536707
32	0x3c0a10fc	0.008426901
33	0xbc1a7284	-0.009426717
34	0xbccc7364	-0.024957366
35	0xbc4a3720	-0.012342244
36	0x3c4e4d9e	0.012591748
37	0x3c2fcdb2	0.010730194
38	0x3cde30f5	0.027122954
39	0xbc8aa232	-0.016923044
40	0x3ca68699	0.020327853
41	0xbc74bb1e	-0.01493719
42	0xbc3dc8de	-0.011583535
43	0xbc825e51	-0.015914114
44	0xbaa5ae44	-0.0012640436
45	0xbb87473d	-0.0041283653
46	0x3c412f11	0.011791007
47	0xbc3e0ff8	-0.011600487
48	0x3c727eb9	0.014800721
49	0x3a5d8989	0.00084509753
50	0x3c588c38	0.0132170245
51	0x3d009404	0.03139116
52	0x3bd9fa7a	0.0066521736
53	0xbb5ce85d	-0.0033707835
54	0x3b591270	0.0033122562
55	0x3cbb3065	0.022850225
56	0xbb87fb2d	-0.0041498155
57	0x3baa788c	0.0052023586
58	0x3c042574	0.00806557
59	0xbc0a77ac	-0.008451384
60	0xbc5f8487	-0.013642437
61	0xbb34c973	-0.0027585893
62	0x3c21450c	0.009843122
63	0xbc8bcafd	-0.017064566
64	0x3ce3de3f	0.027815936
65	0x3c2dd485	0.010609751
66	0x3c37dc84	0.011222009
67	0x3c0d03bf	0.00860685
68	0x3d4545b0	0.048162162
69	0xbc3efd18	-0.011657022
70	0xba73f024	-0.0009305498
71	0x3c84d800	0.016216278
72	0x3bab320b	0.0052244714
73	0x3d018d20	0.031628728
74	0x3d75b6ea	0.059988894
75	0xbbf2d50d	-0.0074106515
76	0x3d15e9c7	0.0365999
77	0x3d029b4e	0.03188639
78	0xbbcd6383	-0.0062679662
79	0xbc93ccce	-0.018041994
80	0xbcb9355b	-0.02260845
81	0xbbb9a6fb	-0.0056656576
82	0xbcce482f	-0.025180904
83	0x3cac4f73	0.021033978
84	0x3d00d7e1	0.03145588
85	0x3cfc0368	0.030763343
86	0x3c3753b9	0.011189395
87	0x3cd58468	0.026064113
88	0xbc1761bd	-0.009239611
89	0xbcb63635	-0.022242645
90	0xbc3a8e87	-0.01138652
91	0xbc7e24f3	-0.015511739
92	0x3cc85234	0.02445326
93	0xbd023ddc	-0.031797275
94	0x3c1f5219	0.009724163
95	0x3cb5b260	0.022179782
96	0x3cd122ef	0.025529353
97	0x3c584c21	0.013201744
98	0x3d2ed655	0.04268487
99	0x3d5edde7	0.05441084
100	0xbb745992	-0.0037284833
101	0x3d47721a	0.0486928
102	0xbb0de545	-0.0021651548
103	0x3cd494c8	0.02594985
104	0x3cf93aa6	0.030423474
105	0xbd0b144f	-0.033954915
106	0xbc588bdc	-0.013216939
107	0xbca1f056	-0.019767921
108	0xbbb72cba	-0.0055900486
109	0xbbbf0fa3	-0.0058307215
110	0x3a216fb9	0.00061583106
111	0xbcf9ef49	-0.030509608
112	0x3c2f0fe0	0.010684937
113	0x3bbfeb9e	0.005856945
114	0x3ce5645e	0.02800196
115	0x3cd25185	0.025673637
116	0x3d30a825	0.043129105
117	0x3bcb3005	0.0062007927
118	0xbca1f91a	-0.019772101
119	0x3d318469	0.043339167
120	0x3be5a03f	0.007007628
121	0xbd038401	-0.03210831
122	0x3d43bc26	0.047786854
123	0x3ce78bc6	0.028264891
124	0xbd6e5fd0	-0.058196843
125	0xbc115bd1	-0.008871988
126	0x399e2c61	0.00030169173
127	0xbd800e95	-0.06252781
128	0xbcd4826d	-0.025941098
129	0xbe096870	-0.13418746
130	0xbc01e309	-0.007927665
131	0x3dedda6a	0.11613925
132	0x3db0497b	0.08607765
133	0xbdf4abd3	-0.11946835
134	0x3d988d41	0.07448817
135	0xbdbb5145	-0.0914636
136	0xbcdb0d2a	-0.026739676
137	0x3eed93fb	0.46401963
138	0x3d6fd348	0.058551103
139	0xbd1de930	-0.038552463
140	0xbd87ca75	-0.066304125
141	0xbe23f7b7	-0.16012464
142	0x3d02c884	0.031929508
143	0x3d40f040	0.04710412
144	0xbb43ecfd	-0.0029895895
145	0xbd9a2d13	-0.075281285
146	0x3e0fd384	0.1404553
147	0xbe183246	-0.14862928
148	0x3ed3dc12	0.41378838
149	0x3a657964	0.00087537454
150	0x3ca9de05	0.02073575
151	0xbe44e305	-0.19227226
152	0xbd51793b	-0.051141005
153	0xbdd13878	-0.10215849
154	0xbe125ed3	-0.14293985
155	0xbd766359	-0.06015334
156	0x3de0a97b	0.10969826
157	0xbdff22b1	-0.12457789
158	0xbe0a16e1	-0.1348529
159	0x3daa769c	0.08323404
160	0xbe163eda	-0.14672413
161	0xbd97b9c9	-0.074084826
162	0xbe3845b3	-0.17995338
163	0x3dea8c34	0.11452523
164	0xbdbf512e	-0.09341656
165	0x3c9f74be	0.019464847
166	0xbe72e1bd	-0.23718925
167	0x3e0bf19d	0.13666387
168	0x3e1ba97c	0.15201372
169	0x3db21b72	0.08696641
170	0x3cf3c0a8	0.029754952
171	0x3d66c836	0.05634328
172	0x3dcda5ec	0.10041413
173	0xbe0078d6	-0.12546095
174	0xbe1b2315	-0.15150101
175	0x3da9a3b5	0.08283178
176	0x3dfe3aff	0.12413596
177	0xbe2e9b03	-0.1705132
178	0xbd4cadf4	-0.049970582
179	0xbeb0cb57	-0.34530136
180	0x3af984e8	0.0019036802
181	0x3e2bbe07	0.16771708
182	0xbcf5ac60	-0.029989421
183	0x3dd7eb96	0.10542981
184	0x3dfceb01	0.12349511
185	0x3daeb783	0.08531096
186	0x3d14a642	0.03629137
187	0x3def7f74	0.11694232
188	0xbb5441ba	-0.003238781
189	0xbdab3e81	-0.08361531
190	0x3d6ed285	0.058306236
191	0xbdca8357	-0.09888332

residual_head.bias f4 [3]
0	0x3c3be424	0.011467967
1	0x3d07a3a5	0.033115048
2	0xbc18cd1a	-0.009326244
