grsim_dynamics_network.pth (torch, 10618 bytes, 7 tensors)

wheel_angles f4 [4]
000000 83 46 8d 3f 47 86 15 40 cc 9f 71 40 a7 c8 a8 40
       1.1037143 2.3363206 3.7753782 5.2744937

residual_net.0.weight f4 [32, 6]
000000 ab 41 73 3e 02 48 e6 3e ee 42 51 3c f7 79 28 be
       0.23755519 0.44976813 0.012772305 -0.16452776
000010 8e 36 fb bd ac 10 00 bf 20 07 0b bd ff fa 11 be
       -0.12266265 -0.5002544 -0.03394234 -0.14255904
000020 31 01 ea bc 4b bf 0d 3f ed 22 96 3d 5b 33 da 3e
       -0.028565021 0.55370015 0.0733088 0.42617306
000030 be d5 11 bf 0a f1 95 3e 66 81 03 bf e0 65 aa 3d
       -0.5696677 0.2928546 -0.5136932 0.08320212
000040 03 41 4a bf 12 bd f6 3d 79 16 64 be d6 f1 8d be
       -0.7900545 0.12047781 -0.22274198 -0.2772357
000050 77 5d 1b bf f0 b3 81 bc b2 eb 68 3e c8 eb f9 3e
       -0.6068949 -0.015832871 0.2274616 0.488127
000060 ad 89 83 3e 4d 26 db 3d 8b aa 08 be 36 79 f7 3d
       0.25690976 0.10700665 -0.13346307 0.12083666
000070 97 8a 8c 3d 4a 81 09 bf fd e3 2e 3e b9 12 b6 bd
       0.068623714 -0.53712904 0.17079158 -0.0889029
000080 28 40 67 be da 71 72 3d 49 06 e3 3d 9f a2 04 bf
       -0.22583067 0.05919061 0.11085183 -0.5181064
000090 c3 90 cc bb 9b 05 a5 3d 70 db aa bd 73 2d dd 3e
       -0.006242843 0.0805771 -0.08342636 0.43198738
0000a0 fb 98 1f bf 24 8e fb be af 65 90 be 82 1f 0d 3e
       -0.62342805 -0.49131882 -0.28202578 0.1378155
0000b0 3c 3c 16 3f d9 f2 d7 3d 13 bd eb 3e 18 7d 69 3e
       0.5868566 0.105443664 0.4604269 0.22801626
0000c0 01 88 c0 3d e0 42 b1 3d 5f 17 02 bf 7e 6b 79 be
       0.09400941 0.086553335 -0.5081691 -0.24357411
0000d0 ac 0a 99 be f9 b8 6d 3e 31 30 3e bd 01 dc 8f be
       -0.29890954 0.23215093 -0.046432678 -0.28097537
0000e0 19 a4 e3 bd b0 90 89 3e 8d b9 11 bf 43 a5 06 be
       -0.111152835 0.268682 -0.56923753 -0.1314898
0000f0 3a aa d8 bd 53 2e 30 3f 09 2d 19 3e 40 c5 3d 3c
       -0.10579343 0.68820685 0.14958586 0.011582673
000100 02 89 88 be 24 ed dd 3e 99 eb c0 be 2b ea e2 be
       -0.2666703 0.43344986 -0.37679747 -0.4431928
000110 71 5c 13 be 38 1d d5 3e fa 10 00 be ce 3b 9e be
       -0.14390732 0.41623855 -0.12506476 -0.30905002
000120 31 4b eb 3c 5c 82 06 bd 9e 7b a7 3c 03 50 49 3e
       0.028722377 -0.032839164 0.020444687 0.19659428
000130 59 03 97 3e fa c6 07 3f 46 8e 88 be 24 54 01 bd
       0.29494742 0.5303799 -0.26671046 -0.031574383
000140 54 ee f7 ba fe 21 58 3d 46 e6 a9 be 9d c9 d4 be
       -0.0018915632 0.052766792 -0.33183497 -0.4156007
000150 5c 25 81 3d 72 10 6e 3e d5 eb 19 bf 20 54 50 bc
       0.06305954 0.23248461 -0.60125476 -0.012715369
000160 9c 61 1b be 28 3e 30 3f 95 7e 2c be a4 cf 34 3f
       -0.15173954 0.6884484 -0.16845162 0.70629334
000170 cc 6b 4b be 93 58 f4 3e 53 df 9f 3d 42 69 e3 be
       -0.1986534 0.47723827 0.078062676 -0.44416243
000180 c8 4f fe be 85 8c 41 3e 6e 73 95 bc be 11 37 bf
       -0.49670243 0.1890126 -0.018243518 -0.7151145
000190 ca f0 e0 3e fd 02 06 be 05 95 9f 3e 75 07 7e bc
       0.43933707 -0.13087077 0.3116838 -0.015504708
0001a0 e6 cb 7b 3d 42 a1 5e 3f 05 2c 1b be e4 ce 4a 3e
       0.06147375 0.8696481 -0.15153511 0.19805485
0001b0 ba 6c 49 bd 11 19 0d bf 68 74 b7 3d a7 91 1d 3d
       -0.049175955 -0.55116373 0.089577496 0.038468983
0001c0 cd 2a b8 3e 5a be 0a 3f 36 d6 6e be 1d c9 d3 3e
       0.35970154 0.54196703 -0.23323902 0.41364375
0001d0 82 be 43 be 06 42 22 3f 39 75 c5 bd 46 32 3f bd
       -0.19115642 0.63381994 -0.09641499 -0.046678804
0001e0 9a ab 97 be 9c 0b 84 bd bd fa f7 bc ce a4 d4 3b
       -0.2962311 -0.06447527 -0.030270929 0.006489373
0001f0 be 1e 20 3f e6 8a 95 3d b3 2a df bd 44 79 d0 be
       0.6254691 0.073018834 -0.10896816 -0.40717518
000200 be 14 0a 3d 0f 61 85 3e b6 43 5a be 24 2a 12 bf
       0.033711188 0.26050612 -0.21314892 -0.5709555
000210 51 16 5f 3e ce 0b 6d 3d fc e8 56 bd d0 24 d3 be
       0.21785857 0.057872586 -0.052468285 -0.41239023
000220 9e 48 20 3f 88 4c ee 3e 2b 38 b2 3d 1d 78 1d be
       0.62610805 0.46542764 0.087021194 -0.15377851
000230 b3 25 7b bc 9d c4 1d bd 03 ad ff bd e8 ae 0f bf
       -0.015328812 -0.038517583 -0.12484171 -0.5612626
000240 51 4d dd 3e b9 75 99 be 5c a6 4b bd 3c 35 52 bd
       0.4322305 -0.29972628 -0.0497192 -0.0513203
000250 84 d1 f4 be 7a 45 0c be a5 b5 47 3d 81 a5 03 3f
       -0.47816098 -0.13698378 0.048757214 0.51424414
000260 dd 8d dd be db 29 35 3d 83 d1 5e be 91 6f 0b 3f
       -0.43272296 0.04422937 -0.2175961 0.5446711
000270 2c dc c6 be 2b 17 97 3e 8c 00 ad 3d 42 d0 a1 3e
       -0.38839853 0.29509863 0.0844737 0.316042
000280 80 8a 20 bd bb dd 12 3f 8c 37 6d bd 2c eb 34 bb
       -0.039194584 0.57369584 -0.0579143 -0.0027605994
000290 35 35 83 3e 9b 66 2e be 83 2a a0 bd 36 18 60 be
       0.2562653 -0.17031328 -0.078206085 -0.21884236
0002a0 62 bf 89 be 1f 6d 47 3d c5 ad bc 3c 8b 1f 2c bf
       -0.26903826 0.04868805 0.023032079 -0.6723563
0002b0 d4 a0 4f 3d 80 bd c6 be df c5 fb 3c d3 9c 9d 3c
       0.050690487 -0.38816452 0.030734 0.019239819
0002c0 9c 9e cb 3c 68 0e cf 3e 34 c2 c4 bd ee c1 e2 3e
       0.024855904 0.4044068 -0.09607354 0.44288582
0002d0 b4 17 ad b9 d5 2d 93 be ac 5f c2 3d 5c 27 80 3d
       -0.00033014792 -0.28745905 0.09490904 0.06257507
0002e0 83 58 8f 3e 30 64 0e 3f fd f8 0c bd 42 05 e2 3e
       0.27997217 0.55621624 -0.03441714 0.44144636
0002f0 cf e7 22 bd f4 20 e7 3e 92 06 19 bf 82 8f f8 be
       -0.03977185 0.4514233 -0.5977565 -0.48546988

residual_net.0.bias f4 [32]
000000 3d 7d 5d be d2 43 45 be 3d dc a8 be af 9d e6 3d
       -0.21629806 -0.19264153 -0.32980528 0.112605445
000010 59 86 0c 3e 31 b7 7a 3e 3b 15 ae be dc 4e b7 be
       0.13723125 0.24483944 -0.34000573 -0.35802352
000020 a0 40 b1 bd 1a ad a5 3d 35 b3 24 be 3a 98 3d 3e
       -0.08654904 0.08089657 -0.16083987 0.18515101
000030 ed 78 a7 be f8 d0 82 bd 8d 8d 9a be a0 0b ca 3e
       -0.32709447 -0.06387514 -0.3018612 0.39461994
000040 a1 3b 93 bb 76 d0 de be 1d 3f 15 bf 13 f7 4d 3e
       -0.0044931923 -0.43518418 -0.5829943 0.20113783
000050 17 8c 1c 3e fe a0 78 be e1 bc ed 3e 70 8f 8a be
       0.15287815 -0.24280164 0.46433166 -0.2706256
000060 7e d7 f5 be 44 ea cf be 8e 66 b3 3e ce cd 44 be
       -0.4801597 -0.40608418 0.3503918 -0.19219133
000070 41 26 a7 3e 1a 74 3a 3e 76 2c c7 be 10 e8 a8 be
       0.32646373 0.18208352 -0.38901109 -0.3298955

residual_net.2.weight f4 [32, 32]
000000 dc b6 4d 3e f3 90 bc be 6f 77 71 be e6 9b a4 be
       0.20089287 -0.36829337 -0.23580717 -0.3215019
000010 1d d5 7a 3e 88 0e 8b bd 4c ea 66 3e 0d a7 7c bd
       0.24495359 -0.06789881 0.22550315 -0.06168275
000020 a6 21 28 be 91 a2 4f 3d 0a cb ea 3d a8 c0 62 3d
       -0.16419086 0.050692145 0.11464508 0.055359513
000030 b7 5d b8 bd 72 5d 01 3d e5 a4 15 be d8 8b 67 3e
       -0.0900225 0.031583257 -0.14613684 0.2261194
000040 69 e7 f2 bc 64 81 97 3c 37 26 d5 3c f9 72 30 3d
       -0.02965136 0.018494315 0.026019199 0.043078396
000050 a7 8f 4b bd 8a dd cb 3d 70 c9 86 be c7 9c d0 3e
       -0.049697544 0.099543646 -0.2632556 0.40744612
000060 62 91 67 3e 2b f2 80 be 95 2b 71 be e9 09 34 3e
       0.22614053 -0.2518476 -0.23551781 0.17581905
000070 9f 2d ae 3d 01 31 83 be fe e5 da 3d 0e 24 ad 3e
       0.08504795 -0.25623325 0.10688399 0.3381657
000080 ab 2a 9e bd 2f 19 36 3e 51 22 23 3e fb 68 80 3e
       -0.07722982 0.17783044 0.1593106 0.25080094
000090 92 87 92 be 98 4f 3b 3d d4 f3 b1 be 39 bc 89 be
       -0.28619057 0.045730203 -0.3475634 -0.26901415
0000a0 31 45 0d 3e 29 a5 65 bb dd ed 04 3e 87 9c 2c 3c
       0.13795926 -0.003504107 0.12981363 0.010535366
0000b0 91 1a cc 3d 55 eb d6 bd 83 25 a8 3e 1e a6 d8 3c
       0.09966005 -0.10494105 0.3284112 0.026446398
0000c0 20 27 64 3b 5c 30 19 3d 8c 04 36 3d 5e 19 96 be
       0.003481336 0.037399635 0.04443793 -0.2931623
0000d0 95 85 fb 3d 1e eb 80 be e6 e9 ac 3e ec a9 2e be
       0.12281338 -0.2517938 0.337722 -0.17057008
0000e0 20 3b 27 be 3b fd 82 3e f3 dc 5b 3e 68 4a bd 3d
       -0.16331148 0.25583825 0.21471004 0.092427075
0000f0 d5 bb 66 be af 00 5c 3c 00 9d 1b 3d 21 20 8c be
       -0.2253259 0.013427897 0.037991524 -0.27368262
000100 45 55 8e be 1b 3c d6 3e 16 b6 7c 3e 99 19 b1 3e
       -0.2779943 0.41842732 0.24678835 0.34589842
000110 56 76 88 be fd cd a0 bd bb 40 9c be 10 27 06 be
       -0.26652783 -0.07851789 -0.30518135 -0.13100839
000120 6b 35 83 3d b8 67 fb bd 8f 45 4d be 4f 30 af 3e
       0.06406673 -0.12275642 -0.20046066 0.34216544
000130 77 af 07 bd 95 80 19 3e 12 27 3e 3e a5 32 34 be
       -0.03312632 0.14990456 0.18569592 -0.17597444
000140 3c 55 e7 ba 5f 57 8f 3c 75 51 10 3d 07 ce 10 be
       -0.0017649303 0.017497716 0.035233933 -0.14141093
000150 ee ea 86 3e c6 a7 60 be f4 71 37 3d b3 55 62 be
       0.26351112 -0.21939 0.04478641 -0.22103004
000160 39 cf 10 be b6 99 00 3e ad 62 4d 3e 8c b6 57 be
       -0.14141549 0.12558636 0.20057173 -0.2106573
000170 22 b5 ae be 68 ea 7c 3e d0 4f 62 3e 38 c0 c3 be
       -0.34122568 0.24698794 0.22100759 -0.3823259
000180 b5 d8 18 be 5a 21 ae 3e 68 8f 9e 3e 72 48 58 3e
       -0.14926417 0.3400982 0.30968785 0.21121386
000190 eb e1 4f 3c de cf 44 be 15 60 29 bd 8f ea 7b bd
       0.01268814 -0.1921992 -0.041351397 -0.06150299
0001a0 8e 11 72 3d 01 d8 91 3d 17 5a 66 bd 93 d8 6b 3e
       0.059098773 0.071212776 -0.05623826 0.23031835
0001b0 cd a2 08 3e fc 2e d5 3c 18 7d 68 3e d2 15 99 be
       0.13343354 0.02602338 0.2270397 -0.2989946
0001c0 93 5b a5 be 37 2c 53 3d a5 c6 95 3e d7 6b 50 3d
       -0.32296428 0.05155584 0.29253116 0.050884094
0001d0 6f 1c e1 3d d5 9d 5a be bc c9 98 3e 9d 39 75 be
       0.109917514 -0.2134927 0.2984141 -0.23947759
0001e0 92 ce 83 be a9 9d f4 3e 05 b4 b6 3e e4 a0 37 3e
       -0.25743538 0.47776535 0.3568422 0.17932469
0001f0 83 5f 29 be 2d 81 b7 3d e1 d0 54 3e 6c 0b a1 be
       -0.16540341 0.08960185 0.20782806 -0.31454027
000200 47 6c 94 be 58 36 44 3e 0d af 9c 3d 6c ef d1 3e
       -0.2898886 0.19161355 0.07650576 0.41002977
000210 74 9d 5d be a3 32 8e bd 1a 8a ea be bc 8a 90 be
       -0.21642095 -0.06943252 -0.45808488 -0.28230846
000220 d9 26 e1 3e c7 bd cd bd 96 c5 86 be cb aa 81 3d
       0.4397495 -0.10045963 -0.2632262 0.06331404
000230 ac f5 33 3e cd cf a8 bd ff 4d 43 3e 71 87 a8 be
       0.17574185 -0.0824276 0.19072722 -0.32915834
000240 57 8a 41 be 01 f7 00 bd 6a aa 54 3e db 78 8a be
       -0.18900429 -0.03148556 0.20768133 -0.2704533
000250 ab 42 49 bc 1f aa 8e 3d b7 22 44 3e 73 cd 84 3c
       -0.012283961 0.06966042 0.19153868 0.016211247
000260 ec 1a 54 be f5 10 ef 3d 95 00 1b be 6b 07 c4 bc
       -0.20713395 0.11673156 -0.15136941 -0.023929318
000270 58 1b 9b bd 34 40 a2 bd 2a e4 c6 bd 82 e1 e3 be
       -0.07573575 -0.07922402 -0.097114876 -0.44507986
000280 6b 0f 73 39 92 0d eb be ae f8 ca be 10 3b 3a be
       0.0002318003 -0.4590879 -0.39642853 -0.18186593
000290 3e c6 19 3e ab 3e 1e 3e 4e 87 fa 3d a7 6d 03 3e
       0.1501703 0.15453593 0.122328386 0.12834798
0002a0 52 0a bb 3d cc 41 51 bd 83 76 80 bd 2c 30 01 bd
       0.09132828 -0.05108814 -0.06272604 -0.03154008
0002b0 71 e3 a0 be 0b 6f 02 3e 87 bd 97 be b0 7c 91 3d
       -0.31423524 0.12737672 -0.29636785 0.071038604
0002c0 ea d2 0c 3e f9 47 a3 be d4 d9 1d be 68 e4 d8 3d
       0.13752332 -0.31890848 -0.15415126 0.1059044
0002d0 b4 9e 52 bc c5 f0 96 bd 2a 73 f0 bb dd dc 99 3e
       -0.012855221 -0.07370142 -0.0073379474 0.30051318
0002e0 8f af 49 3e c2 aa 89 bd d0 93 c2 bd 99 0a f4 3d
       0.19695877 -0.067220226 -0.09500849 0.11916084
0002f0 81 bd f9 3e 76 b9 4a bd 6b 21 0e be 1b 97 0a 3e
       0.48777393 -0.049493276 -0.13879935 0.13534205
000300 e6 72 d3 bc f2 2e f4 3d 28 60 45 3e 9a 65 09 3e
       -0.025811624 0.119230166 0.19274962 0.13417664
000310 09 32 57 bd 44 3b 36 3d e9 8d d2 3e 03 22 c5 3e
       -0.05253795 0.044490114 0.41123894 0.3850251
000320 41 fd 0f be 2c 3d 94 bd 68 76 b4 3e 7d 01 98 3d
       -0.14061452 -0.0723823 0.35246587 0.07422159
000330 36 3c 5a 3e 32 c9 3f 3d d6 92 b9 3d 0c ce 2e 3e
       0.21312031 0.046822734 0.0906121 0.17070788
000340 e4 32 f2 bd e5 a6 91 3e be d8 29 3d af 18 b5 3e
       -0.11826113 0.28447643 0.041466467 0.35370395
000350 d7 fc 02 be 44 6e 94 3d 6d 76 c8 be 3e b9 73 bc
       -0.12791763 0.07247594 -0.39152852 -0.014875708
000360 0e a5 f3 bd 5f df 54 3e 23 a0 cd 3d c6 85 b0 be
       -0.11896716 0.20788334 0.10040309 -0.3447706
000370 92 fd 6b be c9 0b 7e 3e b9 2c 82 bc 7a e7 11 3f
       -0.23045948 0.24809183 -0.015890466 0.5699383
000380 d4 b5 05 be bb 67 75 bd e6 8e 42 be 90 c8 a4 3e
       -0.13057643 -0.05991338 -0.18999824 0.32184267
000390 8f 65 44 bd 53 60 13 3e f7 15 c7 be 5e d2 9a 3b
       -0.047948416 0.14392214 -0.38883945 0.0047247848
0003a0 8a fa b3 3d 2d e0 12 be 3d cc 70 3c 7f af 30 be
       0.08788021 -0.14343329 0.014697132 -0.17254446
0003b0 e7 8c b1 3d b1 6b f8 bd c4 3f 88 bd 51 f6 17 be
       0.08669453 -0.121299155 -0.06652787 -0.14840056
0003c0 83 80 7b bd f9 fb 5d be 4f cb 1a 3e e2 6f 8f be
       -0.061401855 -0.21678151 0.15116619 -0.28015047
0003d0 b3 98 31 3e 94 6d a7 be 0c 92 04 3f aa 1e 42 be
       0.17343406 -0.3270079 0.5178535 -0.1895701
0003e0 b8 22 62 be 35 04 df 3b 9a 20 bc bd 19 a3 8a bd
       -0.22083557 0.0068059214 -0.09185906 -0.0676939
0003f0 f0 7c 19 3e 86 16 2e be cf f4 c9 3d bc d3 ec be
       0.14989066 -0.1700078 0.09861147 -0.4625529

residual_net.2.bias f4 [32]
000000 cb 15 17 bc fd c2 30 3e a9 a6 f9 bd b0 20 2d 3e
       -0.009221504 0.17261882 -0.12189991 0.16907
000010 16 4d 17 3e 86 67 f2 3d bc 61 50 be d8 fd 88 3e
       0.147755 0.11836152 -0.20349783 0.26756167
000020 01 7b 94 3e d1 4e 74 3e 99 4e 70 3d 66 f6 2a bc
       0.29000095 0.23858191 0.058668707 -0.0104347225
000030 a7 d7 2e 3e 9e 58 8b be 52 bf d8 bd e9 ea 7f bd
       0.17074452 -0.27216047 -0.105833665 -0.062479887
000040 91 89 22 3e b9 89 f9 3c a5 5d 97 be ef 6a a3 3d
       0.1587279 0.03046118 -0.29563633 0.0797938
000050 fb 81 96 bd 65 ff 12 be 02 a9 5e be e4 7e 78 bd
       -0.073490106 -0.14355238 -0.21744159 -0.060667887
000060 30 b0 21 be 93 4c ca bd 7d 15 e6 bd a1 bf dd 3e
       -0.15789866 -0.098778866 -0.11234567 0.43310264
000070 7c 95 19 be fa c0 b2 3e 7b 0d 0f 3d 04 b8 73 3e
       -0.1499843 0.34912854 0.034924965 0.23800665

residual_net.4.weight f4 [3, 32]
000000 8e 8c 37 3d 59 d7 4a 3d 29 82 32 bd c5 a4 ca bd
       0.044811778 0.049521778 -0.04358116 -0.098947085
000010 81 87 72 3e 74 27 25 3e d0 bf d5 be 0f 9e 5c 3e
       0.23684503 0.16128331 -0.41747904 0.2154467
000020 30 1f 39 bc 53 51 32 3e 03 5d 50 be e0 7e 2e bd
       -0.01129894 0.17413835 -0.20347981 -0.042601466
000030 10 03 91 3e 3c e0 33 be 57 47 a6 3d c5 ac e2 bd
       0.2832265 -0.17566007 0.08119076 -0.110681094
000040 e0 52 93 3d ba 18 2e be 49 9d 9a bd 00 1a cb 3d
       0.071935415 -0.1700162 -0.07549531 0.099170685
000050 8e 51 0f 3e 98 d0 b5 be ef f1 c3 be 56 f7 58 be
       0.13995954 -0.35510707 -0.38270518 -0.21188101
000060 c8 58 4a be 88 0a 30 3d 57 61 d7 bd d0 63 e2 3e
       -0.1976043 0.042978793 -0.10516613 0.44216776
000070 6d 95 8d be 15 77 a7 3d 77 14 27 be 9b c5 01 3e
       -0.27653065 0.0817701 -0.163164 0.12673037
000080 6e 4c a9 3e db ec b5 be 64 e3 a2 be 22 ac 7f be
       0.33066124 -0.3553227 -0.3181411 -0.24968007
000090 a2 7c c0 be f3 a6 85 3e 30 5b b8 3e 7a e7 c0 be
       -0.37595087 0.26103935 0.3600707 -0.37676603
0000a0 54 0a b7 be 7d bf cc be b6 66 3c be 39 7c bd 3e
       -0.35750067 -0.39989844 -0.18398556 0.37008837
0000b0 1c 22 46 3e a2 1d c0 3e 02 de 9e 3e b4 bc b1 be
       0.19348949 0.37522608 0.31028754 -0.34714282
0000c0 96 fe 95 be ed 98 8a be d9 af bc 3e 4f b0 8f 3e
       -0.29295796 -0.27069798 0.3685291 0.280642
0000d0 8f 86 bd be 3a e8 5f be 24 4e 83 be ab 54 86 be
       -0.37016723 -0.21865931 -0.25645554 -0.26236472
0000e0 ba f2 84 be f1 c4 94 3e bc eb a7 be 4b 00 b2 be
       -0.25966436 0.29056504 -0.3279704 -0.3476585
0000f0 56 45 78 be 23 da bb be f2 8e 24 be c6 f2 dc be
       -0.242452 -0.36689863 -0.16070154 -0.4315397
000100 e2 a2 8b be 88 78 92 3e b7 b6 9b 3e d3 35 d4 3e
       -0.27272707 0.28607583 0.30412838 0.41447315
000110 e9 ed 65 3e 0b 92 ca be 1f 82 88 be e8 96 48 3e
       0.22454037 -0.39564547 -0.26661775 0.19588816
000120 ea 12 9f 3e d0 64 87 3e 97 8e fa 3e 4b 00 42 be
       0.31069118 0.264441 0.48936912 -0.18945424
000130 f5 df 00 bf f4 4e 7e be 4d bf 9c be 5b 26 22 3e
       -0.5034173 -0.24834806 -0.306147 0.15834944
000140 0a 26 8b 3e 32 e0 dc 3e fe 1b a4 be e0 7d a9 be
       0.2717746 0.43139797 -0.32052606 -0.33103848
000150 8d d9 4a 3e ec cf ef 3e 03 48 e0 3e c4 de c2 3e
       0.19809552 0.4683832 0.4380494 0.38060582
000160 67 61 cc 3e a6 14 a0 be 3d cd 92 3e 22 17 67 3e
       0.39918062 -0.31265754 0.2867221 0.22567418
000170 d7 f6 da 3e ee 64 92 3e 43 9c dc 3e ca e7 3f 3e
       0.4276645 0.28592628 0.43087968 0.18740764

residual_net.4.bias f4 [3]
000000 1d 63 24 3f 02 85 08 3e 88 1a 3b 3e
       0.64213735 0.13331988 0.1827184
