grsim_neural_dynamics_network.pth (torch, 10258 bytes, 6 tensors)

residual_net.0.weight f4 [32, 6]
00000000: 52d2 05bf 77a9 193d c8ec 2fbe 9a10 d53e
00000010: a052 df3d 3387 723e 6e9e 993e e3b5 353e
00000020: c4bc 2f3e 9630 65be 9a25 1f3e e034 08be
00000030: 2303 bdbe 45df 2dbf 67ed 003f f19e babe
00000040: bb4f 2ebf 489d 4e3f 7309 383e 53ce 0c3e
00000050: f24c 523d 72e5 3ebd f495 5d3e f7f7 f6be
00000060: 729e b8bd 3c0c d93e 9d5d 5dbf 3c13 c9bc
00000070: bd7c 013d 36da 9cbf 15e9 8dbe 7632 09be
00000080: e30f 3b3f 5299 973e f062 a93e 8691 6abe
00000090: 4899 a13d 4335 6c3c 8187 e8bf 82cc 91bd
000000a0: 8bae cabe 2811 4fbf b6e8 6abe e296 663e
000000b0: 6f9a 6dbe 8196 823d a035 a93d 0030 d73e
000000c0: 5795 68bc f9e8 323e 7b88 b3bf d936 913d
000000d0: 015f 1ebd cb36 afbf 766a cd3e 4788 13bf
000000e0: eb20 883e 24d9 27be 210f c43e 66bd 9e3e
000000f0: ab27 0bbe 6c06 ef3e df0f 7cbe b886 553d
00000100: 6574 693e a68c 4cbd cc43 96be 3c19 083f
00000110: 748a 2ebf 6526 953e 86d0 37be 571a 18bf
00000120: 0904 da3d eae2 d1be d63c 04bf fa78 c1be
00000130: ef4e 2d3e 9069 c3be e97e eabe 0f82 fcbd
00000140: ff43 15be 0a46 02be 7a69 d3bd af00 f7bc
00000150: 4b0d acbe 236d ddbe 6db2 ffbe d451 9dbe
00000160: 87bd 5dbf d2c1 353e 7bfe 2bbe b0bb 02bf
00000170: 891b 4d3f e7a1 a93e 8350 953e b533 6d3f
00000180: db2d 983e 4377 393e f34f f73d 7abf 18be
00000190: ccdb fa3e 1a87 a63d 64d9 113f 7179 f5bd
000001a0: 3ca6 9c3f f5e0 3e3e af37 d03d c032 563f
000001b0: 8b8a cc3d 1087 cfbe 56da ab3f 2189 3d3e
000001c0: 5257 bebe 5e04 8d3f 018c 94bd d94d 22be
000001d0: 9457 763f 9c98 823e 83de acbe 8f29 c13f
000001e0: 4557 f1bd 931a 743e 94bc a9bd a172 fa3e
000001f0: 5b10 0fbf 5802 523f e3e7 ec3e 0c64 14bf
00000200: 198a d9be bfd9 083e cdf4 54bd a199 1d3f
00000210: 8ce9 85be bceb 423e e91a 9bbf aafe 413e
00000220: 56d9 ca3d f9b0 79bf de14 92be 6814 56be
00000230: cfef 7a3f 7563 16be e8b3 25bf 4502 813f
00000240: 86da 4fbe b73d 393e a7a5 ea3f 89c8 d83d
00000250: ee48 763e f40c 713f 4299 f53d 9c86 95be
00000260: 0428 6c3f f0f6 9abd 5ff0 5abe ab16 233f
00000270: 4854 0f3e c9d2 77be 7b96 173d 5b91 293f
00000280: f16c 4dbd 5aba 053f 2695 053e e6f4 0abf
00000290: 2988 edbe ff7a 21be c652 053d 01d0 e5be
000002a0: 5d27 8cbd 330d e63e 7bf0 863f 737a 3fbd
000002b0: 856d 313e 4093 863e e305 333d 2840 a4bd
000002c0: c85b 0440 9e3b 29be 4de6 073f 2103 d83f
000002d0: 02cb a6bd 188e acbe d67d 06c0 4461 573d
000002e0: 735e 243d 8d54 b2bf b754 803e 4088 0e3f
000002f0: 4d94 29bf 418c a33e cdff 103f 3b63 8dbe
-0.5227405 0.03751513 -0.17180169 0.41614228 0.10904431 0.23684387 0.30003685 0.17745166
0.17161852 -0.22381815 0.15541688 -0.1330142 -0.36916456 -0.6791881 0.5036225 -0.36449388
-0.6809041 0.8070874 0.17972355 0.13750581 0.051342912 -0.046605535 0.21639234 -0.48236057
-0.09014596 0.42392147 -0.8647097 -0.024545304 0.0316131 -1.2254093 -0.2771689 -0.13398156
0.73071116 0.29609162 0.33083296 -0.22907075 0.07890564 0.014416995 -1.8166353 -0.07119085
-0.3958629 -0.80885553 -0.22940335 0.22518495 -0.23203443 0.063763626 0.08262181 0.4202881
-0.014195762 0.17471685 -1.4026026 0.070905395 -0.03866482 -1.3688596 0.40120286 -0.5762982
0.26587614 -0.16391426 0.38292792 0.31003875 -0.13589351 0.46684587 -0.2461543 0.05213043
0.22798307 -0.04993882 -0.293486 0.53163505 -0.6818001 0.29130855 -0.17950639 -0.5941519
0.10645301 -0.40993434 -0.5165533 -0.3778761 0.16924642 -0.38166475 -0.4579995 -0.12329494
-0.1457672 -0.1272203 -0.103228524 -0.030151693 -0.33603892 -0.43247327 -0.49940816 -0.30726492
-0.8661732 0.17749718 -0.16796295 -0.5106764 0.8012014 0.33131334 0.29162988 0.92657024
0.29722485 0.18111901 0.12075796 -0.14916793 0.48995817 0.08131237 0.56972337 -0.11986054
1.2238231 0.18640502 0.10166871 0.8367119 0.099873625 -0.40532732 1.3426006 0.18509342
-0.37175995 1.1016958 -0.07253266 -0.15850009 0.96227384 0.25507057 -0.33763513 1.5090808
-0.117842235 0.23838262 -0.082879215 0.4891558 -0.5588433 0.82034826 0.46270666 -0.5796516
-0.42488173 0.13364314 -0.051991273 0.61562544 -0.26154745 0.19035238 -1.2117587 0.18944803
0.09904735 -0.97535664 -0.28531545 -0.20906222 0.9802217 -0.14686377 -0.6472764 1.0078818
-0.20298204 0.18089949 1.8331803 0.10585124 0.24051258 0.9416039 0.11992122 -0.2920426
0.9224856 -0.07566631 -0.21380757 0.63706464 0.13996994 -0.24201502 0.037008744 0.6623742
-0.050152723 0.52237475 0.13045177 -0.54279935 -0.46392944 -0.15769576 0.032549642 -0.44885257
-0.068434455 0.44931945 1.0542139 -0.046747636 0.17326935 0.26284218 0.043706786 -0.08020049
2.068102 -0.16526648 0.53085786 1.6875955 -0.081441894 -0.3370216 -2.1014304 0.052582994
0.040129136 -1.3932053 0.25064632 0.5567665 -0.66241914 0.31942943 0.5664032 -0.2761477

residual_net.0.bias f4 [32]
00000000: 2dd9 96bd d0f3 803c a24a abbe ddcb 453e
00000010: 0d5f 49be 17b6 debb 81f0 3e3e 847f 0fbe
00000020: 2134 f6bd 71f5 e93d 1b2c 403e b1e0 933e
00000030: c124 813d 343a 973e 4fc5 92be b061 a2bd
00000040: ca46 fbbe f3e3 06bf ca55 ed3d d4b5 933e
00000050: 4cc7 663e fe67 7d3d 031e 18be caf5 74be
00000060: 4458 943e f4a2 de3d 01c6 04bf 2688 01bf
00000070: 315d 2fbe 44ea 033d f981 c23d df55 653e
-0.07365642 0.015741259 -0.33455378 0.19316049 -0.19665165 -0.006796609 0.18646432 -0.14013487
-0.120216615 0.11423767 0.18766825 0.28882363 0.063058384 0.29536593 -0.2866616 -0.07928789
-0.49077445 -0.5269157 0.115886286 0.2884966 0.22536963 0.061866753 -0.14855199 -0.23921886
0.2897359 0.108709246 -0.5186463 -0.5059837 -0.17125393 0.032205835 0.094974466 0.22396038

residual_net.2.weight f4 [32, 32]
00000000: 977c 95bd baa6 563e 0710 123e 53d2 e1bc
00000010: 0485 d7bd 489b e13c 7de4 03be f8af 89bc
00000020: 042e 183e addd 113f 06f5 1abc e4dd e6bc
00000030: cbf8 f8bd fa37 13be ef6a 163e bb55 45bd
00000040: ccc1 abbc 3012 fcbc 0dbb 21be c55e 4bbe
00000050: b549 5dbe 8edf b53d 52cd 993d 1aa3 a2bd
00000060: 750e eb3d 8832 dcbd a824 393e 92f0 67bc
00000070: 4ed8 12bd 480a 853e acd0 43bd ae47 ccbd
00000080: d493 173f a970 cb3c 4a65 c73e ac56 5bbd
00000090: e8cd 8d3e d2bc 1a3e a940 9bbd c9fc ef3d
000000a0: 605d 003f a4d2 e6be ce41 243e aac2 d43e
000000b0: 72c3 50be cb8c bc3d 26ff 043f 3697 a7bd
000000c0: 8a3e d23d 7e4b 28be 787e 8cbe 35e7 30bd
000000d0: a194 5c3d 4ec7 03be 740b b23e 3686 ca3d
000000e0: e3f7 55bd ecc7 c6bc 08aa a63e 1125 703d
000000f0: 39f2 ecbd a7f2 92bc 14b1 383d e14b 91bd
00000100: dc81 383c 93cd f13c 7946 133e 30fe 6a3e
00000110: 379c 4c3e 0fe7 67be ea79 623e 9b14 f0bc
00000120: 8780 823e 6093 c4bd 58a6 a43c 7c2d d83e
00000130: e70f b6be f572 06be 0cdf ac3d 50a2 a13d
00000140: a72b 46be e86d d2bd 3bfd 6cbe 2d1d 863d
00000150: 6cfc 513e 23c7 fe3d e2d3 4b3e 61b9 f23d
00000160: 0d87 d03d fc4a 18be 05fb bf3c 99dd 3cbd
00000170: fad7 693d b10c 04be 087a b3bd 33d7 6fbd
00000180: c0e9 a7be 238d 66bd 1722 583e c5bc 99be
00000190: 4447 edbe d425 07be 5af3 dd3d 972f 73bd
000001a0: 5a79 ffbd 20b5 0b3f ae84 c1be 422b 14bf
000001b0: bef9 b43e 00e0 08be 4bb9 82be 4813 553e
000001c0: d825 82bd 587b d73e 7b04 d13e e49b ec3d
000001d0: fcc6 48be 836c 123d 89e6 b7be 3127 1bbd
000001e0: 4a02 98be 3ff5 553e 95fb 683e 1e51 093f
000001f0: c318 1ebe 0b73 f9bd 0e9e fd3d dec5 f4bd
00000200: 9714 aabd 843d 723e 8651 f6bc bd2d d53d
00000210: 8872 fc3d 23c8 02be 3db0 ef3d 4b5d 0dbc
00000220: 542d 8e3e 5587 7a3e ae7f 263e 21f2 2c3d
00000230: deab 47bd 4564 73bd c3f7 833e 9293 73bd
00000240: d5ba 1c3e 6d24 163e f03a 4ebe faf9 26be
00000250: 378a 1bbe 1af4 243e 5d07 493e 0a97 18be
00000260: 336c 343c 1377 e53d 3c9e 983c 9be1 d5bd
00000270: e0bd 993d 8b4d 743d e079 563d 3a12 9a3d
00000280: 71db 0cbe d9ab bd3e 5a94 c73d 0ed2 943e
00000290: 6b91 13be 2824 003e 65d0 3cbe bb20 e6bd
000002a0: 5e3d 88be d218 423d 000b c33d 22a5 e7bc
000002b0: b9bf 2dbe 5886 803c 450b ef3d 311f c4bd
000002c0: 37fc a43e b34a a03e 9cbf 843c 0097 17bd
000002d0: b7c3 19be e17f 203e 8868 52be acbb 383e
000002e0: 0aa4 ae3e c38a 92bc a451 cc3d dc4b b0be
000002f0: 927c abbb b5a2 dd3e b4b4 3abf 88ba 40be
00000300: 18b5 82bd d2b0 833d 90f3 60be 4a6c b53c
00000310: 9e34 cebd 1cff b0be 165d 5e3e fa86 a9ba
00000320: 2220 b6bd 89c7 c93d fb03 4c3d ce42 3b3d
00000330: fd6d ae3d b66d 073e 35a4 6bbe 8e28 80bd
00000340: fa97 57bd 50db 2bbd 9191 97bd 87dd be3d
00000350: 10ab 68be c6cd 92be c803 ffbc 4977 52be
00000360: f39f 79be 30fa 26be d13d 69be 9f2f 103e
00000370: 30c9 37bd e77d dcbd 5678 393e 7532 f03c
00000380: 3a09 17be 2c4b 24be 99ba 43be 29b3 bcbd
00000390: 8a8e bfbd 2d1a 2b3d 7008 43be 6dde 433e
000003a0: ee12 5ebe 4d77 ea3d bfb2 0e3e f126 a5be
000003b0: 74a6 6a3d 618a dc3d a55a b3be 9193 583e
000003c0: 3bcd 20be b8f1 bb3d 36a8 873e db1e 6d3e
000003d0: 3747 653e df72 11be aa78 d9bd 0c78 20be
000003e0: c99e 18be eed5 34bb 0c38 80be cca7 ee3d
000003f0: b44d 8e3e 3e39 093d fe28 b4bd ffac fcbc
-0.07299154 0.20962039 0.14263926 -0.02756611 -0.105234176 0.027539864 -0.1288013 -0.016807541
0.14861304 0.56978875 -0.009457832 -0.028181978 -0.121568285 -0.14376822 0.1468923 -0.048177462
-0.020966433 -0.030770391 -0.1579401 -0.1986037 -0.21610148 0.0888053 0.07509865 -0.079412654
0.11477367 -0.107518256 0.1808039 -0.0141564775 -0.035850815 0.25984406 -0.047806427 -0.09974609
0.5920994 0.024833994 0.38944465 -0.053549454 0.27696157 0.15111092 -0.07580692 0.11718137
0.5014248 -0.4508258 0.16040727 0.41554767 -0.20387056 0.09206542 0.51951826 -0.08183138
0.10265835 -0.16435048 -0.27440238 -0.043189246 0.05385268 -0.12868997 0.34774363 0.0988888
-0.052238356 -0.024265252 0.325516 0.0586291 -0.11569638 -0.017937971 0.04509075 -0.07094551
0.01126143 0.02951697 0.14382352 0.22948527 0.19981466 -0.22646736 0.22116819 -0.0293067
0.25488684 -0.09598422 0.02009885 0.42222202 -0.35559008 -0.1312979 0.0844098 0.07892287
-0.1935259 -0.10274869 -0.23143475 0.065485336 0.20506448 0.12440326 0.19905046 0.118517645
0.10182009 -0.14872354 0.023435125 -0.04610977 0.057090737 -0.12895466 -0.0876351 -0.05855484
-0.32795525 -0.056286942 0.21106754 -0.30026832 -0.46343434 -0.13198024 0.10837431 -0.059371557
-0.12474318 0.5457325 -0.3779654 -0.57878506 0.35346788 -0.13366699 -0.25531992 0.20808136
-0.06354874 0.4208629 0.4082373 0.11553171 -0.19607157 0.035748016 -0.35918072 -0.037879173
-0.29689246 0.20894335 0.22752221 0.536394 -0.15439133 -0.12180146 0.12383662 -0.11951803
-0.083047085 0.23656279 -0.03006817 0.104091145 0.123265326 -0.12771659 0.11703537 -0.0086282
0.27768958 0.24465688 0.16259643 0.0422231 -0.04874789 -0.059421796 0.25774965 -0.059466906
0.15305646 0.14662333 -0.2013967 -0.16306296 -0.15189444 0.16108742 0.19631715 -0.14901367
0.011012125 0.11204352 0.01863014 -0.104434215 0.07506919 0.059644263 0.052362323 0.07523008
-0.13755585 0.37045172 0.09745093 0.2906651 -0.14410941 0.12513793 -0.18438871 -0.112367116
-0.2660932 0.04738695 0.095235825 -0.028276984 -0.16967668 0.01568906 0.11672071 -0.09576262
0.32223675 0.3130699 0.016204648 -0.03700924 -0.15016066 0.15673782 -0.20547688 0.18040341
0.34109527 -0.017888432 0.09976509 -0.34432876 -0.005233356 0.43288198 -0.7293198 -0.18821156
-0.06382197 0.0643021 -0.21967912 0.022146363 -0.1006863 -0.34569633 0.21715197 -0.0012933903
-0.088928476 0.098525114 0.049808484 0.045718007 0.08517072 0.13225445 -0.23011859 -0.06257735
-0.05263517 -0.0419572 -0.074008115 0.09319597 -0.22721505 -0.28672618 -0.031129733 -0.20553316
-0.24377422 -0.16306376 -0.22777487 0.14080666 -0.0448696 -0.107662015 0.18112311 0.029320935
-0.14749613 -0.16044301 -0.1911415 -0.092138596 -0.09353359 0.04177301 -0.19046187 0.19127817
-0.21686909 0.11448536 0.13935374 -0.32256272 0.05728765 0.10768581 -0.35030094 0.21150042
-0.15703289 0.091769636 0.26495522 0.23156302 0.22390448 -0.14203976 -0.10618718 -0.15670794
-0.14904322 -0.0027593332 -0.2504276 0.116530985 0.27793658 0.033501856 -0.08796881 -0.03084421

residual_net.2.bias f4 [32]
00000000: 9699 bc3e 6c46 d83d 3cd9 a83e ce54 73be
00000010: 181c 5bbb 8c65 b3bd 12eb e4bd 26ac f5bd
00000020: dc02 77be a523 50be 713b bf3c f3fe dcbd
00000030: e147 343d 0ddf 7d3d 3ee0 163c 2420 7dbe
00000040: ea89 82bd 68cf c03d e24b 96bc f3a0 683e
00000050: 2608 9bbd 1936 36be ba67 de3c 0bb7 6cbd
00000060: f4b5 103e 99b0 39be 6214 493d 50b8 253e
00000070: 97ff 293e dad6 8f3e 225e d13d c9f5 cd3c
0.36835927 0.10560307 0.32978237 -0.23762819 -0.0033433493 -0.08759603 -0.111776486 -0.11995725
-0.24122185 -0.20326097 0.023343774 -0.10790815 0.04401386 0.061980296 0.009208737 -0.24719292
-0.06373961 0.094145596 -0.01834673 0.22717647 -0.075699136 -0.17794074 0.02714907 -0.05779175
0.1413191 -0.18133773 0.049091704 0.16183591 0.16601406 0.28093606 0.102230325 0.025141614

residual_net.4.weight f4 [3, 32]
00000000: c2a6 a53c cb5d 0dbc 86a8 4c3c fcaa f9bb
00000010: 835b 82bb 6680 c4bc 984d 19bc 1ec3 063c
00000020: 6a4a 583a 8015 0f3c 1218 d43c 5c07 c73c
00000030: 1741 e23b c0f0 1ebb 06b2 5b3c edfe e73b
00000040: c4d0 f23c ef17 28bd c06c 903c 6867 8f3b
00000050: 0e99 993d 800e d83b 11fe 39bc 51c7 33bc
00000060: 2e8d 4c3c 8c33 8b3b c4e4 b83b 57e2 91bc
00000070: 3a09 6b3b 6d0c 863a 31f4 da3c 9e44 d83c
00000080: f0d6 4cbd 9a2f 34bc 9654 c33b e1f1 aabc
00000090: c153 96bc 1c1e e1bb 6cba a03c 7012 b23c
000000a0: 9baa d3bc 84d7 f73c 5be0 e33c 8a7c 823d
000000b0: d741 8bbc 064d 05bc da22 a6bc bb28 8f3d
000000c0: 6f3b 62bc 9203 083c 4ab2 ae3c 5ce8 1e3c
000000d0: 43ab c23b 58c1 803c 8656 f33c 4c55 5bbc
000000e0: d5f1 b93c 67a9 10bc 15da 8f3c e2f4 c5bc
000000f0: 7571 ca3c cbb8 883c ad56 a23c 9f5b 9a3c
00000100: 488e 1f3e 64ea ab3e 9d0f 113e 0eb7 39be
00000110: d2fc b13d a209 4a3e 3416 04be f400 84be
00000120: fd3d 24be 1570 1bbe 57a4 30be 3257 34be
00000130: 884f 2a3e 93f1 4d3e 2055 f63d 6c02 8fbe
00000140: 323a 563d 9d4d 9b3d 7cb1 21be 9408 8a3d
00000150: ed57 c43d 1bbd 00be 62ee a23d 1c20 333e
00000160: bbf9 95be 8745 743e 1144 c4be e008 f43e
00000170: 57f7 69be 8317 d83d 1c28 373e e91e 23be
0.020221118 -0.008628319 0.012491351 -0.00761926 -0.003978194 -0.023987006 -0.009356879 0.0082252305
0.00082508347 0.008733153 0.025890384 0.024295501 0.006904732 -0.0024252385 0.013409143 0.00707995
0.029640563 -0.04103845 0.017629981 0.0043763407 0.07499896 0.0065935254 -0.011352078 -0.010972814
0.012484832 0.004248088 0.0056425054 -0.017808123 0.0035863654 0.0010227092 0.026727768 0.026399907
-0.050009668 -0.010997677 0.005961011 -0.02086729 -0.018350484 -0.0068700444 0.019620143 0.021737307
-0.025838187 0.030254133 0.027816942 0.0637141 -0.016999168 -0.00813604 -0.02028029 0.069901906
-0.013808115 0.0083016325 0.02132525 0.0096989535 0.005940826 0.015717193 0.029704344 -0.013387036
0.022698322 -0.008829451 0.017560044 -0.02416462 0.024712304 0.016689679 0.01981672 0.018842516
0.1558162 0.33577263 0.14166112 -0.18136236 0.086908 0.19730237 -0.12899095 -0.25781977
-0.16039272 -0.15179475 -0.1725019 -0.17611387 0.16631901 0.20111685 0.12027955 -0.27931535
0.052301593 0.07583163 -0.15790361 0.067399174 0.09587083 -0.12572138 0.07955624 0.17492718
-0.29292092 0.23854648 -0.3833318 0.4766302 -0.22848259 0.105513595 0.17886394 -0.1592976

residual_net.4.bias f4 [3]
00000000: b4c5 1dbb 8760 8b3c ed55 5c3d
-0.002407414 0.017013801 0.053792883
