hybrid_robot_params.pth (torch, 24991 bytes, 10 tensors)

com_offset f4 [2]
0	0x3f0178cf	0.50574964
1	0xbe8e86eb	-0.2783731

_drag_viscous_param f4 [3]
0	0x409be469	4.871632
1	0x40fd3c4d	7.913611
2	0x3ff88012	1.9414084

_drag_coulomb_param f4 [3]
0	0x409157f8	4.5419884
1	0x40834cdf	4.1031337
2	0x3fc0e274	1.5069108

force_matrix f4 [3, 4]
0	0xbf5db3d7	-0.8660254
1	0xbf441b7d	-0.76604444
2	0x3f441b7f	0.76604456
3	0x3f5db3d8	0.86602545
4	0x3effffff	0.49999997
5	0xbf248dbb	-0.64278764
6	0xbf248db9	-0.6427875
7	0x3efffffd	0.4999999
8	0x3db851ec	0.09
9	0x3db851ec	0.09
10	0x3db851ec	0.09
11	0x3db851ec	0.09

residual_net.fc1.weight f4 [64, 6]
0	0xbf4a7208	-0.7908025
1	0xbdade87a	-0.08491607
2	0xbea48ed6	-0.32140225
3	0x3df2ac83	0.1184931
4	0xbfe958e4	-1.8230252
5	0xbe2902ba	-0.16504946
6	0xbf688d7b	-0.9084088
7	0x3f35c799	0.71007687
8	0x3e955bde	0.29171652
9	0x3d1556f8	0.036459893
10	0xbcc5a0d1	-0.024124535
11	0x3cbb217f	0.02284312
12	0x3ea0c08b	0.313969
13	0x3f54f20e	0.83181846
14	0xbdcbf150	-0.09958136
15	0xbe219609	-0.1577989
16	0xbe17ed4f	-0.1483662
17	0x3db62a93	0.08894839
18	0x3faabf6d	1.3339669
19	0x3f92c666	1.1466796
20	0x3ebe8c08	0.3721621
21	0x3f080126	0.5312675
22	0xbedad82f	-0.4274306
23	0xbe0f53dd	-0.13996835
24	0x3e8eb957	0.27875778
25	0x3d23cb17	0.039988603
26	0xbcd14d11	-0.025549443
27	0xbe372205	-0.17884071
28	0x3ea71148	0.32630372
29	0x3d9c8b6d	0.07643781
30	0xbdc6012e	-0.09668194
31	0x3f1731f7	0.59060615
32	0x3e4411b2	0.19147375
33	0xbe433e25	-0.19066675
34	0xbdde98b1	-0.10868967
35	0xbde36f5d	-0.11105225
36	0x3f76ca57	0.96402496
37	0xbd65aa26	-0.05607047
38	0x3db29838	0.0872044
39	0xbf0f5022	-0.5598165
40	0xbe76928f	-0.24079345
41	0xbda1e6d4	-0.07905355
42	0x3d2d3b64	0.042292967
43	0xbe80773c	-0.2509097
44	0x3f2abe18	0.6669631
45	0x3f8ce92b	1.1008657
46	0x3e3ac2b1	0.18238331
47	0x3ebbd330	0.3668456
48	0x3e804592	0.25053078
49	0xbea0d3cb	-0.31411585
50	0x3d18a7e4	0.037269488
51	0xbec585ad	-0.3857855
52	0x3f8e7f4b	1.1132597
53	0x3e195bf4	0.14976484
54	0xbe95fccc	-0.2929443
55	0xbea4afd2	-0.3216539
56	0xbdfe6dd2	-0.1242329
57	0x3eaaec06	0.33383197
58	0xbd629f2d	-0.055327583
59	0xbd96710a	-0.07345779
60	0xbf1b022f	-0.60550207
61	0xbf9bb6ad	-1.2165123
62	0xbe322c4e	-0.17399713
63	0xbef99c28	-0.4875195
64	0xbfe813e3	-1.8131069
65	0xbe4cb6a3	-0.19991545
66	0x3e92d698	0.28679347
67	0xbf253d0d	-0.6454628
68	0x3df68ea6	0.12038927
69	0xbed7d14e	-0.42151874
70	0xbe0a6c08	-0.13517773
71	0xbdc53090	-0.09628403
72	0x3ef7d56a	0.4840501
73	0xbe1e6872	-0.1546953
74	0x3e2a105e	0.16607806
75	0x3e87c35d	0.26516238
76	0x3e8c8abf	0.27449605
77	0xbde1a69b	-0.110181056
78	0xbe9037b0	-0.28167486
79	0xbf4468a3	-0.7672216
80	0xbee2613b	-0.44214806
81	0xbc05e4bf	-0.008172213
82	0xbf9ca938	-1.2239141
83	0xbe96f8e6	-0.2948677
84	0x3e97c4b8	0.29642272
85	0x3d1667d8	0.036720127
86	0xbe5e7200	-0.21723175
87	0xbefd735b	-0.49502072
88	0x3d716023	0.058929574
89	0x3da51443	0.08060505
90	0x3e6821b6	0.2266911
91	0xbef0e9c6	-0.47053355
92	0xbe9dce1c	-0.3082131
93	0xbea1b97d	-0.3158683
94	0xc000ebef	-2.0144002
95	0xbe8e1210	-0.27748156
96	0xbe8e2064	-0.27759087
97	0xbb1e289c	-0.0024133092
98	0xbd6e8f36	-0.058242045
99	0x3ea30299	0.3183792
100	0xbe7b79f5	-0.24558242
101	0xbe24cc60	-0.16093588
102	0x3f54c09d	0.83106405
103	0x3f8f39fb	1.1189569
104	0xbc89abb6	-0.016805511
105	0x3d594c97	0.053051557
106	0xbe8b1ef5	-0.27172056
107	0x3d83b3f8	0.06430811
108	0x3e9b4ae0	0.30330563
109	0xbeb32f48	-0.3499701
110	0x3e8c800f	0.2744145
111	0x3e37f845	0.17965801
112	0xbe7dd3cb	-0.24787824
113	0xbedc9233	-0.4308029
114	0x3ecedb31	0.40401605
115	0x3f1b9f56	0.6079
116	0xbead2bcc	-0.33822477
117	0xbed3e03a	-0.4138201
118	0xbe1e2eb1	-0.15447499
119	0x3d4062ee	0.046969347
120	0xbf66541a	-0.8997208
121	0x3ef37971	0.4755359
122	0x3dd47097	0.10373037
123	0xbe8aa154	-0.2707621
124	0xbf0a8df9	-0.54122883
125	0x3d42271a	0.04740057
126	0x3ecb93fb	0.39761338
127	0xbf005298	-0.5012603
128	0x3d1a6c31	0.037700836
129	0xbe896f95	-0.26842943
130	0x3c8abd43	0.01693595
131	0x3d9d0b3e	0.0766816
132	0xbeb2e968	-0.349437
133	0x3eb5abe1	0.35482696
134	0xbeb68251	-0.356463
135	0xbe55be02	-0.20873263
136	0xbf4dd525	-0.8040336
137	0xbf3d8ae8	-0.7404008
138	0x3e5f1442	0.21785071
139	0xbeee91d6	-0.4659564
140	0x3ee053a1	0.43813804
141	0x3ec66bd7	0.3875415
142	0x3f39fd51	0.72652155
143	0x3f5c474b	0.86046284
144	0xbf2e2ea2	-0.68039906
145	0xbfc45991	-1.5339833
146	0x3d37e964	0.044900313
147	0x3f2e2cf6	0.68037355
148	0xbf01e701	-0.5074311
149	0x3e8b94d9	0.27262
150	0xbf128f5a	-0.5724999
151	0x3fd416a0	1.6569405
152	0xbd11fa67	-0.035639193
153	0x3f2763ad	0.6538647
154	0xba8bf36d	-0.0010677405
155	0xbf00b6c3	-0.5027887
156	0x3f5e2b89	0.8678518
157	0x3fc4e02d	1.5380913
158	0x3eab6c5f	0.33481118
159	0x3ea69576	0.32535905
160	0x3f16b38d	0.5886772
161	0xbe784339	-0.24244393
162	0xbf8e64ec	-1.1124549
163	0xbf12d509	-0.57356316
164	0xbecbdb6e	-0.3981585
165	0x3cf6d3a3	0.030130213
166	0xbfa073c8	-1.2535334
167	0xbea390a6	-0.31946295
168	0xbf3d3979	-0.7391582
169	0xbf01c469	-0.50690323
170	0x3d830f37	0.063993864
171	0xbf0f491d	-0.55970937
172	0xbfb19389	-1.3873149
173	0xbdf68b9f	-0.12038349
174	0xbef7b4d8	-0.4838016
175	0x3db7785c	0.089585036
176	0xbeda5bf8	-0.42648292
177	0x3e9114e2	0.28336245
178	0x3f3210c3	0.69556826
179	0x3e2267c0	0.1585989
180	0x3ee210fe	0.4415359
181	0xbd9e9525	-0.07743291
182	0x3d904297	0.07043951
183	0x3f170e1f	0.5900592
184	0xbd6000bf	-0.05468821
185	0x3eb93951	0.3617654
186	0xbd45c99b	-0.04828797
187	0x3f59c980	0.8507309
188	0x3d9e269b	0.07722207
189	0x3ee5ff83	0.44921502
190	0x3eb1209d	0.34595194
191	0x3d8194c9	0.06327207
192	0x3f3bad3b	0.73311204
193	0xbe225945	-0.15854366
194	0xbdcd4ebf	-0.10024785
195	0x3ec08fb3	0.37609634
196	0xbf1de3c2	-0.61675656
197	0x3dfd320f	0.123630635
198	0xbf27c797	-0.65538925
199	0xbf18d68f	-0.5970239
200	0xbcd0dee7	-0.025496913
201	0xbf232e61	-0.63742644
202	0xbf00f3f4	-0.5037224
203	0xbd60250e	-0.054722838
204	0x3d39b653	0.045339894
205	0xbf50f4d0	-0.81623554
206	0x3ddd7524	0.108133584
207	0x3e5c82fc	0.21534342
208	0x3e7ebb0a	0.24876037
209	0xbdbf8259	-0.09351034
210	0xbf403bfe	-0.7509154
211	0x3f21921d	0.63113576
212	0xbe5c39b3	-0.21506386
213	0x3e9e8094	0.30957472
214	0xbf0b3de3	-0.54391307
215	0x3dfdc23b	0.12390562
216	0x3fa7bede	1.3105123
217	0xbeabffc4	-0.3359357
218	0x3df96df7	0.12179177
219	0xbeb0c8a6	-0.34528083
220	0x3f2c3655	0.67270404
221	0x3eaf82c5	0.34279457
222	0x3f0750d1	0.5285769
223	0xbf3217ba	-0.69567454
224	0xbedb4695	-0.42827287
225	0x3e8f9ff9	0.28051737
226	0x3eaebdc1	0.34129146
227	0x3f02e79a	0.51134646
228	0x3f6ff71b	0.9373643
229	0x3f4923c2	0.7857019
230	0xbd2aeef4	-0.04173179
231	0x3eb06a35	0.3445603
232	0xbc7552ed	-0.014973384
233	0x3d511654	0.051046684
234	0x3e34d059	0.17657603
235	0x3edbbd5f	0.42917916
236	0x3e1b1ef9	0.15148534
237	0xbf2be4cf	-0.6714601
238	0x3c5b1644	0.013372008
239	0x3d8a69c9	0.06758458
240	0x3e0489f4	0.1294325
241	0x3f612222	0.8794271
242	0xbf28f918	-0.66005087
243	0xbe3acff4	-0.1824339
244	0x3e9e9fe4	0.30981362
245	0x3d6d63c9	0.05795649
246	0x3ea995b9	0.33122042
247	0x3d4601b8	0.048341483
248	0x3e11b0b8	0.14227569
249	0x3e369ac5	0.17832477
250	0xbe17352b	-0.14766376
251	0xbe2e1e82	-0.17003825
252	0xbebb94b8	-0.366369
253	0x3f127771	0.57213503
254	0xbe7be12b	-0.24597614
255	0xbef5bf3a	-0.47997457

residual_net.fc1.bias f4 [64]
0	0xbc4c4112	-0.012466686
1	0x3f7c0415	0.9844373
2	0xbebdda2a	-0.37080508
3	0x3db4e748	0.08833176
4	0xbe61939a	-0.22028962
5	0x3f12eb9b	0.57390755
6	0x3f1220c2	0.57081234
7	0x3eac46ed	0.33647862
8	0xbd01342a	-0.03154389
9	0xbdd69b8d	-0.10478888
10	0x3cf675ae	0.03008541
11	0x3f03254e	0.512288
12	0xbe074cf3	-0.13212948
13	0xbe7d756c	-0.24751824
14	0x3ec5e3dc	0.38650405
15	0xbefef4e3	-0.4979621
16	0xbe8e37e8	-0.27777028
17	0x3dd90cab	0.10598119
18	0xbeceb964	-0.40375817
19	0xbed2995d	-0.41132632
20	0xbf178310	-0.5918436
21	0xbeec7370	-0.46181822
22	0x3e1dfc20	0.1542821
23	0xbe5d092d	-0.21585532
24	0xbf0f2b84	-0.55925775
25	0x3eb9be7f	0.3627815
26	0xbd5cc5a0	-0.053899407
27	0x3dc3bf27	0.09557944
28	0x3e3f3712	0.18673351
29	0x3f2e5d30	0.6811094
30	0xbd8114bd	-0.06302784
31	0x3f15aef7	0.584701
32	0xbeac912d	-0.3370451
33	0xbdb23166	-0.08700828
34	0xbea7b194	-0.3275267
35	0x3ee19ea4	0.44066346
36	0xbf16317e	-0.5866927
37	0xbe8dcbe7	-0.27694628
38	0xbd152368	-0.03641072
39	0xbf0ae3e0	-0.5425396
40	0xbe1fb454	-0.15596133
41	0xbf0a439a	-0.540094
42	0x3f1af6d0	0.60532856
43	0x3e367f91	0.178221
44	0xbee71257	-0.4513118
45	0x3cebbc84	0.028776415
46	0xbf39d6c7	-0.7259335
47	0xbe9d5b4c	-0.30733716
48	0xbe306c42	-0.17228797
49	0xbee94172	-0.45557743
50	0x3e89e102	0.2692948
51	0xbe0b4364	-0.13599926
52	0x3eaaaa7e	0.333332
53	0xbeef7f10	-0.46776628
54	0xbee2798e	-0.44233364
55	0x3e5003f0	0.20314002
56	0x3f08ef83	0.53490466
57	0xbefbccc9	-0.49179676
58	0xbdbb289d	-0.09138606
59	0xbe66600c	-0.22497576
60	0x3f15bb67	0.5848908
61	0x3ed7d8a1	0.42157462
62	0x3d043433	0.032276344
63	0x3db94e01	0.09048081

residual_net.fc2.weight f4 [64, 64]
0	0x3e952627	0.2913067
1	0x3ef52b1a	0.47884446
2	0xbe48f548	-0.19624817
3	0xbefa1334	-0.48842776
4	0x3dcdba7a	0.10045333
5	0x3de92ba5	0.11385278
6	0x3e43867e	0.19094273
7	0x3e9e3dca	0.30906516
8	0x3c08a5d2	0.008340316
9	0xbe953eb4	-0.291494
10	0x3f0a47a0	0.5401554
11	0x3f1f9942	0.6234323
12	0xbeb13db0	-0.34617376
13	0xbdb8b87e	-0.09019564
14	0x3e39a86a	0.18130651
15	0xbe320ff8	-0.17388904
16	0xbd29fddc	-0.041501865
17	0xbf04e7b1	-0.51916033
18	0xbe541da7	-0.20714436
19	0xbe3f1afe	-0.1866264
20	0x3e451756	0.19247183
21	0xbc40836d	-0.011750084
22	0x3de07aa9	0.109608956
23	0x3de29305	0.11063198
24	0x3ec8c9cf	0.39216468
25	0xbd4fa20c	-0.05069165
26	0xbefb4b42	-0.49080855
27	0x3e8d0b84	0.27547848
28	0x3f2d62bb	0.67728776
29	0x3e04750c	0.12935275
30	0xbe216fd1	-0.15765311
31	0x3e0d52f2	0.13801172
32	0xbf2194e6	-0.63117826
33	0x3e61b910	0.22043252
34	0xbeb23779	-0.34807947
35	0x3ecf7459	0.40518454
36	0xbef94050	-0.4868188
37	0xbc6327c0	-0.013864458
38	0xbf122421	-0.5708638
39	0xbe11104f	-0.14166377
40	0xbeabc2bd	-0.3354701
41	0xbea9a7e3	-0.331359
42	0x3e2b924a	0.16755024
43	0x3e456edd	0.19280572
44	0xbc865c94	-0.016401567
45	0x3e6d1acf	0.23154758
46	0xbce227a0	-0.027606785
47	0xbdc66b66	-0.096884534
48	0x3f2e748a	0.68146574
49	0xbbe818c8	-0.0070830323
50	0xbea5763e	-0.32316774
51	0xbeba87d9	-0.3643177
52	0xbdbfe0ca	-0.09369047
53	0xbdf14efd	-0.11782644
54	0x3e1a2cd4	0.15056163
55	0xbe5ec921	-0.21756412
56	0xbe99df2e	-0.30053085
57	0xbc1e1ff0	-0.009651169
58	0xbea30025	-0.31836048
59	0x3d07a129	0.03311268
60	0xbe846032	-0.2585464
61	0x3d1ba73f	0.038001295
62	0x3cc13a53	0.023587381
63	0xbeaaa9c5	-0.3333265
64	0xbdc06420	-0.09394097
65	0x3eb5f8cd	0.35541382
66	0xbf302577	-0.68807167
67	0x3e3b5ee0	0.1829791
68	0xbf127297	-0.572061
69	0x3f0025e4	0.50057817
70	0x3ef02ebc	0.46910655
71	0x3e5d6fb7	0.21624647
72	0x3e1b90d7	0.15191971
73	0x3e82968b	0.2550548
74	0xbf16cf1e	-0.58909786
75	0x3f04d083	0.51880664
76	0x3d22c0f3	0.039734792
77	0xbed23fee	-0.410644
78	0x3a40db0a	0.0007356858
79	0xbe90286a	-0.28155833
80	0x3df1c32b	0.118048035
81	0x3dbe21cc	0.0928379
82	0x3e31cd7d	0.17363544
83	0xbf23edb7	-0.640346
84	0xbedb859c	-0.42875373
85	0xbedbc003	-0.4291993
86	0x3cffc0fb	0.03121995
87	0x3c092329	0.008370199
88	0xbe21cc98	-0.15800703
89	0x3dca2d61	0.098719366
90	0xbd779828	-0.060447842
91	0xbd2098fb	-0.039208394
92	0x3e6257c0	0.22103786
93	0x3de4ceb7	0.1117224
94	0x3d42e129	0.04757801
95	0x3e43e92a	0.19131914
96	0xbe1113d4	-0.1416772
97	0xbb6ac106	-0.0035820617
98	0xbe7bae7c	-0.2457828
99	0x3e129506	0.1431466
100	0xbdd63a3f	-0.10460328
101	0xbe38f387	-0.18061648
102	0xbdd6e49c	-0.104928225
103	0xbec37649	-0.38176182
104	0xbe787891	-0.24264742
105	0xbd2a3af5	-0.041560132
106	0xbe2a3c17	-0.16624485
107	0x3da0c54d	0.07850132
108	0xbf31e98f	-0.6949701
109	0x3d0691f0	0.03285402
110	0xbe2d1c21	-0.16905262
111	0xbf165232	-0.5871917
112	0x3e1fc7b5	0.15603526
113	0xbdc84f59	-0.09780759
114	0x3eb36e1f	0.35044953
115	0xbd7ddc45	-0.061977644
116	0x3f004c10	0.5011606
117	0x3cc21410	0.023691207
118	0xbec48c85	-0.38388458
119	0x3dd98cb9	0.10622544
120	0x3f6048e4	0.8761122
121	0xbd830209	-0.063968726
122	0x3e18fe44	0.14940745
123	0x3e0a304b	0.13494985
124	0x3e7417d8	0.2383722
125	0x3ee0da9b	0.43916783
126	0xbe5f6187	-0.21814547
127	0xbc093982	-0.008375527
128	0x3ebd09bc	0.3692149
129	0x3eb67b78	0.35641074
130	0x3ef9fea4	0.48827088
131	0x3e8b60d0	0.272223
132	0x3e114f84	0.14190489
133	0x3df79974	0.12089816
134	0xbc032449	-0.0080042565
135	0x3ed0c2e6	0.40773696
136	0xbebf6e44	-0.37388813
137	0xbf332a67	-0.69986576
138	0x3ea9323a	0.33046132
139	0xbdff09d3	-0.12453046
140	0xbe74d408	-0.23909009
141	0x3cd358c7	0.025799168
142	0x3ebd9963	0.37031087
143	0x3e64694c	0.22305793
144	0xbdbea445	-0.09308676
145	0x3e87f0fa	0.26551038
146	0xbeccc93f	-0.3999729
147	0x3d7d8ecb	0.061903756
148	0xbad45ba4	-0.0016201627
149	0x3c1e87f0	0.009675965
150	0x3ea351c2	0.31898314
151	0xbe5e899b	-0.2173218
152	0xbee21084	-0.44153225
153	0x3f1e4166	0.6181854
154	0x3f05a007	0.5219731
155	0xbcda6627	-0.026660038
156	0x3f13d31b	0.57743996
157	0x3cb235bd	0.02175414
158	0x3e0e8bfc	0.13920587
159	0x3e8180d1	0.25293592
160	0x3d42f06f	0.047592577
161	0xbdcbac42	-0.09944965
162	0xbf811ebe	-1.0087507
163	0x3ea8f6c2	0.3300076
164	0xbf0e9649	-0.55698067
165	0xbde50279	-0.11182112
166	0x3eafce09	0.3433688
167	0x3cfd0bcc	0.030889414
168	0x3eaa2367	0.33230135
169	0xbec120f6	-0.3772046
170	0x3f04cd65	0.5187591
171	0x3ecd51a0	0.40101337
172	0xbe60c765	-0.21951063
173	0x3e806c2a	0.25082523
174	0x3e72e587	0.2372037
175	0xbe601cd6	-0.21886
176	0x3e00fa12	0.12595394
177	0x3ead09ea	0.33796626
178	0x3e88749f	0.26651475
179	0xbd1ba1d4	-0.03799613
180	0xbeaf1965	-0.34199062
181	0xbe9b0cb0	-0.30283117
182	0xbda6fe11	-0.08153928
183	0xbd90c894	-0.07069507
184	0x3edd52dd	0.43227282
185	0x3cd0577f	0.025432346
186	0xbf5ad6c9	-0.85483986
187	0xbee74726	-0.4517147
188	0x3e1d430f	0.15357612
189	0xbe41e520	-0.1893506
190	0x3ee6ee3b	0.4510363
191	0x3f5c042b	0.8594386
192	0x3eeadca8	0.45871472
193	0x3e4f072e	0.20217583
194	0x3ac50040	0.0015029982
195	0x3d734cb7	0.059399333
196	0xbe18ac35	-0.14909442
197	0x3e1bba63	0.1520782
198	0xbebca988	-0.36848092
199	0x3dc324b3	0.09528484
200	0xbd5b476a	-0.053534903
201	0x3e0b5b67	0.13609086
202	0x3e15b08c	0.14618129
203	0xbe8de571	-0.27714112
204	0xbe9464e2	-0.28983217
205	0x3e899611	0.26872304
206	0x3ea4bd82	0.32175833
207	0x3dcbbc27	0.099479966
208	0xbdb4bd0a	-0.08825119
209	0x3e457b35	0.19285281
210	0xbf26c3fb	-0.6514279
211	0x3d880183	0.06640913
212	0xbce72720	-0.028216898
213	0xbe4f2612	-0.20229366
214	0x3d912720	0.070875406
215	0xbc6b5dce	-0.0143656265
216	0xbda706bc	-0.08155581
217	0x3c1b6889	0.009485372
218	0x3e4d9ec6	0.20080099
219	0x3eb29d11	0.34885457
220	0xbe1e9153	-0.15485124
221	0x3fa31588	1.2740946
222	0x3e7c55e1	0.24642135
223	0x3e9d1a5c	0.30684173
224	0xbe124c19	-0.14286841
225	0xbe37dda6	-0.17955646
226	0xbf78b5b4	-0.97152257
227	0x3f30d0b8	0.6906848
228	0xbd5a32c1	-0.05327106
229	0x3e9df5c3	0.30851564
230	0x3e5225c7	0.20522223
231	0xbecdc3d5	-0.4018847
232	0x3ed4ac0c	0.4153751
233	0xbf3b0090	-0.73047733
234	0x3ea4aa89	0.32161358
235	0x3eacccb3	0.33749923
236	0xbd878713	-0.0661756
237	0x3eafccf4	0.34336054
238	0xbf1d8861	-0.6153622
239	0xbed67f5c	-0.41894042
240	0x3f112450	0.56696033
241	0xbdd3de66	-0.103451535
242	0x3dd6dbb6	0.10491125
243	0x3f00fbfe	0.5038451
244	0x3e47527e	0.19465062
245	0xbe624413	-0.22096281
246	0xbdf318db	-0.11869975
247	0x3ee23208	0.44178796
248	0x3d7e5eed	0.062102247
249	0xbc24ecd7	-0.010066233
250	0xbe79c66d	-0.243921
251	0xbb27b0a6	-0.0025587468
252	0x3f56cf3e	0.83909976
253	0xbdfb4027	-0.122680955
254	0xbb945f91	-0.004527994
255	0x3f41457a	0.7549664

residual_net.fc2.bias f4 [64]
0	0x3e6d5d98	0.23180234
1	0x3ec007ea	0.37506038
2	0x3daf86f1	0.0857066
3	0x3e8d6f33	0.276239
4	0xbea86b92	-0.3289457
5	0x3d396c5e	0.045269363
6	0x3e0fa536	0.14027867
7	0xbe210ad5	-0.15726788
8	0x3e2ac3b3	0.16676216
9	0xbecbd1e7	-0.3980858
10	0xbe9f11ef	-0.3106837
11	0x3d3f2985	0.046670455
12	0x3e002243	0.1251307
13	0x3e9af640	0.30266
14	0xbe8756c8	-0.26433396
15	0xbe55fa6c	-0.2089631
16	0x3eaaacf6	0.33335084
17	0xbe2de9bf	-0.16983698
18	0x3db1a1a5	0.086734094
19	0xbd15e60e	-0.03659635
20	0x3d45a95a	0.04825721
21	0x3e6eef19	0.23333396
22	0xbdb972dc	-0.09055111
23	0xbee570d1	-0.44812635
24	0x3eb70bb5	0.3575112
25	0x3e157c43	0.14598183
26	0x3c24af66	0.010051584
27	0xbe3e2f29	-0.18572678
28	0xbdaf0158	-0.08545178
29	0xbdbb7f62	-0.09155156
30	0x3d886eb2	0.066617385
31	0x3d82008d	0.06347761
32	0xbe8e2606	-0.27763385
33	0x3e0c98f3	0.1373022
34	0xbe0cb4f3	-0.13740902
35	0x3e5307f3	0.20608501
36	0xbc099947	-0.008398361
37	0x3eff7dbc	0.49900615
38	0x3db16c10	0.086631894
39	0xbe285d68	-0.16441882
40	0xbc75b819	-0.014997506
41	0xbda96814	-0.082718045
42	0x3f00bbf0	0.5028677
43	0xbec6bf70	-0.3881793
44	0x3e70bd9a	0.23509827
45	0xbe148b0a	-0.14506164
46	0xbdad5361	-0.08463169
47	0x3e81f210	0.25379992
48	0xbe8f555f	-0.2799482
49	0xbe6fd38d	-0.23420544
50	0x3d4b269a	0.04959736
51	0x3ef53303	0.4789048
52	0xbe866481	-0.26248553
53	0xbed79c6d	-0.4211153
54	0x3eb0e979	0.34553126
55	0x3e96c416	0.29446477
56	0xbeb82a22	-0.35969645
57	0x3d6b1085	0.0573888
58	0x3e886c1e	0.26644987
59	0x3e322d44	0.1740008
60	0xbecf6057	-0.4050319
61	0xbe60f09b	-0.21966784
62	0xbe3c69bb	-0.18399708
63	0xbe8c950c	-0.27457464

residual_net.fc3.weight f4 [3, 64]
0	0x3f8c4d0c	1.0961013
1	0x3ec9f3f9	0.3944395
2	0xbfac4964	-1.3459897
3	0xbf84328f	-1.0327929
4	0xbf2ebbd5	-0.6825536
5	0xbf200bfd	-0.6251829
6	0xc014fc8f	-2.327915
7	0x3f76a588	0.9634633
8	0x3fa4cbcd	1.2874695
9	0xbedbe7c6	-0.42950267
10	0x3f9f5a60	1.2449455
11	0x403d7da6	2.960794
12	0xbf76e494	-0.9644253
13	0xbf42e213	-0.7612621
14	0xbd841a13	-0.06450286
15	0xbfb5a7f3	-1.4191879
16	0x3e383ca0	0.17991877
17	0x3fc9f62e	1.5778253
18	0x3f91da64	1.1394773
19	0x403af8af	2.9214284
20	0x3ef57d98	0.47947383
21	0xbfb22bf1	-1.391966
22	0x3f948682	1.1603549
23	0xbe94cfe3	-0.29064855
24	0x3ed4c11f	0.4155359
25	0x3f70ded5	0.94090015
26	0x3fd2d671	1.6471692
27	0x3f96d741	1.178444
28	0xbf2e997f	-0.68202966
29	0xbf9c8102	-1.222687
30	0xbebc4734	-0.36773074
31	0xbd7e37d6	-0.062064968
32	0xbf1f870d	-0.62315446
33	0xbfa6c77a	-1.3029625
34	0xbe6d8e03	-0.23198704
35	0xbfc0465d	-1.5021473
36	0x3a8062b6	0.0009795043
37	0x3e4ca739	0.19985665
38	0x3f9a3a04	1.2048955
39	0x3fc51eb6	1.5399997
40	0x3f132bce	0.57488716
41	0x4024ae33	2.5731323
42	0x3ea93d16	0.33054417
43	0xbe4f00e0	-0.20215178
44	0x3eaaa58a	0.3332942
45	0x3ecf462d	0.40483227
46	0xc06514db	-3.579398
47	0xbf75e98b	-0.96059483
48	0x3ff65035	1.9243227
49	0x3f73d107	0.95240825
50	0x3fae31ca	1.3608944
51	0x3e8c3a96	0.27388448
52	0xbe8f3254	-0.27968085
53	0xbed6ee84	-0.41978848
54	0x3e564682	0.20925334
55	0xbf82ab69	-1.020856
56	0xbf721170	-0.9455786
57	0x400c44ba	2.1916947
58	0xbfc434c8	-1.5328608
59	0xbf74cf91	-0.9562922
60	0xbe7d67ed	-0.24746676
61	0xbee140c5	-0.43994728
62	0xbed17833	-0.40912017
63	0xbf1954b2	-0.5989486
64	0xbd92414c	-0.07141361
65	0x3f3bc3d6	0.73345697
66	0xbdde1f3d	-0.10845802
67	0xbfa235e1	-1.2672693
68	0xc034870c	-2.8207426
69	0xbfca10ac	-1.5786338
70	0xbee03a07	-0.4379427
71	0x3f8cc520	1.0997658
72	0x3fbdb5b9	1.4821082
73	0xbf36a389	-0.71343285
74	0x3f4294ad	0.7600811
75	0xbf9485cb	-1.160333
76	0xbf602c70	-0.87567806
77	0xbfc541d2	-1.5410712
78	0xbf37d5f9	-0.7181087
79	0x3fb20703	1.390839
80	0x3f372a65	0.71549064
81	0x3f91e0f1	1.1396772
82	0xbccbe724	-0.02489049
83	0xbf2a1a57	-0.6644644
84	0x3fc19189	1.5122539
85	0xbf23dfd9	-0.6401344
86	0x3efcb276	0.49354905
87	0xbf3c85ef	-0.73641866
88	0x3f5107ac	0.8165233
89	0x3fc5a0fe	1.5439756
90	0x3fd15cb0	1.6356411
91	0x3fe51844	1.789803
92	0xbfa2393e	-1.2673719
93	0x401440b8	2.31645
94	0xbf9e1f61	-1.2353326
95	0xbecd0098	-0.40039515
96	0xc0055bf2	-2.083737
97	0xbfd57b8d	-1.667833
98	0xbf71f866	-0.9451965
99	0xbf8d734b	-1.105081
100	0xbf170723	-0.58995265
101	0x3f48efa6	0.78490674
102	0x3f9c6764	1.2219052
103	0x3f4e7f1f	0.8066272
104	0xbec76dcd	-0.3895096
105	0xbfa855dd	-1.3151203
106	0x3f4fe711	0.81211954
107	0xbf460bda	-0.77361834
108	0x3f498b5f	0.7872829
109	0x3f87fc02	1.0623782
110	0xbf4d9dec	-0.80319095
111	0xbfc4a281	-1.5362092
112	0x3deb849f	0.11499905
113	0x3fd0a98d	1.6301743
114	0xbdd9b34c	-0.10629901
115	0x3f4819ea	0.7816454
116	0xc016b2e2	-2.3546681
117	0xbf3718c1	-0.71522146
118	0x3f5081f7	0.8144831
119	0xbf9f26a9	-1.2433673
120	0x3fa9d2a6	1.326741
121	0xbdbda2b7	-0.09259551
122	0xbf4f604e	-0.81006324
123	0xbf42abf0	-0.76043606
124	0xbf4ec8fc	-0.8077543
125	0xbf3ad2a7	-0.7297768
126	0xbfba6f1b	-1.4565157
127	0xc0312e68	-2.7684574
128	0xc0179a30	-2.3687859
129	0x3fc0e242	1.5069048
130	0xbfbb3ff5	-1.4628893
131	0xbf93d02c	-1.1547904
132	0xbf1ebe22	-0.6200887
133	0xbf684155	-0.9072469
134	0xbf2d1117	-0.676042
135	0x3fa4b288	1.2866983
136	0x3faa91f4	1.3325791
137	0xbfc53c92	-1.540911
138	0x3fa2ca58	1.2718
139	0x3f8fd79c	1.1237674
140	0xbfb0af4d	-1.3803498
141	0xbf739c0f	-0.9516
142	0xbfd15cd7	-1.6356457
143	0x3fef6293	1.8701957
144	0x3fc885f7	1.5665883
145	0x3f6d6306	0.9272922
146	0x3fcf1d67	1.6180848
147	0x3f644725	0.8917106
148	0x3fb8c48f	1.4434985
149	0xbfa77d3d	-1.3085095
150	0x3fb2bd52	1.3964026
151	0xbfc5137f	-1.5396575
152	0x3fbd8b1d	1.4808079
153	0x3fbb6af4	1.4642015
154	0x3ed26596	0.4109313
155	0x3f0f91c2	0.56081784
156	0xbfbb2c63	-1.4622921
157	0x3fd59715	1.6686732
158	0xbfa65cf7	-1.2997121
159	0xbfe1f366	-1.7652404
160	0xbf9b0adf	-1.2112693
161	0xbf32652e	-0.6968564
162	0xbfdb438f	-1.7129992
163	0xbf83c734	-1.0295167
164	0xbff64584	-1.9239964
165	0x3fc95c7c	1.5731349
166	0x3f92cdb7	1.1469029
167	0x3f95cdda	1.1703446
168	0xc002d876	-2.0444617
169	0x3fe47f70	1.7851391
170	0x3fc4f06e	1.5385873
171	0xbfc6caf4	-1.5530686
172	0x3fcc8c7d	1.5980374
173	0x3fba32d0	1.4546757
174	0xbf3413d1	-0.7034274
175	0xbf6e8a69	-0.9317995
176	0x3f64d6eb	0.8939044
177	0x3f63ed04	0.8903353
178	0x3fd7ffb7	1.6874913
179	0x3fc89f7c	1.5673671
180	0xbf8b38f0	-1.0876751
181	0xbfc631b0	-1.5483913
182	0x3fca0d1c	1.5785251
183	0xbf8d246d	-1.1026741
184	0x3fd75128	1.6821642
185	0x3f8e151c	1.1100192
186	0xbf93fe1d	-1.1561924
187	0xbfb502a3	-1.414143
188	0xbfc61fa2	-1.5478404
189	0xbfc7adda	-1.559993
190	0xbfb1b175	-1.388228
191	0xbf3cd9ee	-0.73770034

residual_net.fc3.bias f4 [3]
0	0xbf4af943	-0.79286593
1	0xbe99a16d	-0.3000597
2	0x3f48040e	0.78131187
