neural_network_sim.pth (torch, 22205 bytes, 6 tensors)

net.0.weight f4 [64, 6]
0.9125588 -0.27930692 -0.034840427 -0.2821317 0.0491489 0.06497505 -0.34230947 -0.4041561
-0.0072757863 0.2694562 -0.16792065 -0.2378588 0.61331075 0.4330107 0.260734 -0.53649014
-0.12002674 0.41378385 -0.8383096 0.46284193 0.28704122 0.26285043 -0.113243364 -0.10363162
0.10206302 0.8310353 -0.16572228 0.061284997 0.065738104 -0.3905328 1.1639899 1.0711468
-0.079054356 0.07765316 -0.60851806 -0.01716275 0.7647558 -0.5774768 0.20648251 -0.12950003
0.30592987 -0.017044237 0.62515044 -0.2656303 0.01742523 -0.17308204 0.35032725 0.15342684
-1.1331261 -0.9988684 0.10616389 0.4551895 0.19697388 0.040706925 0.60462075 -0.1871495
-0.31368285 -0.07985848 0.2489434 -0.43595487 -0.74551463 0.4196324 -0.011515577 -0.32166532
0.22244707 -0.14183968 0.56960464 -0.5666039 -0.05348603 -0.16830589 0.09035989 -0.5409936
-0.7214036 0.20511349 0.42067453 -0.30324513 0.3025866 -0.017933777 -0.5351069 0.3203012
-0.13312905 0.10697794 0.051365577 -0.0078253085 -0.33806488 -0.07096514 0.17828275 0.6946291
-0.34270465 -0.2719602 -0.9566662 -0.055046003 0.23545991 0.12840484 0.011377712 -0.055889133
-0.18853247 -0.30472502 -1.1468896 0.25571513 -0.9022592 -0.15402633 -0.12035406 0.74565905
0.07767137 -0.35323742 0.9501008 0.11741851 -0.7588942 -0.22798564 0.2002913 -0.28124154
0.029161336 0.16492015 1.1705797 -0.26796162 -0.0923166 0.24607432 0.32313854 0.27339458
-0.15896235 0.6616763 -0.04170023 0.05980153 0.24012406 0.34944633 0.11485248 1.1326864
0.14871208 0.5401964 0.7839247 0.044703145 -0.13520156 -0.50174093 0.26970506 0.2811596
1.3576735 0.8872621 0.77040136 -0.7817606 -0.15453368 -0.28196895 0.28659776 -0.11256578
-0.77355266 -0.5143453 -0.10050072 0.2994461 -0.021962024 0.3378988 -0.75762725 0.57933223
-0.100713015 -0.16723007 0.21824011 -0.022211492 -0.48151922 -0.12228261 -0.3870565 -0.408734
0.2160051 0.62722605 0.8212419 -0.28459343 -0.039577596 0.47973326 -0.097481 0.48179275
0.7079726 0.054723352 0.24651891 0.47689882 0.23664023 -0.03878661 -0.3597946 0.35658476
-0.031282473 0.11333514 0.94609433 0.23038301 0.24658912 -0.69834137 -0.04355021 -0.20476656
0.69600546 0.40712127 -0.64179647 -0.17484437 -0.26045847 0.5104276 0.2101488 -0.057053242
-0.79335797 0.7069698 0.17082699 -0.08741512 -0.09696404 0.07975507 -0.8328791 -0.26464933
-0.24614058 -0.070633516 0.13905536 -0.229861 -0.14775094 -0.7040658 0.20450483 -0.24916357
0.41831368 0.37081787 1.3650371 1.4073979 -0.46192172 -0.0230711 -0.60596627 -0.5439111
0.38422382 -0.7743736 -0.11307759 -0.22306028 -0.30503103 -0.078129984 0.9017058 -0.10570405
0.096396916 0.11439708 -0.09523254 0.08572425 0.25262064 -0.72160125 0.5599311 0.082135305
-0.26479125 0.07550275 -0.19905886 -0.9701052 -0.6424171 -0.6164265 0.044162244 0.07700099
-0.5727895 -0.6648016 -0.037374176 0.33120325 0.3663821 0.011119617 -0.8859647 0.6508119
0.30670482 -0.10531632 -0.48229775 0.11367792 0.24147452 -0.41101643 0.03809226 -0.026369523
00000000: 749d 693f 5101 8fbe d6b4 0ebd 9173 90be
00000010: 5b50 493d a411 853d 3043 afbe 8ced cebe
00000020: b869 eebb 2af6 893e 64f3 2bbe 4291 73be
00000030: ef01 1d3f 94b3 dd3e ed7e 853e 6b57 09bf
00000040: 94d0 f5bd 7adb d33e 759b 56bf 9ef9 ec3e
00000050: 11f7 923e 5594 863e 23ec e7bd d13c d4bd
00000060: 6b06 d13d bbbe 543f 1ab3 29be fa05 7b3d
00000070: b3a1 863d eaf3 c7be 9ffd 943f 571b 893f
00000080: 40e7 a1bd 9f08 9f3d d7c7 1bbf e598 8cbc
00000090: 09c7 433f 85d5 13bf 2770 533e a89b 04be
000000a0: d7a2 9c3e 5ba0 8bbc dc09 203f b200 88be
000000b0: 5bbf 8e3c 6b3c 31be 185e b33e ed1b 1d3e
000000c0: 470a 91bf d7b5 7fbf 746c d93d 990e e93e
000000d0: 85b3 493e 4ebc 263d 6dc8 1a3f 1ea4 3fbe
000000e0: 0a9b a0be d88c a3bd 05eb 7e3e 7a35 dfbe
000000f0: 0cda 3ebf 0fda d63e d5ab 3cbc 51b1 a4be
00000100: 2ac9 633e 6c3e 11be 9cd1 113f f40c 11bf
00000110: 2b14 5bbd 6158 2cbe 9b0e b93d 8e7e 0abf
00000120: e8ad 38bf 4509 523e a762 d73e f242 9bbe
00000130: a1ec 9a3e dbe9 92bc c4fc 08bf 85fe a33e
00000140: fb52 08be 4017 db3d b664 523d b935 00bc
00000150: d716 adbe 2c56 91bd c18f 363e 36d3 313f
00000160: fc76 afbe 5e3e 8bbe 13e8 74bf eb77 61bd
00000170: 671c 713e 8f7c 033e 9569 3a3c 01ec 64bd
00000180: a80e 41be eb04 9cbe 47cd 92bf 18ed 823e
00000190: 75fa 66bf 14b9 1dbe 307c f6bd 83e3 3e3f
000001a0: 2b12 9f3d 89db b4be ce39 733f 1e79 f03d
000001b0: e446 42bf 1175 69be 2a19 4d3e e4fe 8fbe
000001c0: c1e3 ee3c d4e0 283e 8ed5 953f 4432 89be
000001d0: 7c10 bdbd e8fa 7b3e 6a72 a53e 60fa 8b3e
000001e0: 07c7 22be 9e63 293f dccd 2abd 73f2 743d
000001f0: 15e3 753e a1ea b23e c737 eb3d defb 903f
00000200: fb47 183e 504a 0a3f 4aaf 483f a51a 373d
00000210: 4772 0abe 1872 00bf c816 8a3e 27f4 8f3e
00000220: 3fc8 ad3f 9c23 633f 0639 453f 7621 48bf
00000230: 143e 1ebe 3c5e 90be f1bc 923e e388 e6bd
00000240: 8c07 46bf 22ac 03bf 52d3 cdbd 0051 993e
00000250: b4e9 b3bc 1201 ad3e dcf3 41bf 1e4f 143f
00000260: a042 cebd 5c3e 2bbe 567a 5f3e e0f4 b5bc
00000270: b089 f6be 4e6f fabd 452c c6be 9545 d1be
00000280: 7130 5d3e e391 203f e93c 523f 3bb6 91be
00000290: 1e1c 22bd 999f f53e 1ea4 c7bd 8aad f63e
000002a0: b13d 353f 9825 603d 746f 7c3e 152c f43e
000002b0: d151 723e b5de 1ebd ff36 b8be 4792 b63e
000002c0: 0d22 00bd 411c e83d 3d33 723f 86e9 6b3e
000002d0: dc81 7c3e 80c6 32bf b461 32bd 53ae 51be
000002e0: 6a2d 323f 3372 d03e c64c 24bf 670a 33be
000002f0: d05a 85be 62ab 023f 3f31 573e a9b0 69bd
00000300: 8219 4bbf f9fb 343f 45ed 2e3e b306 b3bd
00000310: 1595 c6bd a056 a33d 9137 55bf 1e80 87be
00000320: 470c 7cbe 4ea8 90bd 8764 0e3e af60 6bbe
00000330: 064c 17be a83d 34bf b769 513e bc24 7fbe
00000340: 362d d63e d7db bd3e 89b9 ae3f 9d25 b43f
00000350: 0181 ecbe 9aff bcbc 9b20 1bbf c23d 0bbf
00000360: fcb8 c43e 593d 46bf 3995 e7bd ea69 64be
00000370: 072d 9cbe 9d02 a0bd 31d6 663f 5d7b d8bd
00000380: bf6b c53d 0449 ea3d 4709 c3bd 3290 af3d
00000390: 7e57 813e dcba 38bf a557 0f3f 8e36 a83d
000003a0: b892 87be 30a1 9a3d 16d6 4bbe d058 78bf
000003b0: 7275 24bf 21ce 1dbf 78e3 343d b2b2 9d3d
000003c0: 55a2 12bf 7030 2abf aa15 19bd 7993 a93e
000003d0: 6f96 bb3e 0e2f 363c 95ce 62bf 9c9b 263f
000003e0: 6a08 9d3e 15b0 d7bd bbef f6be f8cf e83d
000003f0: 1945 773e bf70 d2be a106 1c3d e604 d8bc

net.0.bias f4 [64]
0.07437145 0.26540977 -0.048787687 -0.22073105 0.07599545 -0.23946247 0.27459443 -0.06916895
-0.33298916 -0.08746009 0.2997313 -0.042235523 -0.22969903 -0.2902932 0.45700726 0.5472545
-0.18918298 0.2795089 0.72139084 0.61373997 -0.16710344 -0.47286773 -0.17770776 0.23057279
0.014586023 -0.017139312 -0.34793442 0.46243963 0.3456045 0.59200954 0.064665616 0.45430782
0.26313406 -0.26119167 -0.15752986 -0.41558206 0.23758374 -0.20513214 -0.23547965 -0.12452149
-0.10546273 -0.0575531 0.28213477 0.5793925 0.22395496 -0.27932227 -0.13451664 -0.62237006
0.38121536 0.76528215 0.56869936 -0.1793654 -1.0016501 0.030379105 0.2590052 0.15323564
0.08937158 -0.72188133 0.38933328 0.2036064 0.07739798 0.26820543 0.22860952 0.108462654
00000000: 0f50 983d cae3 873e 99d5 47bd 5207 62be
00000010: 81a3 9b3d a635 75be a497 8c3e 73a8 8dbd
00000020: 8e7d aabe 471e b3bd 6276 993e 28ff 2cbd
00000030: 3936 6bbe 4fa1 94be dbfc e93e df18 0c3f
00000040: 2fb9 41be ca1b 8f3e 12ad 383f 101e 1d3f
00000050: 2a1d 2bbe b81b f2be 06f9 35be 461b 6c3e
00000060: 37fa 6e3c be67 8cbc 7624 b2be e3c4 ec3e
00000070: 13f3 b03e f08d 173f 686f 843d 099b e83e
00000080: 82b9 863e eaba 85be 824f 21be 2cc7 d4be
00000090: 2749 733e 290e 52be 9421 71be 1f05 ffbd
000000a0: d8fc d7bd cdbc 6bbd f873 903e 1153 143f
000000b0: 7354 653e 5403 8fbe bbbe 09be a553 1fbf
000000c0: a92e c33e 88e9 433f 4896 113f 90ab 37be
000000d0: 1236 80bf 9add f83c 549c 843e cee9 1c3e
000000e0: 7208 b73d 37cd 38bf b156 c73e 327e 503e
000000f0: d582 9e3d 3952 893e 9d18 6a3e ab21 de3d

net.2.weight f4 [64, 64]
0.17368972 -0.05196105 -0.22809348 -0.17191343 -0.29789105 -0.252232 0.4770523 0.09784331
0.055815913 0.047514148 -0.25628874 0.60533446 -0.044619378 -0.12287729 0.13605368 -0.31698897
0.45551237 -0.44012055 -0.106619395 -0.32732567 -0.25502723 -0.18744323 0.095486 0.17932893
-0.14292282 -0.35201958 -0.05235673 -0.13088158 0.0326743 -0.22316305 0.019274566 -0.092477486
-0.6039285 0.26475722 0.09199983 -0.1978703 0.15144175 0.049304772 0.27222317 0.22536899
0.056183174 -0.061877705 0.07342162 0.06586225 -0.027592106 0.50071245 0.25225076 0.7396284
0.3230879 -0.025882967 -0.36486554 -0.18263638 0.19221961 -0.14437242 -0.26188442 -0.30799714
0.06133389 0.016122738 0.058136996 -0.35153812 -0.0994337 -0.17813289 -0.50979984 0.26196653
0.3246165 0.043855507 -0.2559496 -0.29330721 -0.022550618 -0.30861115 0.60975176 0.104743384
0.34238043 0.09917911 -0.0854697 0.32717708 -0.03391199 -0.2501663 0.014200534 -0.10570651
-0.030698536 -0.28459325 -0.034008816 -0.04816091 -0.24851029 -0.15458563 0.03167396 0.31813177
0.10556234 -0.4568848 -0.12756851 -0.01719272 -0.023039494 -0.021843925 0.1980874 -0.24024689
-0.38635132 0.07939238 0.05147485 -0.103575684 0.24809337 0.03901224 0.12994365 0.28556985
0.09039963 -0.22271378 -0.01303167 0.09578855 -0.090281166 0.22235505 0.14917254 0.35945323
0.087344274 -0.07271821 -0.33366945 -0.103629276 0.050533388 -0.084143534 -0.26774654 -0.2416711
0.21264811 0.15414453 0.08730039 -0.33037704 -0.100246444 -0.20408553 -0.6415107 0.014055878
0.076233186 0.12331831 -0.24892122 0.06718795 -0.049356323 -0.07522178 0.4463545 -0.08631853
0.15625912 0.19252412 -0.18023361 0.0745234 0.028629309 -0.25207537 0.085374 -0.0005344209
0.14013627 -0.2541671 -0.004503965 -0.10012901 -0.23817094 -0.03825905 -0.0074332026 -0.014948214
-0.16288798 -0.32661384 -0.21388513 0.054950014 0.011878031 -0.19217731 -0.14974892 -0.12445782
-0.2303548 -0.048550416 -0.032116827 -0.11073491 0.20304973 0.06708666 0.075143434 0.144886
-0.16136594 0.096910276 0.16140944 0.043113794 0.054638 0.2520547 0.14760013 0.21469177
-0.04393842 -0.048950154 -0.113302596 0.10592784 0.10256838 -0.1289018 -0.34645772 -0.32014707
0.09483253 0.01612383 -0.00376782 -0.048695587 0.036266766 -0.27653277 -0.5484206 0.09349805
0.3228799 -0.08824779 -0.054334372 -0.29507276 -0.043103114 -0.31997886 0.24101065 0.11782895
0.0059221047 0.20570725 -0.22547223 0.33796558 -0.27098104 -0.11981506 -0.020912375 -0.16820939
0.30037698 -0.43519676 -0.31735846 -0.2593805 -0.17567185 -0.10930117 0.052606326 0.095303036
-0.0024846424 -0.35030514 -0.00078488095 -0.0005832416 0.16538453 -0.1728119 0.09102123 -0.14879471
-0.6556458 0.16637328 0.014332343 -0.06289765 0.093778364 0.14501527 0.11305746 0.11487201
0.049041122 -0.120232366 0.15983644 0.021962494 -0.2642223 0.2780317 0.24480163 0.43831137
0.20083143 0.03607922 -0.24616376 -0.1201228 0.23224226 0.040154144 -0.27521974 -0.14897865
-0.06313345 -0.07174829 -0.09689048 -0.24786629 -0.069185734 -0.05749743 -0.42143878 0.035446744
00000000: b8db 313e 1cd5 54bd 5691 69be 130a 30be
00000010: 2d85 98be 8d24 81be 3340 f43e 1362 c83d
00000020: 3a9f 643d 329e 423d 4738 83be 33f7 1a3f
00000030: cfc2 36bd 17a7 fbbd a851 0b3e 614c a2be
00000040: eb38 e93e 7b57 e1be 455b dabd 3b97 a7be
00000050: ee92 82be 1ef1 3fbe 2a8e c33d 01a2 373e
00000060: 5c5a 12be e93b b4be 0374 56bd d205 06be
00000070: 7dd5 053d db84 64be b2e5 9d3c d664 bdbd
00000080: 0f9b 1abf 428e 873e 686a bc3d 839e 4abe
00000090: 8c13 1b3e cdf3 493d d660 8b3e 21c7 663e
000000a0: 5420 663d 7a73 7dbd 135e 963d cae2 863d
000000b0: d708 e2bc b12e 003f 0327 813e 4958 3d3f
000000c0: c76b a53e 8408 d4bc a8cf babe 0805 3bbe
000000d0: 38d5 443e 5dd6 13be b715 86be cdb1 9dbe
000000e0: 3f39 7b3d d513 843c 0f21 6e3d cefc b3be
000000f0: e5a3 cbbd 7868 36be 3e82 02bf 7a20 863e
00000100: 2234 a63e d5a1 333d d30b 83be 5d2c 96be
00000110: 13bc b8bc 4802 9ebe b118 1c3f b383 d63d
00000120: 7d4c af3e 6b1e cb3d bd0a afbd c183 a73e
00000130: 4ce7 0abd cc15 80be 5ba9 683c a87c d8bd
00000140: 7f7b fbbc 35b6 91be d44c 0bbd 6044 45bd
00000150: 7b79 7ebe b24b 1ebe 8ebc 013d 2be2 a23e
00000160: 1131 d83d ceec e9be 52a1 02be bfd7 8cbc
00000170: 52bd bcbc 08f2 b2bc 6cd7 4a3e 4803 76be
00000180: d7cf c5be 7998 a23d 4bd7 523d 7d1f d4bd
00000190: 300c 7e3e 4ccb 1f3d f30f 053e 3636 923e
000001a0: 7123 b93d 150f 64be c982 55bc ca2c c43d
000001b0: 55e5 b8bd 0bb1 633e b0c0 183e 410a b83e
000001c0: 8ee1 b23d 49ed 94bd b9d6 aabe 963b d4bd
000001d0: 19fc 4e3d 7253 acbd 1316 89be a178 77be
000001e0: 6dc0 593e 10d8 1d3e 8cca b23d 2e27 a9be
000001f0: 024e cdbd ccfb 50be 0c3a 24bf a04a 663c
00000200: 2520 9c3d 4f8e fc3d 34e5 7ebe d699 893d
00000210: db29 4abd e00d 9abd 9488 e43e c5c7 b0bd
00000220: 6402 203e 0b25 453e 298f 38be b99f 983d
00000230: 0388 ea3c 0610 81be 90d8 ae3d 6118 0cba
00000240: e27f 0f3e 3122 82be ff95 93bb 7010 cdbd
00000250: 15e3 73be 86b5 1cbd 3992 f3bb 5be9 74bc
00000260: 1bcc 26be ee39 a7be b404 5bbe 4413 613d
00000270: 139c 423c 21ca 44be c857 19be bee3 febd
00000280: 21e2 6bbe cddc 46bd ef8c 03bd fcc8 e2bd
00000290: 45ec 4f3e bb64 893d cde4 993d ff5c 143e
000002a0: 1d3d 25be e578 c63d 8448 253e 1798 303d
000002b0: 18cc 5f3d 500d 813e 7d24 173e 29d8 5b3e
000002c0: c6f8 33bd f57f 48bd 310b e8bd b2f0 d83d
000002d0: 5f0f d23d d5fe 03be e862 b1be 51ea a3be
000002e0: 8f37 c23d 1f16 843c 88ed 76bb 0675 47bd
000002f0: 768c 143d b495 8dbe 4b65 0cbf e87b bf3d
00000300: 8450 a53e 42bb b4bd b88d 5ebd c713 97be
00000310: e48c 30bd 45d4 a3be 7fcb 763e 4e50 f13d
00000320: 370e c23b eca4 523e 31e2 66be d309 ad3e
00000330: 07be 8abe 9961 f5bd 6e50 abbc 153f 2cbe
00000340: 03cb 993e 1cd2 debe cf7c a2be 85cd 84be
00000350: 52e3 33be 4bd9 dfbd bb79 573d 3d2e c33d
00000360: 62d5 22bb 325b b3be 78c0 4dba aee4 18ba
00000370: 905a 293e 9af5 30be 5769 ba3d a45d 18be
00000380: 67d8 27bf c25d 2a3e 34d2 6a3c 7cd0 80bd
00000390: df0e c03d e27e 143e ab8a e73d 0442 eb3d
000003a0: 58df 483d 633c f6bd 2aac 233e b0ea b33c
000003b0: 2548 87be 2c5a 8e3e 47ad 7a3e 596a e03e
000003c0: c1a6 4d3e cec7 133d 5a12 7cbe f102 f6bd
000003d0: ead0 6d3e ac78 243d 9ae9 8cbe dc8d 18be
000003e0: 1c4c 81bd c4f0 92bd 846e c6bd a9d0 7dbe
000003f0: 40b1 8dbd 6d82 6bbd d3c6 d7be 9b30 113d

net.2.bias f4 [64]
-0.091713324 -0.15057558 -0.07311469 -0.24405023 -0.15692994 0.0051362114 0.08855185 0.15888819
-0.056267604 -0.038025845 -0.1939884 -0.17690946 0.16876715 -0.042516865 -0.03695278 0.110777624
0.08914684 -0.12449538 -0.0013571508 -0.0125358775 0.15488146 -0.14336549 0.1457661 -0.11346197
0.19320235 -0.016165553 0.19035245 -0.204285 -0.15225399 -0.2658026 0.21425283 0.21552522
-0.0038684849 -0.14915709 -0.23314239 -0.34784883 -0.059160776 -0.28601068 0.085347235 -0.07024256
0.0947696 -0.2682149 -0.15990372 -0.09997586 0.107935436 -0.18762943 -0.037595917 0.15782946
0.02295765 -0.01664298 -0.24190998 -0.22413489 0.178131 0.0026222034 0.0058956333 0.065468974
-0.2920923 0.06031006 -0.14915125 -0.18744053 0.01374468 0.32353833 -0.2632471 0.03849395
00000000: 32d4 bbbd 7c30 1abe 28bd 95bd 4ee8 79be
00000010: 3eb2 20be aa4d a83b ac5a b53d 96b3 223e
00000020: dc78 66bd fdc0 1bbd e5a4 46be c127 35be
00000030: 4cd1 2c3e 2a26 2ebd cc5b 17bd 61df e23d
00000040: 9e92 b63d 6ff7 febd 6de2 b1ba 4863 4dbc
00000050: 3f99 1e3e 67ce 12be b543 153e c05e e8bd
00000060: d6d6 453e 9f6d 84bc c1eb 423e 1630 51be
00000070: 78e8 1bbe 4717 88be 1865 5b3e a5b2 5c3e
00000080: 6886 7dbb a3bc 18be e1bc 6ebe 3e19 b2be
00000090: 9252 72bd fe6f 92be 88ca ae3d 55db 8fbd
000000a0: 9016 c23d 7753 89be cdbd 23be 25c0 ccbd
000000b0: 410d dd3d ee21 40be 2dfe 19bd 0c9e 213e
000000c0: ae11 bc3c dc56 88bc 40b7 77be 9e83 65be
000000d0: f967 363e 46d9 2b3b 2830 c13b 9914 863d
000000e0: 1f8d 95be ae07 773d 1bbb 18be 69f0 3fbe
000000f0: 5e31 613c d1a6 a53e 53c8 86be d5ab 1d3d

net.4.weight f4 [3, 64]
-0.6421105 -0.6597385 -0.65724194 -0.65504175 -0.6046763 0.80115527 0.83577687 -0.44252595
-0.66336083 -0.7366455 0.2865517 0.36937302 0.61595505 0.76865965 0.688649 0.58841276
0.8780597 0.39301297 -0.40833527 0.7588724 -0.6020137 -0.66556233 -0.43976456 -0.8734047
-0.67648864 -0.81722105 0.65991217 -0.6451154 0.11261879 0.070843875 -0.44802916 -0.41728267
-0.5245247 0.64087605 0.83670074 0.6303525 0.4662715 0.066908106 -0.5912623 -0.49297833
0.68047863 -0.6038212 0.61125857 -0.8008345 -0.8981787 0.67538166 -0.7256978 0.87642
0.8250245 -0.64341706 0.78947216 0.50222355 -0.7131878 -0.18779355 -0.37637305 -0.86360395
0.1764315 0.67809665 0.747248 0.5640031 -0.5567841 -0.47590953 0.28054598 0.5893981
-0.30713272 0.1681976 0.039011165 -0.24036331 0.45641842 0.35014164 0.051732495 -0.5857059
-0.20998004 0.33207774 0.006328373 0.3607292 0.066440664 0.12175975 -0.2886422 -0.12606451
0.24694802 0.036684696 -0.32722628 0.098323 -0.15867665 -0.15847662 0.0064835967 0.18666007
-0.3368113 0.038157754 0.29509756 0.25552654 -0.09500057 -0.16144262 0.22888064 0.20552583
0.18064468 0.16571783 -0.29748186 -0.34164754 0.09682382 0.30880862 0.08349688 0.07507102
0.27220154 -0.15038858 0.35196012 -0.096934475 -0.07534348 0.1360972 -0.13942663 0.45264646
-0.5388256 0.11239359 -0.18702006 0.11173658 -0.44013855 0.12991007 -0.5103855 0.7313709
0.025537599 -0.17123523 -0.57827294 -0.28960624 -0.39486453 -0.05524714 0.24209607 -0.49251828
-0.8254459 -0.9819836 -0.873768 -0.8035073 -1.0065578 -0.32284018 -0.3287449 0.9081488
-0.787034 0.4711913 -1.1147777 -1.1535959 0.8382181 0.98317707 1.0866338 0.9573264
-0.42207444 0.9620174 1.029472 -0.2170998 -0.71211624 -0.85102993 0.9146564 -0.044011794
-0.8949521 -0.73323315 0.8235534 -1.0115604 1.3866426 1.5724158 0.596116 0.6715379
0.7929076 0.7907453 -0.21325792 -0.2563574 0.8655353 1.7180326 -1.0736575 -1.0011344
-0.5441295 -0.8389112 0.21855527 0.3860489 0.05621847 -0.41799206 -0.8210179 -0.13666852
0.7615489 0.5581619 -0.27532664 0.9302461 -0.8420694 -1.1510077 0.8529951 -0.7670394
0.9470523 0.8880799 0.21241197 -0.34654066 1.0232494 -1.671953 0.93477994 1.2633435
00000000: 5b61 24bf 9fe4 28bf 0241 28bf d1b0 27bf
00000010: 11cc 1abf 8318 4d3f 79f5 553f c392 e2be
00000020: 04d2 29bf cd94 3cbf e8b6 923e 761e bd3e
00000030: 3baf 1d3f e1c6 443f 4d4b 303f 38a2 163f
00000040: 85c8 603f ff38 c93e 5211 d1be 7645 423f
00000050: 921d 1abf 4b62 2abf d228 e1be 7397 5fbf
00000060: 5c2e 2dbf 6635 51bf 01f0 283f 4826 25bf
00000070: aea4 e63d 9816 913d 1464 e5be 13a6 d5be
00000080: 4047 06bf 7410 243f 0532 563f c85e 213f
00000090: 23bb ee3e 1e07 893d f75c 17bf a867 fcbe
000000a0: d933 2e3f 0794 1abf 717b 1c3f 7d03 4dbf
000000b0: 0aef 65bf d0e5 2c3f 55c7 39bf 105d 603f
000000c0: ce34 533f fbb6 24bf d91a 4a3f b991 003f
000000d0: 7a93 36bf f44c 40be f8b3 c0be 2615 5dbf
000000e0: 76aa 343e be97 2d3f a54b 3f3f 8262 103f
000000f0: 6789 0ebf 6aaa f3be b9a3 8f3e cbe2 163f
00000100: 8040 9dbe fe3b 2c3e 2cca 1f3d cd21 76be
00000110: adaf e93e c445 b33e 74e5 533d d2f0 15bf
00000120: 0205 57be 1806 aa3e 3e5e cf3b 7fb1 b83e
00000130: 0b12 883d 2d5d f93d e9c8 93be 0e17 01be
00000140: f1df 7c3e b142 163d 348a a7be 925d c93d
00000150: 227c 22be b247 22be 5a74 d43b d123 3f3e
00000160: 8872 acbe 4e4b 1c3d 0717 973e 60d4 823e
00000170: a98f c2bd 3751 25be b05f 6a3e 5d75 523e
00000180: ebfa 383e efb1 293e 8b4f 98be 6dec aebe
00000190: 914b c63d 2a1c 9e3e 6a00 ab3d d6be 993d
000001a0: 005e 8b3e 77ff 19be 1e34 b43e 9585 c6bd
000001b0: af4d 9abd 105d 0b3e dbc5 0ebe 47c1 e73e
000001c0: 79f0 09bf 9c2e e63d 3082 3fbe 26d6 e43d
000001d0: d759 e1be 2507 053e a0a8 02bf 203b 3b3f
000001e0: 3a34 d13c 4a58 2fbe b209 14bf 4547 94be
000001f0: af2b cabe d34a 62bd 08e8 773e 5b2b fcbe
00000200: 6c50 53bf 4763 7bbf 42af 5fbf a8b2 4dbf
00000210: e3d6 80bf 4f4b a5be 4051 a8be 717c 683f
00000220: 0f7b 49bf fc3f f13e 09b1 8ebf 08a9 93bf
00000230: 7695 563f 7eb1 7b3f d116 8b3f 5813 753f
00000240: 241a d8be c646 763f bdc5 833f 694f 5ebe
00000250: 404d 36bf 19dd 59bf ec26 6a3f b645 34bd
00000260: 951b 65bf 2bb5 3bbf 65d4 523f d07a 81bf
00000270: 817d b13f ec44 c93f 0f9b 183f e8e9 2b3f
00000280: fefb 4a3f 496e 4a3f 4960 5abe 4741 83be
00000290: b993 5d3f 7ee8 db3f 9c6d 89bf 2c25 80bf
000002a0: 124c 0bbf e2c2 56bf f4cc 5f3e 34a8 c53e
000002b0: 5745 663d 0e03 d6be 3b2e 52bf d5f2 0bbe
000002c0: def4 423f b3e3 0e3f 9df7 8cbe 9c24 6e3f
000002d0: dc91 57bf 3854 93bf e35d 5a3f b25c 44bf
000002e0: 0572 723f 3459 633f 8682 593e c76d b1be
000002f0: d6f9 823f 8e02 d6bf bd4d 6f3f 3db5 a13f

net.4.bias f4 [3]
-0.28440925 -0.093372524 -0.20303515
00000000: 179e 91be 183a bfbd 72e8 4fbe
