rnn_robot_params.pth (torch, 76273 bytes, 8 tensors)

rnn_cell.weight_ih f4 [192, 6]
000000 1a b3 1b bd 0d 2e 4d 3e 37 32 91 3e f4 97 c3 3e
       -0.0380126 0.20037098 0.28358623 0.3820187
000010 05 2f ef be d0 95 b2 be 20 5d 11 3d 3f bc 75 3d
       -0.4671556 -0.34879923 0.0354892 0.05999398
000020 42 41 6a be ac b1 f3 bd 98 28 64 3e b5 4d cb bc
       -0.22876456 -0.118991226 0.2228111 -0.024817327
000030 5d 21 68 bd 56 3f 7e 3c 42 3f 84 3e dc ba d8 3d
       -0.056672443 0.01551803 0.25829512 0.105825156
000040 8a 2a d6 3e f3 ff 4b 3c 9f d6 21 3d 6d 28 57 be
       0.4182933 0.01245116 0.03951132 -0.21011515
000050 0a 67 ec 3d 5b b1 2d be af 12 fa 3e 47 6c 0c 3f
       0.11543091 -0.16962187 0.4884238 0.5485272
000060 11 9b 29 be 52 01 dc 3d ef f0 12 be 7e ec 97 3d
       -0.1656306 0.10742439 -0.14349721 0.07418154
000070 d0 52 b8 3d ec 08 b6 3e 97 9b 2e be 1d 4e 62 bd
       0.0900017 0.35553682 -0.1705154 -0.055250276
000080 51 15 78 bd 9c c9 e6 3e f7 6a 10 bf 67 8e 80 bd
       -0.060567204 0.4507569 -0.56413215 -0.06277161
000090 17 90 52 3e 8d 30 d4 3e db 50 8b 3e 3e 5c c5 bd
       0.20562778 0.4144329 0.27210125 -0.096367344
0000a0 13 6a 8d 3e 7b 4c a3 bd 29 4a 0b bd 3b 71 86 3e
       0.2761999 -0.07973572 -0.03400627 0.26258263
0000b0 85 bd 82 3d ae e1 04 be d5 36 1d 3f c3 e1 a1 bd
       0.06383804 -0.12976715 0.6141179 -0.07904389
0000c0 16 2f c2 bc e9 84 91 bd 5c 33 50 be 52 cc 80 3e
       -0.023704093 -0.07105429 -0.20332092 0.25155884
0000d0 1b c0 1a bf df 8c 86 bf 9a 28 93 3d bb 70 82 be
       -0.6044938 -1.051174 0.071854785 -0.25476632
0000e0 b0 dc 14 3e 38 4d 73 3d 99 6c d1 3e fd ec 43 3f
       0.1453731 0.059399813 0.40903166 0.7653349
0000f0 27 22 18 3e 62 67 ea be 43 e2 99 bd 31 bc dc bd
       0.14856778 -0.45782 -0.07513859 -0.10778082
000100 94 e9 7b 3e e4 2c bb 3d 39 12 f5 be 69 41 2b be
       0.24600822 0.091394216 -0.47865465 -0.1672417
000110 f8 44 4c 3e 9e 2c 4e 3e 31 d2 ae bd 98 84 40 bd
       0.19948184 0.20134208 -0.085361846 -0.04700145
000120 25 db 2f 3b 89 58 d6 bd 6e 84 67 be ba f0 3a 3e
       0.0026833501 -0.104661055 -0.22609112 0.18255892
000130 48 b0 21 bd a0 36 0f 3e 5b ee 84 3e fd 7d d2 bd
       -0.039474756 0.13985682 0.259631 -0.102779366
000140 b5 8b 1f 3e 46 9a 67 3d de 4d ba 3c 85 08 70 bc
       0.15580638 0.05654361 0.022742208 -0.014650469
000150 ab 55 c6 3d 54 cc 96 3d 6e 69 d0 3c 17 77 66 3e
       0.096843086 0.07363191 0.025440898 0.22506367
000160 0f c4 e3 3d 38 85 96 3e 33 62 47 3e dc 1a 5e 3e
       0.111213796 0.29398513 0.19471054 0.21689934
000170 3c 64 63 bb 9a 68 3b be 7a 58 db 3e 70 57 a1 bc
       -0.0034697196 -0.18301621 0.4284094 -0.019695014
000180 af 8c 75 3e aa 22 92 3e ca 62 bb bd 35 c3 10 3e
       0.23979448 0.28542072 -0.09149702 0.14136966
000190 7e 6b db bc 86 a3 a8 bb 7d 86 0a be b5 e9 f0 3e
       -0.026784655 -0.0051464466 -0.13527866 0.47053304
0001a0 5f f3 d8 3a 3e c5 a8 be ca f7 27 bf b4 0f dd 3d
       0.0016552022 -0.32962984 -0.6561247 0.10794011
0001b0 74 20 a7 3c 61 10 59 3e e0 1a f5 bd 76 bf 0f 3e
       0.020401217 0.21197654 -0.119680166 0.1403788
0001c0 12 92 15 3e d6 ec c5 bd bd 78 7e be 54 40 94 3d
       0.14606503 -0.096643135 -0.24850745 0.07238832
0001d0 a7 28 12 3e b9 9f 0e bd 9f 31 81 3d 4f cf 61 3e
       0.1427332 -0.034820292 0.063082926 0.22051738
0001e0 8e 08 8c 3d 00 bd 16 3e 7a 51 2e be 7e 05 40 3e
       0.06837569 0.14720535 -0.17023268 0.18752095
0001f0 83 61 16 3f ba 7f 28 3e ce 5e 06 be 5c 69 0b be
       0.5874254 0.16454974 -0.13122103 -0.1361441
000200 d7 8a 88 be 15 81 b3 bd f7 c6 cd be 7b 23 39 bf
       -0.26668426 -0.08764855 -0.4019086 -0.72319764
000210 ac 93 e9 be 48 c6 23 3f f8 6a c4 3e 7f ce 98 bd
       -0.45620477 0.6397443 0.3836286 -0.07461261
000220 51 0c 98 3e 29 90 8b bc 1e 93 42 be 8f 62 3c 3e
       0.29696897 -0.017036514 -0.19001433 0.18396972
000230 ce c2 69 3e f5 82 b5 bc 6f 42 18 be 01 d2 c8 bc
       0.22828218 -0.022157172 -0.14869092 -0.0245142
000240 7b a5 fc 3d 36 9f 36 3e e6 fc 21 3f d0 7c 5b bd
       0.123362504 0.17834172 0.6327652 -0.053585827
000250 36 73 2c 3e a1 73 ca 3d 0f 27 3a bd 3f ca 28 3d
       0.16840824 0.09885336 -0.045447405 0.041208502
000260 d7 32 77 be 3c f7 a6 3e 67 6f b0 be f4 fb 44 bf
       -0.24140488 0.326105 -0.34459993 -0.7694695
000270 7f 36 7c be 29 d0 52 3c 86 d8 b8 3e 30 9a 89 3e
       -0.24630164 0.012867012 0.36102694 0.26875448
000280 d6 52 ea bd 79 b4 94 3c 03 de 98 be 2b 6f 9e be
       -0.11441581 0.018152462 -0.29856881 -0.3094419
000290 6e c7 3e bd 36 f3 21 3e 1c 4e 7e 3d dc 6d 1c bf
       -0.04657691 0.15815434 0.06208621 -0.6110513
0002a0 37 c9 03 3f 96 3b 22 3f 1c 31 4d 3e 29 59 e3 3d
       0.51478904 0.6337217 0.20038265 0.1110099
0002b0 f0 8d 20 3e 3c a0 b1 bd fd a2 0d bd 7a 15 68 be
       0.15679145 -0.086731404 -0.034579266 -0.22664443
0002c0 28 15 10 3c 42 82 4f be 34 b3 7b 3e 1f e8 cc bd
       0.008794107 -0.20264533 0.2458008 -0.10005211
0002d0 7d 6d 2f bd 6c 4c 05 3e 21 33 c7 bd ab 18 a2 3d
       -0.042829026 0.13017434 -0.09726549 0.07914861
0002e0 d0 50 b6 3e 68 21 86 3d 66 8c 8b bd 43 2e 53 bb
       0.3560853 0.065493405 -0.06813888 -0.003222362
0002f0 9c 23 84 3e e6 fd 0e 3d 69 63 51 be 2b 6c 11 3d
       0.25808418 0.034910105 -0.20448078 0.035503548
000300 2a 39 a9 3d 33 fa 6a 3e b5 b3 80 bc 3b 8e 24 3e
       0.08262856 0.22947006 -0.015710691 0.16069882
000310 0d b2 c7 be d5 db 25 3f 1a 8f 76 bd c7 6c e6 bc
       -0.3900303 0.6478856 -0.060195066 -0.028128041
000320 0f 1d 23 bf 05 44 a0 3c a9 bf 74 3f af 12 0a 3b
       -0.63716215 0.019563684 0.9560495 0.0021068265
000330 f2 dd 82 3e 02 74 b2 3d 0b bd eb bc 7b e3 88 be
       0.25559956 0.08713533 -0.028776666 -0.26736054
000340 ec 60 71 be 4b d8 9f 3d e1 5d 9d bd b1 f4 d1 bd
       -0.23572129 0.078049265 -0.076839216 -0.10251749
000350 86 73 91 3d 55 af 83 3e 22 ba 05 3e 09 ca a1 be
       0.071021125 0.25719705 0.13059285 -0.31599453
000360 13 93 05 be 90 73 8e 3e 9d c4 72 be a4 83 66 3d
       -0.13044386 0.27822542 -0.23707815 0.056277886
000370 bb 8f ef bd 6c 50 02 3d 0a 3a a6 be b3 48 ab bb
       -0.11697336 0.031814978 -0.32466155 -0.0052271723
000380 f8 e1 08 3e 0b 89 9d bd 80 ae d8 be 5c 13 8b 3e
       0.1336745 -0.076921545 -0.42320633 0.27163208
000390 06 bc 0f be ac 07 f0 bd 92 dd 7d be a8 4c 86 3e
       -0.14036569 -0.11720213 -0.24791554 0.2623036
0003a0 d8 37 40 3f b0 95 9a 3a 62 93 7f be 41 7c 46 be
       0.7508521 0.0011793878 -0.24958566 -0.19383337
0003b0 11 f6 ad be 95 84 c3 3d 86 61 7c be d2 4e 86 be
       -0.33976796 0.095467724 -0.24646577 -0.2623201
0003c0 2c 11 f1 bd 32 e0 19 3e 2b fc 31 bd 79 eb f5 bc
       -0.117708534 0.1502693 -0.043453377 -0.030019509
0003d0 d9 b8 9f 3e 5f 47 df 3d 76 a6 3b 3d 96 23 34 3e
       0.31195715 0.10902285 0.045813046 0.175917
0003e0 9f b3 3a 3e 77 3c dc 3e 1a 0d 0b be 87 f1 d3 bd
       0.18232583 0.4301488 -0.13579217 -0.10348802
0003f0 6b ed 01 3e 33 0b 03 3e 94 d6 8d 3e e6 9c a0 3e
       0.12688224 0.12797241 0.27702773 0.31369704

rnn_cell.weight_hh f4 [192, 64]
000000 12 8f e0 3c bc da 23 3e 41 00 b2 bd 92 8f 15 3e
       0.027411971 0.1600141 -0.08691455 0.14605549
000010 fd af e2 bd 1c cd 2f bd 5a 71 e0 3e cd d6 a1 3d
       -0.11068723 -0.042920217 0.4383648 0.07902298
000020 c2 d2 97 3d 19 01 51 3d 23 7e 07 3f 58 d7 36 be
       0.07413246 0.051026437 0.52926844 -0.17855585
000030 26 0c 0b 3d 85 77 91 3d 3d 3c 9d bb 83 62 a5 3e
       0.033947133 0.07102875 -0.0047984407 0.3230172
000040 cf de 3d bd 69 c9 32 be 72 6f af be f5 ec 2f be
       -0.046355065 -0.17459644 -0.34264714 -0.17180236
000050 b5 32 fb bb 79 82 b8 3c 1f 23 fe 3e 03 25 98 bd
       -0.007665957 0.022523152 0.4963617 -0.074289344
000060 0f 32 96 be 08 24 3e be 0b d8 2c 3e eb 88 d0 bc
       -0.29335067 -0.18568432 0.16879289 -0.025455913
000070 a6 80 de 3d 7f 64 08 3e 9d be b0 3d 70 40 40 3e
       0.108643815 0.13319586 0.086301066 0.18774581
000080 f4 5e 9d 3e a0 be a1 3d 39 5b 86 3e ce e3 29 3d
       0.30736506 0.07897687 0.26241472 0.041477017
000090 e4 78 1d 3d 53 7d 6d 3d 47 d2 09 3e 6d ac 45 3e
       0.03844537 0.057980847 0.1345912 0.19304056
0000a0 e3 33 67 3e 47 78 1b 3e 4d 96 55 3e d6 fd 36 3d
       0.22578387 0.15182601 0.20858116 0.04467567
0000b0 07 15 15 3f 0f 3d ea 3d 4c 48 40 3c 54 dc 5d 3e
       0.5823521 0.11437427 0.011735987 0.2166608
0000c0 96 2e 50 3e ae 88 80 3e 70 b6 1e 3e d6 fb e2 bc
       0.20330271 0.25104278 0.15499282 -0.027707975
0000d0 78 fd 62 3e 87 f9 75 3e 68 27 41 3d fb 81 4f be
       0.22167003 0.24020968 0.04715672 -0.20264427
0000e0 2b ee 9e 3e 9b f3 92 3d a6 78 9f bd 59 1d 80 bc
       0.31041083 0.0717537 -0.07786684 -0.015638994
0000f0 2f ad 95 bd 29 67 b7 3d a1 c2 2f 3e 6c 55 22 be
       -0.07308423 0.08955223 0.17164089 -0.15852898
000100 5d 96 09 3e 08 0e 06 3e 60 18 ed 3d 9c b5 1b 3d
       0.13436265 0.1309129 0.11576915 0.038014993
000110 47 3a 3f 3e 66 ef e0 3c 46 27 df bc c3 89 22 3e
       0.18674575 0.027457904 -0.027240407 0.15872864
000120 11 78 e2 bd f6 5b a2 3d d5 bb a6 be db e4 11 be
       -0.11058057 0.079276964 -0.3256518 -0.14247458
000130 90 fb 0f bd 3a 1f 24 3d ae c4 06 3d f6 74 22 3d
       -0.035152018 0.040068842 0.032902412 0.039662324
000140 2e 11 29 be df da 19 3e 48 88 56 be e1 23 d4 3d
       -0.1651046 0.15024899 -0.20950425 0.10358406
000150 38 40 24 3e a4 e7 1b 3e 89 21 1f be 3b 86 9d 3d
       0.16040123 0.15225083 -0.15540136 0.07691618
000160 2e 73 46 be 05 94 55 be f7 29 31 be ea 08 51 3e
       -0.19379875 -0.20857246 -0.17301165 0.20413557
000170 8a 58 c1 3e 00 d1 5a 3c 04 46 8e 3d dc 2d 8a 3d
       0.37762862 0.013355494 0.06946948 0.06747028
000180 91 68 62 3d ed 1e a3 bc 26 d4 fa bb 78 dc 13 3e
       0.055275504 -0.019912207 -0.0076546846 0.14439571
000190 63 b0 18 3e cc 41 53 bd bb c6 8f 3e 4e d5 dc 3d
       0.14911036 -0.05157642 0.28081307 0.10782872
0001a0 85 51 94 3d eb a5 31 3d 04 89 01 3d 25 01 04 3c
       0.07242111 0.043371122 0.03162481 0.0080569135
0001b0 11 86 02 3e cb 05 3f 3e 68 4a 04 be ef b3 ba 3e
       0.12746455 0.18654554 -0.12919009 0.36465403
0001c0 38 ed 3f 3e 13 b3 c0 be 59 90 23 be 44 38 60 bd
       0.18742836 -0.37636623 -0.15973033 -0.05474116
0001d0 75 ec ae 3d cc 3f 87 3d 15 ac 28 3e 6f 8f 6f 3e
       0.08541194 0.06603965 0.16471894 0.2339456
0001e0 32 b5 c4 bd cd 13 9a 3d 4d 21 9b bb 0e 9d 0d be
       -0.09604873 0.07523308 -0.0047341944 -0.13829443
0001f0 85 eb 3e 3b f5 5e 4f 3d 30 af 1f 3e f0 c3 74 bd
       0.002913208 0.050627667 0.15594172 -0.059757173
000200 bb 52 f1 3e c3 52 c0 3e a0 60 4e 3d af 7a e6 bb
       0.4713343 0.37563142 0.050385118 -0.007033668
000210 b2 c2 4c be 2a 23 23 bd 0d 60 aa bd 22 5d 88 be
       -0.19996145 -0.039828457 -0.083191015 -0.26633555
000220 00 35 e8 3d 1e e5 23 3d ce 1b ee bb 15 b9 cd bd
       0.11338234 0.040013425 -0.007266498 -0.10045067
000230 bf 98 3c bd ac 5b 2f be 31 cf 0e 3e 2e 4a 06 3e
       -0.046044108 -0.17124814 0.13946225 0.13114235
000240 52 35 82 bb ad 71 f5 3e a4 1d b3 be 3f c8 03 bd
       -0.0039736414 0.4793829 -0.34983552 -0.03217339
000250 27 e9 e4 bd db 20 8b be 18 6e af be c4 ab ab be
       -0.11177283 -0.27173504 -0.34263682 -0.33529484
000260 b1 89 7e be 5a ec ba bd e9 0f 86 3e 9f 4a 0b 3c
       -0.24857213 -0.09127112 0.26184013 0.008501678
000270 06 14 37 3e 9c 17 66 bd 45 0b 39 bd e9 08 c5 bc
       0.17878732 -0.05617486 -0.045176763 -0.0240521
000280 e0 0c c3 3e bf 93 96 bd 9e 5a 91 bc a6 c0 b3 bd
       0.3809576 -0.07352399 -0.017743405 -0.08776979
000290 d1 ce 0d be 0a c2 48 be 3c 6c 1e bd 8b 44 15 3e
       -0.13848425 -0.1960527 -0.03867744 0.14576928
0002a0 c7 2d 80 3e e0 e7 16 be f9 83 0c 3e 83 f8 03 3e
       0.25034925 -0.14736891 0.13722219 0.12887768
0002b0 16 4f 54 be 07 a6 14 3e e2 ad e6 3b fb 6d 27 3e
       -0.20733294 0.1451646 0.0070397714 0.16350548
0002c0 15 6e 5c 3e e4 07 4c 3d 23 64 cf be c0 4a d9 be
       0.21526368 0.049812213 -0.40506086 -0.42439842
0002d0 24 8c f0 3d f8 31 1b 3d c5 ce 6b 3e 45 37 d8 bc
       0.1174548 0.03788945 0.23028095 -0.026393542
0002e0 b9 1f 6a 3e 20 19 ab 3d 0e 17 96 3e 12 ff 86 3e
       0.22863664 0.083544016 0.29314464 0.26366478
0002f0 96 b3 62 3c 3c 98 85 3d c9 72 61 3d 3a 93 01 3d
       0.013836762 0.06523177 0.05504111 0.031634547
000300 76 6c 94 3d ae eb 84 3e ef 87 67 be 21 bc c5 be
       0.0724725 0.2596106 -0.22610448 -0.38620093
000310 b7 20 c6 3e 76 2f f4 3d ad 26 0f 3d a4 30 91 3e
       0.38696834 0.11923115 0.034948993 0.28357422
000320 1f 52 76 3d be 5f 06 3d f7 21 d3 bd 94 4c 31 be
       0.06013691 0.03280615 -0.10309213 -0.17314368
000330 6d ba 49 bd 5f f6 72 bd 6f 8c 5d 3e 05 98 2b 3e
       -0.049250055 -0.05931699 0.21635602 0.1675721
000340 f5 de 61 3e f9 99 34 bb f0 7e c3 3b 48 66 96 3d
       0.22057708 -0.0027557595 0.00596606 0.07343727
000350 31 00 a3 bb 2e b4 0c be 86 3c 9f 3d bc 0f 84 be
       -0.004974388 -0.13740608 0.07775216 -0.25793254
000360 84 ab 8d be b2 07 e4 bc a8 62 91 3e 92 7f ca 3b
       -0.2766992 -0.0278357 0.2839558 0.0061797583
000370 a1 60 29 bd 41 3d b6 3c 89 3a 4d bd 87 00 1f 3d
       -0.041351918 0.022246005 -0.05010465 0.038818862
000380 e6 e5 db 3d e7 7f a3 3d e2 3f c5 be 51 d6 ea bd
       0.10737209 0.0798338 -0.385253 -0.11466659
000390 90 f6 04 be 21 81 d2 bc 22 cd ad bc a8 3d 8d 3d
       -0.12984681 -0.02569634 -0.021215979 0.068965256
0003a0 f0 e5 92 3e 4c 89 92 be 99 f6 c3 3d a9 79 b4 3d
       0.28691053 -0.28620374 0.09568519 0.08812267
0003b0 18 a6 3b be e0 a5 bc bd 11 01 22 be 89 cc 11 3f
       -0.18325078 -0.09211326 -0.1582072 0.5695272
0003c0 1a df 32 3d 8f 78 e5 bc 9b 7f c4 be 99 aa 23 bf
       0.043669797 -0.028011588 -0.38378605 -0.63932186
0003d0 e4 13 d0 3d 3f 74 03 3e 08 b3 08 3b 00 a1 d6 3d
       0.10160044 0.12837313 0.0020858664 0.10479927
0003e0 00 03 26 3d 33 6f 09 3e ac e4 27 be ea 32 23 3d
       0.040530205 0.13421325 -0.16395825 0.039843477
0003f0 e8 1d 0f be 97 7f a8 3d 33 4f de 3b 4c 41 28 3d
       -0.13976252 0.08227461 0.0067843436 0.041077897

rnn_cell.bias_ih f4 [192]
000000 af f2 9d 3e 89 f5 29 bd b3 3e d8 3a 30 2c ad bc
       0.30849215 -0.041493926 0.0016498178 -0.021139234
000010 3e 85 8d 3d db a5 2d 3e ea 50 39 3e 8f ed 16 3d
       0.069101796 0.169578 0.18097273 0.036847647
000020 18 59 aa bc cd 12 d4 3d 21 d1 d5 3d e5 4f 19 3e
       -0.020794436 0.103551485 0.10440279 0.14971884
000030 ce a4 8b 3e c1 0b 95 bd 99 51 8f 3e 64 47 3b 3e
       0.27274173 -0.072776325 0.27991942 0.18288952
000040 f1 ca bd bd 01 8c cb bd 13 45 7b 3d a2 bf 8b 3d
       -0.092672236 -0.09938813 0.06134517 0.068236604
000050 02 9a 85 3b 85 d0 cb bc 45 fc de 3d 97 87 50 3d
       0.004077197 -0.024879703 0.1088796 0.05091056
000060 6f ee a2 3d 30 79 00 3d bb c8 37 3e 00 5f bb bd
       0.07955634 0.031365573 0.17947666 -0.09148979
000070 23 87 c3 3d 58 6b 0c 3e 64 23 17 3e 0a b4 be 3d
       0.0954726 0.13712823 0.14759594 0.093116835
000080 e3 66 7b 3e 02 fd ad 3d 2c 00 90 3e f8 8a 6d 3c
       0.24550967 0.08495523 0.2812513 0.014498465
000090 5e f3 9f 3d 5d c8 f9 bc c9 fc 0f 3e 6a a6 67 3d
       0.078100905 -0.030491048 0.14061274 0.05655519
0000a0 9c 96 65 3d 47 e2 e9 3e 4a 85 88 3e 0e c8 0d 3d
       0.056051835 0.45680448 0.2666419 0.034614615
0000b0 2a 76 7f 3e 9b 11 62 3e 70 7d b8 bd 96 4d 44 3e
       0.2494742 0.22077028 -0.090083 0.19170222
0000c0 3c 86 36 3c b0 1e 2f 3e a0 7c 95 3e d5 d1 77 bb
       0.011140402 0.1710155 0.29196644 -0.0037814279
0000d0 b3 30 15 3e 56 35 35 3e b0 ba 54 3e 37 a8 ab 3e
       0.14569359 0.17696127 0.2077434 0.33526775
0000e0 c4 8f f6 3d aa cf 30 3e ad ba cd 3d 30 bb 11 bd
       0.1203914 0.17266718 0.10045371 -0.035578907
0000f0 b4 a4 be 3d d3 fc 25 3e c6 1b 3e 3e 80 04 1a 3d
       0.093087584 0.16209726 0.18565282 0.037601948
000100 2e bc 10 bf de 0c 0d be 6a f0 4c bf 21 ec 02 3e
       -0.5653714 -0.1377444 -0.8005434 0.12785389
000110 44 02 26 3e b6 03 a8 bd 45 15 9d be f0 c6 ac be
       0.16211802 -0.08203833 -0.3068029 -0.33745527
000120 64 41 5b be dd 06 27 bd e2 74 31 bf 79 ba 1f bc
       -0.21411663 -0.04077803 -0.69318974 -0.009749048
000130 95 7d 99 be 54 5d c0 be 2e 24 80 bd 3a cf 08 bd
       -0.29978624 -0.37571204 -0.06256901 -0.03340075
000140 33 cd 08 be e5 74 31 bf 21 c6 4c 3d 87 93 5f be
       -0.13359527 -0.6931899 0.049993638 -0.21833621
000150 3c 96 0a be 1e f3 5b 3d 4d 03 69 bf dd 4a 31 be
       -0.13533872 0.05369865 -0.9102066 -0.17313714
000160 7f 6a 8d bd ac 92 41 bf ee 15 40 3d 30 e1 1c be
       -0.06905078 -0.7561443 0.046895914 -0.15320277
000170 f0 70 24 bf 95 b7 3e bf 92 c6 8c be ff 7e 2e be
       -0.6423483 -0.74498874 -0.27495247 -0.17040633
000180 4a 8a 05 bf 2b d5 2f be 01 6a 4e be ff 5e 53 be
       -0.5216414 -0.17171161 -0.20157625 -0.20641707
000190 fe 8a 47 bd 28 d1 94 be d7 93 6d be 48 88 ae 3d
       -0.048716538 -0.29065824 -0.23200928 0.08522087
0001a0 10 45 9d 3d 67 6d a4 be d3 d2 66 be 70 db ce be
       0.07679188 -0.32114717 -0.2254136 -0.40401793
0001b0 31 8f 14 bf d1 5d 67 bf ac 61 c9 be b4 ab 86 be
       -0.5803099 -0.9037753 -0.3933233 -0.26302874
0001c0 e9 03 3e bf 93 23 b7 bd 27 12 0b bf 4a ee 34 bf
       -0.74224716 -0.08942332 -0.54324573 -0.706761
0001d0 b6 86 91 be b1 e1 ea bd c1 76 0c be d9 92 19 be
       -0.2842309 -0.114688285 -0.13717176 -0.14997424
0001e0 12 b0 78 be 3a be 03 be b3 47 d4 bd 39 6f fc be
       -0.24285915 -0.12865534 -0.10365238 -0.49303606
0001f0 85 6f 01 bf 6a 95 3c be b3 5c 0b be a7 f9 40 3d
       -0.5056079 -0.18416372 -0.1360958 0.047113087
000200 4b 02 f6 3d 6e 0b 83 3c da 59 c6 bc 93 35 50 3d
       0.12012156 0.015996661 -0.024212766 0.050832342
000210 43 f3 03 be 3e 43 83 bd 78 43 67 3e 9e c7 2a 3e
       -0.12885766 -0.0640931 0.22584331 0.1667771
000220 7e 65 1a 3f 26 27 64 3d 48 45 8f 3d f2 5f 3c be
       0.60311115 0.055701397 0.06995636 -0.18395975
000230 b7 02 42 3e e4 a2 be 3d d6 4c 47 be 2f 9f b7 3d
       0.18946348 0.09308413 -0.19462904 0.08965909
000240 a0 e6 bb bd ad 83 ee 3a 8f 21 a5 3d 5d 59 83 be
       -0.091748476 0.0018197201 0.080630414 -0.25654116
000250 1f 01 f1 bd f4 f2 35 be 49 94 7f 3e 6c 4f 99 bc
       -0.11767792 -0.1776846 0.2495891 -0.01871463
000260 2a e4 b8 bd 9b 0a 16 be 10 43 bc 3d fe 5c f9 bd
       -0.09027894 -0.14652483 0.09192479 -0.1217594
000270 df c2 f4 3d f8 ad 95 bc 9c 76 3f 3e 4f 66 3e be
       0.11951231 -0.018271431 0.1869759 -0.18593715
000280 68 0b 29 3e 10 7c 3a 3e 07 65 2c bd d8 ec 1a 3e
       0.16508257 0.18211389 -0.042088535 0.15129411
000290 e3 b1 e3 3d 03 57 cd 3d 3a 03 cd bd fd 10 41 3d
       0.111179136 0.10026362 -0.10010381 0.047135342
0002a0 5c e4 65 3e b7 55 13 3e 5a ac 6e 3e 5f a3 58 be
       0.22450393 0.14388166 0.23307934 -0.21156071
0002b0 e3 68 24 3e c1 d6 1e 3e af 17 a4 bd cf 7a 16 3e
       0.16055636 0.1551161 -0.0801233 0.14695285
0002c0 4f 74 e7 3d 76 bd a2 3c 76 26 84 be fd bb 90 be
       0.11301481 0.019865733 -0.25810593 -0.28268424
0002d0 08 e6 c9 bd 7b 40 02 3e ff b0 c6 bd 54 78 7e be
       -0.09858328 0.1271991 -0.09701728 -0.24850589
0002e0 26 24 98 3d fb 18 bb 3d 16 d0 5a be 37 c7 84 be
       0.0742877 0.09135624 -0.21368441 -0.2593324
0002f0 e3 4c b4 be c3 c5 44 3e 9d 51 de 3d 25 a0 b2 bd
       -0.3521491 0.19216065 0.1085541 -0.087219514

rnn_cell.bias_hh f4 [192]
000000 91 fb 75 3e 40 8e a1 bd 15 e1 18 be 21 c1 0c 3e
       0.24021746 -0.0788846 -0.14929612 0.13745548
000010 b4 17 49 3e 83 df 5c 3c 54 93 49 bc dd a0 4a bd
       0.19637948 0.013481024 -0.012303192 -0.049469817
000020 fb 15 2d bc 42 a7 91 3c a8 1a 28 bd dc 96 40 3d
       -0.010564323 0.01777995 -0.041041046 0.04701887
000030 46 d3 1a 3e 0f 62 ae 3c 8f 1a 40 3e 0c 41 f1 ba
       0.15119657 0.021286992 0.18760131 -0.0018406226
000040 8f 1e b0 bd e8 1a 44 3d 9f 23 54 3d 75 f6 13 bd
       -0.085995786 0.047877222 0.051791783 -0.03612371
000050 c7 20 32 3d 57 fe e3 bd d9 1f 39 3e 4a 5b e8 3c
       0.04348829 -0.11132496 0.18078555 0.028363843
000060 bb 3a bf bd 06 25 34 3d 33 ec 07 3e 33 69 0c be
       -0.09337374 0.04398062 0.13273697 -0.13712005
000070 27 da 4f 3e 1a d2 43 3e 85 91 77 3d f0 e3 90 bd
       0.20298062 0.19123116 0.060441513 -0.07074726
000080 5c 2a 1f 3e ee 71 9e bd 1f 35 7b 3e f4 6c b7 bd
       0.15543503 -0.07736574 0.24531983 -0.08956328
000090 b2 b9 d6 3d 43 eb 3b 3d 49 2d 2a 3e 50 d5 60 3d
       0.10484637 0.04587866 0.16618837 0.05489093
0000a0 30 94 04 3d 58 83 a8 3e ca a1 b5 3d 1a a4 14 bd
       0.032367885 0.32912707 0.088687494 -0.036289312
0000b0 50 3d 5b 3e 9d 85 45 3e 50 74 8c bd 01 09 f1 3c
       0.21410108 0.1928925 -0.06858122 0.029423239
0000c0 c5 3d 58 3d 34 cf 07 3e 66 98 89 3e bb 71 77 3d
       0.052793283 0.13262635 0.26874083 0.060411196
0000d0 5a 71 4b 3d 04 7c dc 3b 57 b1 e5 3d a7 66 74 3e
       0.049668647 0.006728651 0.112154655 0.23867284
0000e0 d1 e6 84 bd 58 4b f9 3d 81 dd 1d 3e d5 05 88 3d
       -0.06489337 0.12172574 0.15416528 0.06641737
0000f0 c4 20 f5 3c 31 bb 3c 3e 60 6f 65 3e eb 4f e4 3d
       0.02992285 0.18430783 0.22405767 0.11148056
000100 be 9f 25 bf 85 57 05 be 06 31 4e bf 20 71 f0 bc
       -0.6469687 -0.13021667 -0.80543554 -0.029350817
000110 7a e3 46 3d 05 37 a5 bb 8d b7 a2 be 22 8c 51 be
       0.048556782 -0.005041959 -0.31780663 -0.20463613
000120 40 b6 82 be 7b d9 58 3d 56 27 12 bf 47 b8 c8 bd
       -0.2552967 0.05294178 -0.5709127 -0.09800773
000130 9b be e5 be cc 31 bb be fc 42 26 be ad 3e 91 3d
       -0.44871983 -0.3656143 -0.1623649 0.070920326
000140 75 75 df bd 97 05 25 bf 3e 88 f8 3d 70 a4 04 be
       -0.10911075 -0.64461654 0.12135361 -0.12953353
000150 80 b1 32 be 4c 28 4d 3d d3 75 8a bf 07 10 34 be
       -0.17450523 0.05008726 -1.0817207 -0.17584239
000160 37 81 ca bd 0c 75 1e bf 20 42 af 3c 84 b4 37 be
       -0.09887927 -0.6189735 0.021393836 -0.17939955
000170 5a e3 43 bf d9 0b 1f bf 12 a3 4e be 54 de 67 bd
       -0.76518786 -0.62127453 -0.20179394 -0.056608513
000180 f4 be 10 bf fd 41 0f be 2b 60 ac bd e7 d2 84 be
       -0.5654137 -0.13990016 -0.0841678 -0.25942156
000190 fe 66 5f be e4 ad 04 bf 59 f2 6d be f1 55 2a 3d
       -0.21816632 -0.51827836 -0.2323698 0.041585866
0001a0 44 a8 84 bd 61 2e 9b be e1 a0 58 be e0 e4 b9 be
       -0.064774066 -0.30308822 -0.2115512 -0.3630743
0001b0 63 78 d7 be d7 a2 4b bf 9e 1f 20 bf 3b 35 e8 be
       -0.42084035 -0.7954535 -0.62548244 -0.45353112
0001c0 89 1a 45 bf ba 10 17 be bc d2 15 bf 7c ab 38 bf
       -0.76993614 -0.14752474 -0.5852468 -0.72136664
0001d0 51 bf 33 be 8a 55 78 be 23 ba 2d be c8 2d a7 be
       -0.1755345 -0.2425138 -0.16965537 -0.32652116
0001e0 7a 5c 6c be e5 39 47 be 59 c4 27 be 7a 1e 02 bf
       -0.23082152 -0.19455679 -0.16383494 -0.50827754
0001f0 32 e7 d5 be f0 3c 1b be 25 7b 60 be d4 78 c0 3d
       -0.4177795 -0.15159965 -0.21921976 0.09398046
000200 0d 09 20 3e 81 71 92 3d 0a 30 42 3d 69 8d ac bd
       0.15628453 0.071505554 0.047409095 -0.08425409
000210 bb a4 23 3e ce 85 65 be 43 70 8e 3e 5c 01 12 3e
       0.15980808 -0.22414324 0.27820024 0.14258331
000220 53 ba ac 3d 73 3d 26 be 7e 68 26 3d 1e 1a 89 be
       0.08433976 -0.16234379 0.040626995 -0.26777738
000230 46 da 11 3e 7e 95 b3 3c 49 9c 6b be 4d c0 01 3e
       0.14243421 0.02192187 -0.23008837 0.12671013
000240 39 ad da bd ae 92 21 be 1b 5b 19 3e 1a a3 92 be
       -0.10677571 -0.1577861 0.1497616 -0.28640062
000250 d3 f1 8e bd 4f 08 1c 3d 30 6c de 3e 49 b5 62 3b
       -0.06979718 0.03809386 0.43441916 0.0034592918
000260 94 8e c2 bc ee 79 c3 3d 1f 49 09 3e 3d 6f de 3d
       -0.023749627 0.095447406 0.134068 0.10861061
000270 4f e1 2a 3b d7 fe 92 3d 43 6a c6 3e 09 9a 2b be
       0.0026074236 0.07177513 0.38752946 -0.16757978
000280 59 a8 02 3d 82 58 79 3e 44 13 76 3d 50 e2 fa bc
       0.03189883 0.2435017 0.060076967 -0.030625492
000290 3d cf 00 3e bd 8b 91 3d 18 dd cb bc 6e 46 9a bd
       0.12579055 0.07106731 -0.0248857 -0.07532965
0002a0 b6 e3 cf 3d 58 17 4e 3e 27 43 76 3e c5 54 18 bd
       0.10150854 0.20126092 0.24049054 -0.037190218
0002b0 7b 4e ae 3d 8e 6c 0d 3e fc e7 52 3d 8b ec 88 3e
       0.08511063 0.13810942 0.05149077 0.26742968
0002c0 a3 ba 3f 3e 32 f0 c4 bc 31 15 74 be 3e 85 d4 bd
       0.1872354 -0.024040315 -0.23836209 -0.103769764
0002d0 a8 e2 b3 3d 78 5b c7 3c 6e 9a 0d be 8d 23 8d bd
       0.087834656 0.024335608 -0.13828442 -0.068915464
0002e0 0d 0b fd bc 56 f6 67 3e 8a d2 47 be 26 af 16 be
       -0.030889058 0.22652563 -0.19513908 -0.14715251
0002f0 23 a0 91 be b0 0c d0 bc 89 0e d0 3d ec 12 75 be
       -0.28442487 -0.025396675 0.10159022 -0.23933

decoder.0.weight f4 [64, 64]
000000 bf 79 a0 bd 11 5e d3 bd 97 21 55 3d 03 0f 9a 3e
       -0.07835721 -0.10320676 0.052033987 0.30089578
000010 8a e1 e0 be 8a 0d 8e be 6f cc bf 3d 58 04 40 3e
       -0.43922073 -0.27744704 0.093651645 0.18751657
000020 d0 f0 03 bf c1 d2 1c 3e 5e 09 9f 3e ea 26 ea bd
       -0.51539326 0.15314771 0.31061834 -0.114332035
000030 4d 85 39 be a3 f9 53 be c9 8d 69 be cc a2 1c 3e
       -0.18117256 -0.20700698 -0.22807993 0.15296477
000040 4e 19 10 bd 73 b1 32 be 40 ed 1e 3d 00 c4 a0 bc
       -0.035180382 -0.17450504 0.038800478 -0.01962471
000050 bc ca 21 be 5d 59 8b 3e 9d 55 0e 3e d9 85 8c 3e
       -0.15799993 0.27216616 0.13899846 0.27445868
000060 4a 76 af bd a8 5d 7e 3e 10 9a 15 be fa 30 2f 3e
       -0.08567484 0.24840415 -0.14609551 0.17108527
000070 27 97 99 3e 3c 36 95 3e 56 cb 9b 3c fa aa ec 3d
       0.29998133 0.2914294 0.019017857 0.11556049
000080 9d b2 05 3e e5 5e a5 bd 3f 27 9f 3e b2 07 53 be
       0.13056417 -0.0807474 0.3108463 -0.20608404
000090 14 24 df 3d 71 21 c7 bc af 63 60 be 88 94 19 3d
       0.10895553 -0.024307938 -0.21913026 0.037495166
0000a0 e1 12 50 3c 8b 4f 61 3e 9c 11 cd 3d 6b 5d b3 3c
       0.012699814 0.22003 0.10013124 0.021895131
0000b0 d7 5c 88 3e 5e 96 de 3d 7f bb 46 3e 9e 0b 97 be
       0.2663333 0.10868524 0.19407462 -0.2950105
0000c0 99 11 f0 bd 2a 17 73 3e 7b f3 b8 3e 30 5d c7 3e
       -0.117221065 0.23739305 0.3612326 0.38938284
0000d0 2b 2b 61 3d 5b 17 b2 3d 81 3e 55 bd 6a 89 38 3e
       0.05497281 0.08695861 -0.05206156 0.1802117
0000e0 11 57 46 bd bf 3c 12 bf 46 6a 93 be c2 a6 12 be
       -0.048422877 -0.5712394 -0.28792018 -0.14321426
0000f0 0e 17 6f bb ae 9e 0b 3e e9 54 3f be 03 96 d8 bd
       -0.0036482248 0.1363475 -0.18684734 -0.105754875
000100 5a b2 59 3e 7f 5c c1 3e 8b e5 cf 3d 4f e4 cb bd
       0.21259442 0.3776588 0.10151204 -0.09955656
000110 5b 81 f0 3e 5d 12 56 3e 29 e6 4d be 8e 66 8c bd
       0.4697369 0.20905443 -0.2010733 -0.06855498
000120 53 f7 18 3f bb 22 bb bd c1 52 cc bd b4 5c a5 be
       0.59752387 -0.09137484 -0.099767216 -0.3229729
000130 8f 1c b8 bc d9 74 31 be eb 46 b0 3e 96 e2 3b be
       -0.022474555 -0.1732973 0.34429106 -0.18348154
000140 ca 3a ee 3c 4d 70 4a be 1c 39 02 3e 72 27 b7 be
       0.029080767 -0.19769402 0.12717098 -0.35772282
000150 02 95 02 3e d6 9c 43 be 61 79 05 3e d9 cf 16 bf
       0.12752154 -0.19102797 0.13034584 -0.589109
000160 d4 de 97 3c c0 4c 68 be ae 5e 41 3e 47 0b 14 3e
       0.01853887 -0.22685528 0.18883774 0.14457427
000170 a6 48 40 3e eb ce b0 bd fd 25 3c bd 42 7d a0 bd
       0.18777713 -0.086332165 -0.045934666 -0.07836391
000180 6c 7d 79 be e6 c3 3d 3e ff 41 ee bd c1 c4 0d 3d
       -0.24364251 0.1853176 -0.116336815 0.034611467
000190 eb bf 08 3e 31 ce 66 3e 1a 5a 89 3e d9 27 0d be
       0.13354461 0.22539593 0.26826555 -0.13784732
0001a0 38 12 99 bd a1 7c 90 be 8a f1 b7 bd 99 9c e3 bc
       -0.07474178 -0.28220084 -0.08981617 -0.027784633
0001b0 62 c5 d0 be c8 97 e0 bd ed c6 ec be 32 9e ac 3d
       -0.4077559 -0.1096645 -0.46245518 0.08428611
0001c0 ad f7 a6 be 64 57 d1 bd 40 74 1b 3d 67 ed 60 3e
       -0.32610837 -0.102217466 0.03795266 0.21965562
0001d0 33 67 7e 3d e3 bf 0f be b7 83 8a bd c0 53 02 be
       0.062110137 -0.14038043 -0.06763404 -0.1272726
0001e0 35 b3 36 3d 50 8e 1f 3f 7f aa 35 3e 9e 05 4f be
       0.0446045 0.62326527 0.1774082 -0.20216987
0001f0 b6 02 00 3e 10 19 a2 3d b6 72 19 3e 56 1e 29 3e
       0.12501034 0.079149365 0.14985165 0.16515478
000200 c2 52 b1 3c be 41 75 3e da c9 21 3d 4a 17 dd bd
       0.021645907 0.2395086 0.03949914 -0.10795458
000210 15 e7 0f 3e 27 92 e9 3d 59 bf 8d be 88 55 fd 3c
       0.14052995 0.114048295 -0.2768505 0.030924574
000220 a5 30 a7 bd 1a c2 11 be c5 c4 2d 3e e0 0a 26 be
       -0.08163575 -0.142342 0.16969593 -0.16215086
000230 71 ec 8e 3a e2 95 a1 be d4 af 18 3e eb 2f 97 bc
       0.0010904205 -0.31559664 0.14910823 -0.018455466
000240 bb 45 2d 3e 36 23 96 be d8 d8 b1 3c 61 65 00 be
       0.16921131 -0.2932374 0.021709844 -0.12538673
000250 7e e3 54 3b 0e 0c 53 bd e4 35 cb 3e 0e 41 9d be
       0.0032484229 -0.051525168 0.39689553 -0.30713695
000260 e6 b3 8f bd a5 a7 4e bd 01 77 e4 3c 39 f0 aa 3e
       -0.07016735 -0.050452847 0.027888777 0.333864
000270 56 43 13 3e b0 46 bb 3d 5b 1b ca bd 7c 5f 08 3d
       0.14381155 0.09144342 -0.09868499 0.033294186
000280 55 d7 b2 3d fb 1f b7 bd 74 16 19 3e e1 45 20 be
       0.087324776 -0.08941647 0.14949971 -0.15651657
000290 95 50 0f 3e e2 2c 95 3e 5d e9 01 3e 18 60 a0 bd
       0.13995583 0.29135805 0.12686677 -0.078308284
0002a0 15 20 3f 3e 7a a5 ab be 64 e5 c9 bd f2 54 78 3d
       0.18664582 -0.33524686 -0.09858206 0.060627885
0002b0 bf 7a 2a be 41 f8 2f be f4 c9 ca be cd f1 ae bd
       -0.16648386 -0.17184545 -0.39607203 -0.085422136
0002c0 21 b9 29 be 2e 94 ce bd 7a fc 51 3e 0b ee 50 3e
       -0.16574527 -0.10086857 0.20506468 0.20403306
0002d0 8f 9c 47 bd 9a f8 bc 3c 05 b4 0d bd 75 33 cb 3d
       -0.04873329 0.023067761 -0.034595508 0.09921924
0002e0 2e ef 93 be 22 36 9b bb 10 bc 88 3d d1 d9 55 bd
       -0.28893417 -0.0047366777 0.06676495 -0.05220968
0002f0 45 d3 fb 3d 71 2d a5 bc 57 24 3d bc 6e 92 a8 bc
       0.12296156 -0.02016327 -0.011544309 -0.020577636
000300 cb 90 84 be 7b 4f 36 3b 5e 02 15 be 84 27 96 3e
       -0.25891718 0.002781837 -0.14551684 0.29327023
000310 db 78 1c bf a3 03 e6 bd f6 2c ca 3e 91 e0 3a 3e
       -0.6112191 -0.112311624 0.39487427 0.18249728
000320 37 83 35 bf c2 d1 95 3e 2b 86 39 3b 1b 68 0e be
       -0.7090334 0.29261595 0.002830873 -0.139069
000330 14 e6 1f be 5b 0f 6f be 06 13 46 be 19 93 b9 bc
       -0.15615112 -0.23345701 -0.19343194 -0.02265315
000340 8d bb fc bd 3d f2 45 be 03 87 d3 3c fa bf d6 3d
       -0.1234046 -0.19330688 0.025821215 0.104858354
000350 e1 08 8a bd d4 db f5 3e ef 09 48 3e 4f 4c 33 3e
       -0.06739975 0.48019278 0.1953504 0.17509578
000360 f5 ca 9f bd 54 07 4d 3e 49 c4 83 be 51 aa f2 3c
       -0.07802383 0.20022327 -0.2573569 0.029622229
000370 fd 9a 05 3d a9 7f 89 3e 41 7b 01 3e 32 03 d3 3d
       0.03261851 0.2685521 0.12644674 0.10303344
000380 43 63 17 3e f7 20 a4 be 6b 53 a7 3e 73 ca 15 be
       0.14783959 -0.320564 0.3268083 -0.1462801
000390 92 82 72 3e d1 15 34 3d 0f e8 a5 bd aa b3 69 be
       0.23682621 0.04396612 -0.08100902 -0.22822443
0003a0 7c 37 a4 3d 8e ef 3a 3e 28 cb 4d 3e d9 65 c2 3d
       0.08018395 0.18255445 0.20097029 0.09492082
0003b0 fe cf 17 3f e5 eb 00 bd 3f 1c 5c 3e 1a dc 15 bf
       0.59301746 -0.031474967 0.2149515 -0.58538973
0003c0 64 f6 cb bd e2 23 78 3e b7 64 d6 3d 57 57 ff 3e
       -0.09959105 0.24232438 0.104684286 0.49871323
0003d0 64 f9 30 3e 21 07 05 3e b6 c0 ce bd 25 a7 3f 3d
       0.17282635 0.12991 -0.100953504 0.04679026
0003e0 ac 46 48 be fb 7a 07 bf 43 41 6b bd cd 21 b0 bc
       -0.19558209 -0.5292203 -0.057435285 -0.021500492
0003f0 0e 25 bb 3d bc 63 42 3e e1 7e 6b 3c 27 d1 ca bd
       0.09137927 0.18983358 0.014373512 -0.09903174

decoder.0.bias f4 [64]
000000 b7 0d d4 bd 5a a0 21 be 71 be 10 3d 96 d1 77 3d
       -0.103541784 -0.15783826 0.03533787 0.06050261
000010 d7 7e 42 3e ec 7a 8d 3d fa 87 db ba 6e 2b 57 bd
       0.18993698 0.06908211 -0.0016748898 -0.052531652
000020 d4 14 e9 3b b0 a4 59 3e 34 5b 8c 3d a5 97 67 bd
       0.0071130786 0.2125423 0.06853333 -0.056541104
000030 e6 b2 83 bd 5e 7e 85 bc 42 c6 37 bd a3 c5 9f 3c
       -0.064306065 -0.016295608 -0.044866808 0.01950342
000040 3c f4 1c 3e 90 de c1 3d bc be 57 be 1f 69 d4 bc
       0.15327543 0.094662786 -0.21068853 -0.025929032
000050 70 e2 01 3e 3f 22 03 3e 21 e3 bb 3d d1 d3 43 be
       0.12684035 0.12806033 0.09174181 -0.1912377
000060 6a 0c 0f be 5a 0c 5b 3d 4a df c3 bd 39 56 ca 3c
       -0.1396958 0.053478576 -0.095640734 0.024699317
000070 3b 6e be 3c 11 5c 0c bd 30 3d 94 3c f2 67 46 bb
       0.023245921 -0.03426749 0.018095583 -0.0030274359
000080 f7 e5 02 be 21 e8 88 3d 2f 18 06 3e 6f 72 d5 3d
       -0.12783037 0.066849 0.13095163 0.10422217
000090 08 2f 1a bd bc d3 36 3d 3b 03 c6 3d be d2 f9 39
       -0.03764251 0.04463552 0.09668585 0.00047649996
0000a0 4d 68 e9 bc 03 dc b9 bd 1f db c5 bd 87 4f 3b bd
       -0.028492117 -0.09075167 -0.09660935 -0.04573014
0000b0 80 32 ba bd 22 b9 cf 3d 08 3d 19 be 49 0e 17 3e
       -0.09091663 0.10142733 -0.14964688 0.14751543
0000c0 47 44 f7 3b 2a 81 84 bd 66 9a ea bd 0b 23 50 bd
       0.007545981 -0.064699486 -0.114552304 -0.05081467
0000d0 e8 8f d3 3b 53 9f 39 3e 12 b4 ba 3d 68 3b ce bb
       0.006456364 0.18127184 0.09116377 -0.006293703
0000e0 b2 ed 73 bd 93 d2 41 bd eb cc 0f 3e 1b 1f 18 3d
       -0.059552856 -0.04731996 0.14043014 0.03713904
0000f0 07 8d f1 bc 76 14 43 bd e2 37 10 3e c3 5c 70 bd
       -0.029486192 -0.047626935 0.14083818 -0.058682214

decoder.2.weight f4 [3, 64]
000000 f3 ac 8e 3e c4 0a c2 3e 6a 69 60 3f 1b 25 22 3e
       0.27866325 0.3789884 0.8766085 0.15834467
000010 51 6b 1a bf 96 87 c8 be 00 c9 f8 3e 1f 3b b0 be
       -0.6032 -0.39165944 0.4859085 -0.34420106
000020 df 0d 45 3f 7a d8 1f bf 2b ed 19 bf f3 ad e8 3e
       0.7697429 -0.6243969 -0.60127515 0.45445213
000030 41 b7 6e 3e 94 71 0d 3f e7 54 14 bf 5a f5 5a 3f
       0.23312093 0.5525143 -0.5794205 0.85530627
000040 f3 a4 05 3e f2 ff f2 be fb 3f 5c 3f 7f 95 c7 3e
       0.13051204 -0.47460896 0.86035126 0.38981244
000050 55 43 ea 3d 14 6a 38 ba d4 7a 41 3e 2f 8c d8 bd
       0.11438624 -0.000703485 0.18894511 -0.10573613
000060 e5 c6 2b 3f e0 c9 35 bf 0f 87 c9 3e 86 ca d6 be
       0.67100364 -0.7101116 0.39360854 -0.41951388
000070 59 0a e1 be c8 02 4c bf 57 ee 86 3e 8e 38 b1 be
       -0.43953207 -0.79691744 0.26353714 -0.3461346
000080 f6 7e b6 3e 4c 01 fb be 2c 9d 4a 3e 89 68 b6 3e
       0.35643739 -0.49024427 0.19786519 0.3562663
000090 72 b6 90 3d a7 84 09 3f 3e 45 81 3d df 26 41 bc
       0.07066049 0.53718036 0.06312035 -0.011789053
0000a0 c6 31 0e bf 47 92 8f 3e 3f 9b 4f 3f 27 8b 2e 3c
       -0.555447 0.28041288 0.8109626 0.010653294
0000b0 e1 8c fd 3c db 77 b5 be 74 b7 e9 3e f1 b3 69 be
       0.030950965 -0.35443005 0.45647776 -0.22822548
0000c0 a4 96 35 3f 69 27 fc be f8 57 d4 3e a8 2e 9e be
       0.70932984 -0.49248818 0.41473365 -0.3089497
0000d0 ac 6a da be b6 51 45 bf 72 f2 97 be e7 78 ae be
       -0.4265951 -0.77077806 -0.2967716 -0.34076616
0000e0 94 52 07 bf e5 37 e2 3e 69 05 bb be 66 cf 24 3f
       -0.5286038 0.4418327 -0.36527565 0.64378965
0000f0 c2 c4 32 be bd 67 47 3f 79 76 e6 be 0b 73 3a be
       -0.1745787 0.7789267 -0.45012262 -0.18207948
000100 47 b3 23 be e5 8f 9d be df d9 4a 3e aa 96 93 be
       -0.15986358 -0.30773845 0.19809674 -0.28825885
000110 b8 09 99 be e4 7b b3 3d 2b 35 9c be 83 ce ac bd
       -0.29890227 0.08763865 -0.30509314 -0.084378265
000120 f6 98 37 be 11 d3 33 3e 91 d6 d4 be 84 1b 47 3d
       -0.17929444 0.17560984 -0.4156995 0.048610225
000130 75 df 47 bd 25 4f f7 3d 4d 44 20 be 03 12 5b 3e
       -0.04879709 0.120756425 -0.15651055 0.2139359
000140 a7 95 75 bd 1c f5 d7 3e b4 3b d3 3d 28 c6 7e be
       -0.059957173 0.4217919 0.10314122 -0.24880278
000150 6e 1e 35 3e 4a a1 7b 3e 14 22 c2 3e 5b 45 9b be
       0.17687389 0.24573246 0.37916625 -0.30326352
000160 4d 57 2e 3c d4 0e f1 3e 51 0c 86 be dc 4f 10 3e
       0.010640931 0.47081625 -0.26181272 0.14092964
000170 40 48 ae 3e d1 ac 1f bf 66 88 33 3e f9 e2 ac 3e
       0.34039497 -0.6237307 0.175325 0.33766916
000180 e6 86 71 3d 36 18 52 3e 11 3c 38 3e 4c 06 60 3e
       0.05896654 0.20517048 0.17991664 0.21877402
000190 7a 32 d8 bc 14 22 32 3e 9a b0 30 be 03 20 5a be
       -0.026391257 0.17395812 -0.17254868 -0.21301274
0001a0 68 a8 9b 3e 88 15 cf bd 8a e8 a4 3d 25 3e d1 3d
       0.3040192 -0.10111529 0.08052166 0.10216931
0001b0 ac c2 9f 3c f9 8b 96 3e 26 f6 02 3e 9f ff 4c 3e
       0.019502006 0.29403666 0.1278921 0.20019387
0001c0 54 8e 2c 3e 17 bb d2 3d a7 22 50 bd 7b 67 20 3e
       0.16851169 0.10289591 -0.050814297 0.15664475
0001d0 99 de 9a 3d fe 30 fb bd 22 61 a2 3e 63 2c d8 3e
       0.075619884 -0.12265204 0.3171473 0.42221364
0001e0 94 5f b2 3e 54 14 d0 3d cf b0 17 bd c3 8f 49 be
       0.34838545 0.10160127 -0.037033852 -0.19683747
0001f0 0c c0 fb 3e fc 03 9f 3d 8d 4f 97 3e 3a f1 c2 bc
       0.49169958 0.07764432 0.2955288 -0.023796666
000200 d6 ec 69 3f 2d 8f 2c bf 88 f0 8e be f4 1f 6a 3f
       0.9137701 -0.6740597 -0.27917886 0.91455007
000210 8b 87 51 bf 82 e3 4c bf a4 21 5d 3f da 71 65 bf
       -0.8184745 -0.8003465 0.86379457 -0.8962685
000220 0f 89 f2 3d 87 09 28 3f bf bb 2b bf ba 41 6b 3f
       0.11842548 0.6563954 -0.6708335 0.91897166
000230 5e 7a 61 3f cb 58 87 3f 68 a9 63 bf 94 c7 2b 3f
       0.8807734 1.0573972 -0.8893037 0.6710141
000240 4e f4 5d 3f 3b 6d 16 3f 4a 9d ec be 8e 70 82 bf
       0.86700904 0.5876042 -0.46213752 -1.0190599
000250 59 f3 58 bf 05 6d 51 3f 1c 84 79 bf 0b 46 53 bf
       -0.8474632 0.81806976 -0.9746721 -0.8252875
000260 dc 87 21 3f 84 5c f9 bd 16 05 5c 3f 40 75 47 bf
       0.6309793 -0.12175849 0.8594526 -0.77913284
000270 1e c3 48 3f ae 0e 59 3f c1 ac 57 3f 81 b8 16 3f
       0.78422725 0.84788024 0.84247977 0.5887528
000280 1c 2b 85 3f eb b3 2c bf f9 7e 96 bf 0c c4 4e 3f
       1.0403781 -0.67462033 -1.1757499 0.80767894
000290 6e 3b 71 bf 7c 80 51 3f a7 45 64 3f 58 a0 88 3f
       -0.9423131 0.81836677 0.8916878 1.0673933
0002a0 db 46 3a 3f 70 d6 85 3f 69 bf 03 bf 01 f1 6d 3f
       0.72764367 1.0456066 -0.51463944 0.9294587
0002b0 9c 07 75 3f a3 bd 1c 3f 2d e9 6c 3f 30 96 72 bf
       0.95714736 0.6122686 0.925433 -0.9476042
0002c0 5c 42 27 bf b1 ec 36 3f 09 f2 4b 3f 8c df 6e bf
       -0.6533563 0.7145491 0.7966619 -0.93309855
0002d0 81 95 39 bf 4b a5 58 3f b4 34 5e 3f 0a 47 6b 3f
       -0.7249375 0.8462722 0.8679917 0.9190527
0002e0 8f 74 27 3f 6d 79 64 3f 1f f4 3d bf 63 d8 29 bf
       0.6541223 0.8924778 -0.74200624 -0.66345805
0002f0 9d 1d 36 bf a8 88 2f bf 0c 38 3a 3f 58 90 5f bf
       -0.71138936 -0.68567896 0.7274177 -0.87329626

decoder.2.bias f4 [3]
000000 4f da 81 be fa f0 22 3d df b4 cb bd
       -0.2536187 0.039780594 -0.09946608
