simple_mlp_dynamics.pth (torch, 23552 bytes, 6 tensors)

net.0.weight f4 [64, 9]
-0.00661948 -0.16939834 -0.2612671 -0.21598227 -0.2748997 0.12770928 0.327847 -0.13560292
-0.09400061 -0.25836703 -0.13216278 -0.34410784 -0.22159159 0.30906934 -0.24792747 -0.24075437
0.23898974 -0.13688143 0.29150033 0.05851136 -0.22159086 -0.096001 0.05408941 0.2644953
-0.2015549 0.45440084 -0.13289712 -0.20050311 0.035849717 -0.32560015 -0.23489389 -0.033196133
0.1092526 0.122916155 -0.009214253 0.016679743 0.042823352 0.53109217 -0.0010091506 0.16581212
-0.029937532 -0.10342323 -0.18032306 0.22838809 0.24235138 0.3603072 0.16217361 -0.34157747
0.2774003 0.19733474 -0.0708425 0.025443837 -0.2645357 0.14898509 -0.35152003 -0.035260633
-0.2652204 0.09609438 -0.045233555 0.5597121 -0.08370993 -0.14330293 0.0818771 0.18800877
0.07025414 -0.12848131 -0.2524693 -0.0585644 -0.10504314 -0.1847887 -0.5290341 -0.03908643
0.23513733 -0.30796564 0.043716293 0.10738727 -0.31564745 -0.34078333 -0.2734018 -0.13790609
0.26973096 0.26150453 -0.1229868 0.3305637 -0.16235971 0.06654399 -0.19651619 0.30274636
-0.13460717 0.30955607 0.09585687 0.40124187 -0.0011665069 0.38413322 -0.11012976 0.21379395
0.31147143 -0.10240705 0.20374982 -0.0790857 -0.4346029 -0.14849117 -0.045934614 0.25328553
-0.14320765 -0.24480875 0.14309129 -0.07888933 -0.23039447 -0.06285026 -0.29412907 -0.045275923
0.07157465 0.23781414 0.15724975 -0.14695692 -0.2141236 0.27919713 -0.017140802 0.17005226
-0.26356503 0.26806557 0.25384158 0.27805206 -0.022845842 -0.026474865 0.4315383 0.13586402
0.21103927 -0.25724655 0.2878886 -0.17900565 0.33602336 -0.02994333 0.20536256 0.2223155
-0.15381613 -0.1320009 -0.12838843 -0.1660956 -0.18670663 -0.3868429 0.33716625 0.32510102
-0.18018046 -0.12549783 -0.26726186 0.26851687 -0.01227585 0.21777605 0.051526036 -0.043235082
-0.15870105 -0.31414917 0.06424095 0.08764805 0.078994736 -0.2571177 -0.14399421 -0.25713155
0.21423519 -0.2849957 -0.017303921 0.24640337 0.063525386 -0.09321482 0.05849289 -0.05632922
0.27365482 0.15939167 0.22595648 -0.482268 -0.2789868 -0.23609132 -0.11262098 -0.21362282
0.19611973 -0.13868734 -0.037365127 0.61812484 0.20667508 0.3023423 -0.12553252 0.28431144
-0.03596508 -0.11593981 -0.35015598 0.20380014 -0.08671814 -0.3090201 -0.2824297 0.27184144
0.06801463 0.1186018 0.061429143 -0.1855313 0.14475547 0.052994125 0.09050837 0.26524067
-0.22319005 0.25525194 0.043727595 0.21008576 -0.041895926 -0.2935249 -0.05228296 -0.122211374
0.120930575 0.016360778 0.27137282 0.17320383 -0.14716539 0.27120516 0.25432932 0.06178459
0.23490347 0.36464015 0.07227686 0.010843982 -0.0221129 0.03720149 -0.13688576 0.22485551
0.31437194 -0.0344866 -0.09237593 -0.054199237 -0.34771454 -0.16192584 -0.15847898 0.09810302
0.21626092 0.204099 -0.26530132 0.22309512 -0.007446513 -0.00866481 0.11572949 0.15047397
0.1901953 -0.24914552 0.007445992 -0.15338278 0.12852053 -0.29891488 -0.2745216 0.22026618
-0.16856441 -0.08047429 -0.2183536 0.07346017 -0.17648387 -0.4530143 -0.16103783 0.14644055
00000000: 39e8 d8bb c276 2dbe cdc4 85be 752a 5dbe
00000010: a7bf 8cbe 39c6 023e 90db a73e 7edb 0abe
00000020: 6483 c0bd af48 84be ae55 07be e72e b0be
00000030: e8e8 62be 563e 9e3e b3e0 7dbe 5088 76be
00000040: bab9 743e a52a 0cbe 883f 953e 9ca9 6f3d
00000050: b7e8 62be 2c9c c4bd db8c 5d3d ee6b 873e
00000060: 6864 4ebe 3aa7 e83e 2f16 08be b050 4dbe
00000070: 27d7 123d 10b5 a6be 0688 70be abf8 07bd
00000080: d4bf df3d 77bb fb3d 61f7 16bc f5a3 883c
00000090: 8a67 2f3d a8f5 073f 7a45 84ba a7ca 293e
000000a0: 8e3f f5bc 8fcf d3bd 9ca6 38be 91de 693e
000000b0: f62a 783e 2f7a b83e d710 263e 3ee3 aebe
000000c0: 6a07 8e3e 1e12 4a3e df15 91bd 986f d03c
000000d0: 3971 87be 8c8f 183e 6ffa b3be 746d 10bd
000000e0: f8ca 87be 21cd c43d d246 39bd 4b49 0f3f
000000f0: 1d70 abbd 01be 12be 2eaf a73d 5f85 403e
00000100: 67e1 8f3d 9b90 03be a843 81be 39e1 6fbd
00000110: dc20 d7bd 4039 3dbe c76e 07bf 1819 20bd
00000120: d7c7 703e acad 9dbe db0f 333d dbed db3d
00000130: 8b9c a1be 277b aebe 52fb 8bbe 4137 0dbe
00000140: 2d1a 8a3e ece3 853e 81e0 fbbd a53f a93e
00000150: a041 26be 3748 883d 8a3b 49be 9201 9b3e
00000160: 76d6 09be 227e 9e3e 9b50 c43d 936f cd3e
00000170: 7ae5 98ba 1cad c43e b68b e1bd cdec 5a3e
00000180: 2f79 9f3e caba d1bd cba3 503e aff7 a1bd
00000190: 4584 debe 120e 18be ef25 3cbd a4ae 813e
000001a0: 07a5 12be 25af 7abe 8686 123e bb90 a1bd
000001b0: 87ec 6bbe a3b7 80bd 1698 96be 3f73 39bd
000001c0: bb95 923d 8d85 733e 1406 213e e07b 16be
000001d0: 3843 5bbe edf2 8e3e de6a 8cbc 2e22 2e3e
000001e0: fff1 86be e43f 893e 86f7 813e d75c 8e3e
000001f0: 3427 bbbc d1e1 d8bc 97f2 dc3e f01f 0b3e
00000200: ae1a 583e d2b5 83be 2266 933e 424d 37be
00000210: 410b ac3e b74b f5bc 904a 523e ada6 633e
00000220: fa81 1dbe 3e2b 07be 4278 03be f714 2abe
00000230: 0630 3fbe 4610 c6be 0ea1 ac3e a473 a63e
00000240: 3a81 38be 8182 00be 8cd6 88be 0b7b 893e
00000250: a620 49bc af00 5f3e f70c 533d 4517 31bd
00000260: 8782 22be 29d8 a0be c290 833d d280 b33d
00000270: fec7 a13d eea4 83be 3873 13be bfa6 83be
00000280: 7860 5b3e f5ea 91be f4c0 8dbc 2a51 7c3e
00000290: 9919 823d 69e7 bebd 3e96 6f3d 78b9 66bd
000002a0: 7c1c 8c3e 9237 233e 2361 673e d5eb f6be
000002b0: 5cd7 8ebe ecc1 71be d4a5 e6bd f1bf 5abe
000002c0: 9cd3 483e 0e04 0ebe 2d0c 19bd 6e3d 1e3f
000002d0: a2a2 533e 9ccc 9a3e 998b 00be 4591 913e
000002e0: 1f50 13bd da71 edbd a547 b3be fcb0 503e
000002f0: 4899 b1bd e237 9ebe a09a 90be cd2e 8b3e
00000300: 414b 8b3d 80e5 f23d 209d 7b3d ebfb 3dbe
00000310: c73a 143e 5e10 593d 745c b93d a0cd 873e
00000320: ef8b 64be 62b0 823e b51b 333d b920 573e
00000330: 109b 2bbd e548 96be a826 56bd f549 fabd
00000340: 73aa f73d 0a07 863c 61f1 8a3e 585c 313e
00000350: 86b2 16be 67db 8a3e 7437 823e d711 7d3d
00000360: 898a 703e 1db2 ba3e e405 943d f5aa 313c
00000370: 1d26 b5bc 9760 183d c82b 0cbe 8640 663e
00000380: 5cf5 a03e d241 0dbd 972f bdbd 0500 5ebd
00000390: a407 b2be e3cf 25be 5048 22be 3cea c83d
000003a0: 8173 5d3e 54ff 503e 93d5 87be 0c73 643e
000003b0: e101 f4bb d9f6 0dbc 9503 ed3d d915 1a3e
000003c0: 8fc2 423e 0120 7fbe 82fd f33b 6010 1dbe
000003d0: e39a 033e 5f0b 99be 188e 8cbe 758d 613e
000003e0: 269c 2cbe b4cf a4bd 1698 5fbe 4972 963d
000003f0: 30b8 34be 7ef1 e7be 1ae7 24be 83f4 153e

net.0.bias f4 [64]
0.0632642 0.2870252 0.17161249 0.1782739 -0.2795341 -0.0367547 -0.37745702 0.03173184
-0.15348653 0.2266154 -0.22845715 -0.105080925 0.2608756 0.15539502 -0.019802444 -0.17081912
0.19163069 -0.23460917 -0.13741222 0.27094287 0.26878408 -0.18242592 -0.21464686 0.27252668
0.1277556 0.1033783 0.046310093 -0.09289382 -0.4262087 0.13566944 0.28361192 0.29695565
-0.23594591 -0.03864004 -0.15555894 0.017640375 0.20284268 -0.10203376 0.4180343 0.12144212
-0.30507275 -0.1998726 0.08679409 0.11192242 0.08614726 -0.2640771 -0.23462103 0.29873985
-0.046082504 0.091976225 -0.357533 0.1685643 0.13199538 -0.045274414 -0.11623796 -0.18379577
0.086531036 0.0015454479 0.05725432 -0.13905218 0.10329619 0.15098228 0.3179724 -0.079702966
00000000: a990 813d f8f4 923e 2fbb 2f3e 6f8d 363e
00000010: 181f 8fbe 198c 16bd 0c42 c1be 3ff9 013d
00000020: 932b 1dbe de0d 683e acf0 69be ab34 d7bd
00000030: 7d91 853e df1f 1f3e bc38 a2bc 35eb 2ebe
00000040: d63a 443e 633d 70be cab5 0cbe 06b9 8a3e
00000050: 119e 893e dccd 3abe 63cc 5bbe 9e88 8b3e
00000060: 5dd2 023e 01b8 d33d a7af 3d3d 1d3f bebd
00000070: 0738 dabe eeec 0a3e 9535 913e 920a 983e
00000080: ce9b 71be 0545 1ebd d84a 1fbe 8c82 903c
00000090: feb5 4f3e 13f7 d0bd 9708 d63e a5b6 f83d
000000a0: 7f32 9cbe 67ab 4cbe 1ac1 b13d 9537 e53d
000000b0: fa6d b03d 1d35 87be 7f40 70be 6ef4 983e
000000c0: 02c1 3cbd 085e bc3d 910e b7be 1f9c 2c3e
000000d0: cc29 073e aa71 39bd 2b0e eebd f534 3cbe
000000e0: 2f37 b13d a090 ca3a 8183 6a3d b263 0ebe
000000f0: f48c d33d 199b 1a3e 47cd a23e 4f3b a3bd

net.2.weight f4 [64, 64]
-0.02085018 0.07044038 0.025890637 0.048040133 0.09318606 -0.0057663084 0.064423725 0.067264736
-0.010135312 0.116375685 -0.0052455957 0.10167382 0.1248024 0.07534438 -0.029667437 0.03129181
0.08779221 0.033420805 -0.06513686 -0.041307967 -0.08578763 0.037018694 0.0051457505 -0.09307811
-0.04409979 0.08707404 -0.041275542 0.037708107 -0.108465284 -0.012700873 -0.12380275 0.08743894
-0.039017428 0.06878744 -0.03360205 0.1217811 0.013419805 -0.052483175 0.09974318 0.015936088
-0.058659095 -0.0015964629 0.0733089 -0.07554522 0.00043226156 -0.035776615 0.031873547 -0.16540642
0.03393481 0.1499091 -0.02259486 0.11695936 -0.021947239 -0.09204971 0.03469507 -0.0018455071
0.07071011 -0.0053149015 0.06317939 -0.02797399 -0.049577504 0.012245667 -0.13066544 0.039719354
0.11712756 0.06362796 -0.020078216 -0.059970457 0.09864101 -0.040643513 -0.025262717 0.14471152
0.10315972 -0.023473063 -0.0793995 -0.073422514 -0.12824899 -0.07419707 -0.006284674 0.04263569
-0.13519895 -0.0017528781 0.0554327 -0.11145271 -0.109762184 0.06317582 0.07969813 -0.06977365
0.054519467 0.19600616 -0.07051294 0.042705137 -0.07877113 0.008171775 -0.15544707 -0.0027191155
0.020266715 0.16719209 -0.090356685 0.1813002 0.12547612 0.015897607 0.056926906 0.1090054
0.19582406 0.12839629 0.0069904695 0.03089256 -0.1401176 -0.08865949 -0.018864758 0.0832822
0.0671242 0.06385062 0.14128093 -0.12395272 -0.028586857 0.0505981 -0.019806191 0.160761
-0.05982655 0.08208083 -0.117457815 -0.027809298 0.093678705 -0.08388878 0.039985545 -0.10459564
-0.024879994 0.10988489 -0.056539793 -0.14139158 -0.035232436 0.08661431 0.06078407 0.0343918
0.09433021 -0.028772444 -0.11858394 -0.082376406 -0.04405595 -0.06597863 -0.040609993 0.052474674
0.014168388 -0.13746244 0.111204535 0.10744741 -0.0077759563 0.10396405 -0.112743504 0.015139373
0.14756835 -0.072373174 0.04028001 0.13515425 -0.017838577 0.03965527 -0.098778896 0.011161128
0.014879736 -0.084478304 0.05194384 -0.040809613 0.0059376173 -0.031312384 -0.1088122 -0.10183656
-0.058783013 -0.04219353 0.03632091 0.029470094 0.034149744 -0.055958156 -0.079036266 0.09208577
0.17820555 0.04710816 0.08603192 -0.14260955 0.021148179 0.023336895 0.038971588 -0.06744165
0.101131886 0.03326239 0.11903646 0.032916915 -0.081861764 0.086576745 0.093244754 0.041865077
-0.032906715 0.15829651 -0.01123114 0.061316244 -0.0330385 0.13165721 0.061113287 0.07914094
-0.057018023 0.13099909 -0.14453176 -0.009856665 0.018274598 -0.013250943 0.10691674 -0.05703677
-0.023559632 -0.020279538 -0.035014752 -0.12550694 0.0022074645 -0.08406405 0.05938273 0.08342951
-0.14724022 0.12952948 0.13837317 0.016248854 -0.08306027 -0.08486386 0.039748244 -0.09841383
0.084855095 -0.065723315 -0.045693494 0.16515374 -0.005900034 0.03441886 0.07726484 0.04332824
-0.007446638 -0.12686613 -0.016825262 0.12551513 0.1512143 0.055240225 0.093308315 -0.0006967535
0.04395116 0.1413848 0.07187784 -0.0002540556 0.06791384 -0.10933948 -0.08449161 -0.030203046
0.03568338 -0.06677041 -0.1767092 -0.02299762 -0.12591672 -0.07412147 -0.020251919 0.13756242
00000000: ffcd aabc 0c43 903d 9a18 d43c bbc5 443d
00000010: 55d8 be3d 4df3 bcbb 96f0 833d 18c2 893d
00000020: 940e 26bc 6056 ee3d 3fe3 abbb 5d3a d03d
00000030: 6798 ff3d 284e 9a3d 2009 f3bc d72b 003d
00000040: 67cc b33d 41e4 083d 7966 85bd 8b32 29bd
00000050: 6db1 afbd eaa0 173d af9d a83b bc9f bebd
00000060: fba1 34bd e053 b23d 8b10 29bd d173 1a3d
00000070: 0c23 debd 5317 50bc 4c8c fdbd 3013 b33d
00000080: bdd0 1fbd 6ee0 8c3d 4ea2 09bd 5f68 f93d
00000090: bede 5b3c 99f8 56bd 2746 cc3d 668c 823c
000000a0: 8544 70bd 6840 d1ba fa22 963d 74b7 9abd
000000b0: 2aa1 e239 808a 12bd d68d 023d 4d60 29be
000000c0: 3aff 0a3d c581 193e db18 b9bc 6488 ef3d
000000d0: b2ca b3bc 8f84 bcbd 6b1c 0e3d f1e4 f1ba
000000e0: 76d0 903d a028 aebb 3264 813d b629 e5bc
000000f0: c811 4bbd 0da2 483c 29cd 05be c3b0 223d
00000100: 93e0 ef3d 604f 823d 127b a4bc 95a3 75bd
00000110: 4c04 ca3d d079 26bd c2f3 cebc 422f 143e
00000120: 6745 d33d 954a c0bc 349c a2bd 8b5e 96bd
00000130: b453 03be a2f4 97bd abef cdbb c3a2 2e3d
00000140: 9871 0abe d4c0 e5ba 660d 633d 5241 e4bd
00000150: ffca e0bd 5362 813d c638 a33d 7de5 8ebd
00000160: ce4f 5f3d d7b5 483e 1769 90bd 95eb 2e3d
00000170: c252 a1bd e9e2 053c 842d 1fbe 3033 32bb
00000180: 6206 a63c 6734 2b3e ed0c b9bd c2a6 393e
00000190: d07c 003e b33b 823c 302c 693d 393e df3d
000001a0: 1a86 483e 517a 033e 4f10 e53b 6512 fd3c
000001b0: fd7a 0fbe 1b93 b5bd 448a 9abc dc8f aa3d
000001c0: 6a78 893d 1dc4 823d f3ab 103e ecda fdbd
000001d0: fc2e eabc f43f 4f3d 9840 a2bc 889e 243e
000001e0: af0c 75bd ff19 a83d b98d f0bd 53d0 e3bc
000001f0: 9fda bf3d e1cd abbd e2c7 233d 3d36 d6bd
00000200: 21d1 cbbc 540b e13d 4596 67bd f4c8 10be
00000210: e34f 10bd d862 b13d b8f8 783d 6bde 0c3d
00000220: 3230 c13d 30b4 ebbc 23dc f2bd f6b4 a8bd
00000230: 0374 34bd ce1f 87bd aa56 26bd afef 563d
00000240: 8722 683c f4c2 0cbe 34bf e33d 630d dc3d
00000250: 73cd febb 1beb d43d 11e6 e6bd 220b 783c
00000260: 281c 173e 6338 94bd a7fc 243d e065 0a3e
00000270: 3522 92bc 906d 223d 974c cabd 2add 363c
00000280: 23ca 733c f602 adbd 10c3 543d fb27 27bd
00000290: 5890 c23b 6a41 00bd eed8 debd b08f d0bd
000002a0: 75c6 70bd 1fd3 2cbd 3cc5 143d 446b f13c
000002b0: 9ae0 0b3d 6134 65bd c4dd a1bd 7797 bc3d
000002c0: 847b 363e 7cf4 403d 8131 b03d 3d08 12be
000002d0: f23e ad3c 042d bf3c aca0 1f3d d91e 8abd
000002e0: 3c1e cf3d 253e 083d 63c9 f33d e3d3 063d
000002f0: 24a7 a7bd 264f b13d 1bf7 be3d b77a 2b3d
00000300: 31c9 06bd 7b18 223e d102 38bc be26 7b3d
00000310: 6153 07bd 26d1 063e ed51 7a3d a514 a23d
00000320: bb8b 69bd a024 063e 2200 14be d97d 21bc
00000330: 9cb4 953c 7c1a 59bc 2af7 da3d 639f 69bd
00000340: 2100 c1bc 4621 a6bc a16b 0fbd e484 00be
00000350: 1cab 103b c629 acbd 4e3b 733d 17dd aa3d
00000360: 24c6 16be 60a3 043e b2b1 0d3e 511c 853c
00000370: 811b aabd 1acd adbd 0ecf 223d 318d c9bd
00000380: 82c8 ad3d f299 86bd 1a29 3bbd 101e 293e
00000390: 1355 c1bb cafa 0c3d 073d 9e3d f478 313d
000003a0: ed02 f4bb 32e9 01be 22d5 89bc 0a87 003e
000003b0: ecd7 1a3e 9343 623d 6e18 bf3d 56a6 36ba
000003c0: 2206 343d 2dc7 103e b034 933d c432 85b9
000003d0: 6916 8b3d 61ed dfbd f009 adbd 616c f7bc
000003e0: bc28 123d edbe 88bd 42f3 34be 8165 bcbc
000003f0: 50f0 00be ffcc 97bd 5ae7 a5bc 2add 0c3e

net.2.bias f4 [64]
-0.02115441 0.06756043 -0.0016148696 -0.047854308 -0.0946152 0.09992785 0.087872766 -0.06249103
-0.043715004 -0.037967514 -0.11051498 -0.18084344 0.05557294 -0.14912468 -0.08226272 0.08619637
-0.11546246 0.1096681 -0.11069643 -0.06294265 0.097616546 -0.0156194875 0.058215585 0.020968305
0.051195286 -0.044979062 -0.080125555 -0.09349258 0.07809776 0.09179864 0.15219924 -0.028543102
0.045426168 -0.01750285 -0.13664226 -0.035952207 -0.017505575 -0.11748797 -0.008098367 0.07826177
0.07433213 -0.03436865 -0.1363855 -0.015992748 0.05076537 -0.039177712 0.019873355 0.0602589
-0.004416148 0.09261779 0.12780726 -0.009411264 0.00064370263 0.11059513 0.084565654 -0.09163543
-0.011260868 -0.050702572 0.16843338 0.096975915 0.13201877 0.01967727 0.04697515 0.029953707
00000000: 034c adbc 1f5d 8a3d 08aa d3ba e102 44bd
00000010: 9dc5 c1bd f9a6 cc3d a3f6 b33d 98f6 7fbd
00000020: 810e 33bd d383 1bbd ae55 e2bd 062f 39be
00000030: 73a0 633d 24b4 18be 5b79 a8bd b987 b03d
00000040: 9577 ecbd ab99 e03d cfb4 e2bd 13e8 80bd
00000050: 2feb c73d e1e8 7fbc 7773 6e3d b9c5 ab3c
00000060: 26b2 513d f73b 38bd de18 a4bd 0a79 bfbd
00000070: b8f1 9f3d ed00 bc3d 1eda 1b3e 39d3 e9bc
00000080: ca10 3a3d 2362 8fbc f3eb 0bbe 9f42 13bd
00000090: da67 8fbc 889d f0bd 03af 04bc b547 a03d
000000a0: 723b 983d 24c6 0cbd a4a8 0bbe 3903 83bc
000000b0: 59ef 4f3d cf78 20bd 72cd a23c 09d2 763d
000000c0: 56b5 90bb 65ae bd3d e8df 023e b431 1abc
000000d0: 27be 283a b37f e23d c230 ad3d 5bab bbbd
000000e0: 817f 38bc 80ad 4fbd cd79 2c3e 4f9b c63d
000000f0: ee2f 073e 3a32 a13c 0469 403d 7a61 f53c

net.4.weight f4 [6, 64]
0.05484762 -0.029306106 -0.067054026 0.05326714 -0.062022075 0.105818674 0.068358436 0.04332213
0.013709105 0.05371147 -0.07667381 -0.037731115 -0.017241484 -0.008043754 0.038743053 0.02347428
0.005163824 0.017895035 -0.013651054 0.0018617111 0.009211625 -0.02284752 -0.076467454 0.054203894
-0.045156755 0.07066755 0.04295651 -0.003177009 0.0033437063 -0.0124763325 -0.0015736548 0.010952022
0.05132173 0.045714382 0.009250452 0.026528062 0.007678478 0.032602537 -0.03056798 0.007458818
-0.0293752 0.011109476 -0.030630428 0.033637926 -0.029697858 -0.05713961 -0.03126559 -0.023671182
0.0075135827 0.070364855 -0.082865596 0.020922346 0.030713957 -0.08673201 -0.006183775 -0.041399125
0.12008001 0.052711036 -0.024648922 0.042475153 0.0903875 -0.056539044 -0.019316971 0.05791097
0.06767367 0.01759759 0.043658935 -0.054858826 -0.05645793 -0.08204562 -0.10231773 0.010060096
-0.019277886 0.03303584 -0.03705159 0.04532733 -0.03130938 -0.08288361 0.083349526 -0.03164524
0.060171038 -0.07067305 -0.0029624624 0.0017839546 0.042328853 0.026170984 0.07375913 -0.110906765
-0.06057357 -0.07909557 -0.023482097 0.017055925 0.06904998 0.022421341 -0.00025922243 -0.06535705
-0.039072875 -0.068974696 -0.00095151295 0.0045795483 0.02802376 -0.002915073 -0.059390865 0.02762865
-0.06569416 0.03667459 0.039146103 -0.015197158 0.039185964 0.015445153 -0.078456044 0.025305053
0.05008791 0.024060188 -0.009742451 0.048168175 0.0022789212 0.052613128 -0.030818114 0.041366242
-0.017975988 -0.0029734832 -0.07826278 0.035652567 -0.05146264 -0.012466967 -0.043707296 -0.007937129
-0.010424617 -0.0036166464 0.002596964 -0.020135408 0.025193363 0.070516594 -0.034779992 -0.021447593
-0.03443051 0.056754395 0.00054243364 -0.014958189 0.008877062 -0.059048537 -0.018463833 -0.05023988
-0.08479834 -0.029857256 -0.05864175 -0.024398584 0.0753268 0.020057794 -0.0032900919 0.047504615
0.009943517 0.015928516 -0.03662393 0.0313142 -0.048426714 -0.0029517757 0.050451487 -0.06881801
0.06352765 0.030433917 -0.05218675 -0.012393063 0.077549785 -0.023776915 0.0031269775 -0.020514026
-0.032223828 -0.029070286 -0.011290573 0.070544265 -0.0009128289 -0.034156833 0.015791096 0.023103354
-0.018978951 0.02818325 0.0016618641 0.025546752 0.04263182 0.051749717 0.062175296 -0.05465453
-0.027185787 0.04091429 0.07371091 0.03750897 -0.007330683 0.04087909 0.074065946 -0.04028294
0.047915056 -0.08471456 0.038730707 -0.15049161 -0.064668566 0.014592919 -0.046564206 -0.026922394
0.058571577 -0.09269415 -0.08854825 -0.056442842 0.033719495 -0.063811615 0.0268804 -0.014718789
0.07809462 -0.024093125 0.06813503 0.015872192 -0.10667441 0.05791534 -0.018249914 0.07916704
-0.044209488 0.009956778 0.031612914 0.062919736 -0.018361572 -0.01944017 0.14264241 0.11140645
0.10381729 -0.0054095224 -0.0029549492 0.116080716 -0.04796383 -0.037328456 -0.0082129175 0.06458753
0.00026859224 0.01805142 0.10494419 0.035441436 -0.0034871195 -0.14396712 -0.04361391 -0.008616899
0.109098084 0.054129016 -0.12248668 0.031763352 -0.120561786 0.06254777 -0.106456675 -0.03875026
-0.0071904925 -0.07899941 0.054112494 0.059118755 0.12073731 -0.005838498 -0.05518558 -0.06260713
00000000: e6a7 603d 5c13 f0bc 9f53 89bd a52e 5a3d
00000010: dc0a 7ebd 76b7 d83d 82ff 8b3d 8c72 313d
00000020: 279c 603c 8f00 5c3d 2907 9dbd f18b 1abd
00000030: 033e 8dbc f3c9 03bc 09b1 1e3d 224d c03c
00000040: 4c35 a93b 9c98 923c aca8 5fbc a904 f43a
00000050: 5bec 163c b92a bbbc f89a 9cbd e704 5e3d
00000060: 4af6 38bd 26ba 903d 2af3 2f3d 5e35 50bb
00000070: 1522 5b3b 8869 4cbc 1843 ceba 1c70 333c
00000080: bc36 523d 013f 3b3d 358f 173c 6151 d93c
00000090: be9b fb3b 3d8a 053d b369 fabc 1a69 f43b
000000a0: 42a4 f0bc 8504 363c aaec fabc ecc7 093d
000000b0: ec48 f3bc 390b 6abd 5910 00bd 11ea c1bc
000000c0: 8034 f63b 731b 903d 70b5 a9bd 5765 ab3c
000000d0: d69b fb3c 8da0 b1bd 44a1 cabb 2192 29bd
000000e0: 82ec f53d 87e7 573d 89ec c9bc 6dfa 2d3d
000000f0: 151d b93d 7c95 67bd a03e 9ebc 0e34 6d3d
00000100: 7e98 8a3d d228 903c b6d3 323d a6b3 60bd
00000110: 6e40 67bd 8907 a8bd f58b d1bd 1ad3 243c
00000120: a8ec 9dbc 9750 073d 68c3 17bd 26a9 393d
00000130: 443e 00bd e2be a9bd 28b3 aa3d 709e 01bd
00000140: e875 763d 08bd 90bd df25 42bb 95d3 e93a
00000150: 0561 2d3d 8864 d63c 070f 973d 1623 e3bd
00000160: fe1b 78bd dcfc a1bd 875d c0bc deb8 8b3c
00000170: 136a 8d3d f6ac b73c 3fe8 87b9 ebd9 85bd
00000180: e10a 20bd 9b42 8dbd f46e 79ba 0910 963b
00000190: 1692 e53c cf0a 3fbb d643 73bd 7b55 e23c
000001a0: a98a 86bd 1838 163d aa57 203d 80fd 78bc
000001b0: 7681 203d ab0d 7d3c 90ad a0bd 8b4c cf3c
000001c0: fb28 4d3d df19 c53c cd9e 1fbc fe4b 453d
000001d0: f459 153b dd80 573d 4576 fcbc a66f 293d
000001e0: 6142 93bc c5de 42bb 3d48 a0bd 6d08 123d
000001f0: 7dca 52bd 4042 4cbc 6c06 33bd bb0a 02bc
00000200: 03cc 2abc 4205 6dbb d331 2a3b 03f3 a4bc
00000210: 5062 ce3c 016b 903d 7775 0ebd ddb2 afbc
00000220: 0207 0dbd 4c77 683d 1b32 0e3a 3113 75bc
00000230: 1971 113c e1dc 71bd 7741 97bc 55c8 4dbd
00000240: c1aa adbd 3497 f4bc 5532 70bd 8adf c7bc
00000250: f044 9a3d 3e50 a43c 959e 57bb 3394 423d
00000260: 22ea 223c 857c 823c f902 16bd 5243 003d
00000270: 175b 46bd 9472 41bb 38a6 4e3d 75f0 8cbd
00000280: c91a 823d 8d50 f93c c6c1 55bd 460c 4bbc
00000290: 6cd2 9e3d cec7 c2bc faed 4c3b 080d a8bc
000002a0: 22fd 03bd cf24 eebc 18fc 38bc 8379 903d
000002b0: e94a 6fba 09e8 0bbd 545c 813c 3f43 bd3c
000002c0: bf79 9bbc 8fe0 e63c e8d2 d93a 6c47 d13c
000002d0: b49e 2e3d 83f7 533d 86ab 7e3d 6edd 5fbd
000002e0: bab4 debc be95 273d bff5 963d 01a3 193d
000002f0: 3a36 f0bb d570 273d e3af 973d b9ff 24bd
00000300: 9442 443d d47e adbd 17a4 1e3d 791a 1abe
00000310: f470 84bd 2317 6f3c 1cba 3ebd 5a8c dcbc
00000320: c0e8 6f3d 6ed6 bdbd c958 b5bd 9c30 67bd
00000330: 741d 0a3d aaaf 82bd 4934 dc3c 1327 71bc
00000340: 12f0 9f3d f25e c5bc 618a 8b3d 6606 823c
00000350: 1d78 dabd a338 6d3d d880 95bc 5422 a23d
00000360: 0215 35bd c121 233c 8b7c 013d 10dc 803d
00000370: 026b 96bc fe40 9fbc da10 123e 1129 e43d
00000380: 299e d43d 5d42 b1bb d2a7 41bb babb ed3d
00000390: b975 44bd b9e5 18bd 798f 06bc 7846 843d
000003a0: d7d1 8c39 92e0 933c fbec d63d 0a2b 113d
000003b0: 2888 64bb 1e6c 13be 80a4 32bd e52d 0dbc
000003c0: d16e df3d 63b6 5d3d 4cda fabd 4a1a 023d
000003d0: 19e9 f6bd 0c19 803d f505 dabd 98b8 1ebd
000003e0: 399e ebbb 71ca a1bd 10a5 5d3d 8226 723d
000003f0: 1f45 f73d df50 bfbb 460a 62bd 2b38 80bd

net.4.bias f4 [6]
-0.004128474 0.02455501 -0.06532726 -0.063619986 -0.0025461959 -0.08273859
00000000: 2648 87bb 9727 c93c 4cca 85bd 324b 82bd
00000010: 14de 26bb da72 a9bd
