simple_mlp_dynamics.pth (torch, 22016 bytes, 6 tensors)

net.0.weight f4 [64, 6]
000000 79 7f 08 3e 9b 4c ce be 26 90 0f 3f 40 5c 8b 3d
       0.13329877 -0.4029282 0.5607933 0.06804705
000010 69 32 37 3e 6d 77 28 3f fd 8d 70 3e aa c0 50 be
       0.17890324 0.6580723 0.23491664 -0.20385996
000020 07 9f a8 3d 71 cb e2 be 94 ed cb 3e 74 82 46 be
       0.08233457 -0.44295838 0.39829695 -0.19385701
000030 f6 d0 86 3e af 26 b3 bc 73 b5 a1 bc 80 3a 25 bd
       0.263313 -0.021869032 -0.019739842 -0.040338993
000040 71 cc a0 bc da 9f 17 be 6f 2d 79 3c bb 1b b0 bc
       -0.019628735 -0.14807072 0.015208586 -0.021497598
000050 1f 14 b0 bd fb 23 84 bd 07 46 47 3e 6d 0d cc 3c
       -0.08597588 -0.06452175 0.19460307 0.024908746
000060 44 a0 2a be e1 44 75 3c 09 6d d1 3c 4a 78 34 3e
       -0.16662699 0.014970035 0.025564687 0.17624012
000070 cc 32 8f 3e 81 79 00 3f b0 90 b5 be 52 ee 8d 3c
       0.27968442 0.501854 -0.3546195 0.017325554
000080 b2 ba 53 bd 1c 44 fa bd 5f 6d d1 3e b3 86 31 3d
       -0.05169172 -0.12220022 0.40903756 0.04334135
000090 6e 49 a4 3e 06 b0 9a 3e 35 3a fe be a6 92 0b 3f
       0.32087272 0.3021242 -0.49653783 0.5452064
0000a0 49 8b 43 be 0e 6b de bd 87 7e a5 be b2 f2 bd be
       -0.19096102 -0.10860263 -0.32323095 -0.37099224
0000b0 f2 65 52 3a ff 06 57 3d f1 b6 a1 3d e2 97 15 be
       0.00080260553 0.052496906 0.078962214 -0.1460872
0000c0 c2 3e 91 bd 4f 2c 94 3e c3 fd a4 be d1 49 41 3d
       -0.07092048 0.28940055 -0.32224855 0.047189537
0000d0 42 e8 9f be 3b f7 76 3e 23 b8 8e be 95 46 cc be
       -0.31231886 0.24117748 -0.2787486 -0.398976
0000e0 a3 66 80 3e e8 ca 8c be 12 38 55 be 3d 20 86 3e
       0.25078306 -0.27498555 -0.2082217 0.2619647
0000f0 9e d7 cc be 31 3a 16 3f f0 9e 38 be 6a f7 64 bd
       -0.40008253 0.58682543 -0.1802938 -0.055900015
000100 52 cf 3a be e8 34 6d 3e 60 4b 13 be de f1 d0 3e
       -0.18243149 0.23164713 -0.14384222 0.4080953
000110 d1 28 17 3e 8e 7b b4 bd 57 88 16 be a9 d0 9d be
       0.14761664 -0.08812629 -0.14700447 -0.30823258
000120 62 0e 1a bf 67 1d 0f be 99 74 f7 be 6b 51 9b be
       -0.60178196 -0.1397606 -0.48331144 -0.30335554
000130 73 e8 dd 3d cb f4 b0 3e 11 ea 8f 3e eb 47 b5 be
       0.10835352 0.34561762 0.28108266 -0.35406432
000140 53 0f 88 3c 90 32 f7 3d ce 71 d4 be 25 ad 83 be
       0.01660887 0.12070191 -0.41493076 -0.25718036
000150 af 52 f2 3b 96 e6 75 3e 2d ef b4 3d bd f3 cc 3e
       0.0073951106 0.24013743 0.08834682 0.40029708
000160 ab db b9 3d df 0b 25 bd c8 93 7b be 41 86 14 3d
       0.090751015 -0.040294524 -0.24568093 0.036260847
000170 47 57 08 3e a7 46 97 3c 66 91 49 3e 91 24 41 be
       0.13314544 0.018466307 0.19684371 -0.18861605
000180 dd 87 48 3e a3 1b ba be a2 5e 8a be af 8d 94 3e
       0.19583078 -0.3634921 -0.27025324 0.29014346
000190 11 9c 7a be ad a8 88 3d 70 9f 6c 3e ff 82 ef be
       -0.24473597 0.06672797 0.23107696 -0.4677963
0001a0 83 00 21 3e 80 c3 1c be 4d 66 a9 be ad 21 c3 3b
       0.15722851 -0.15308952 -0.33085862 0.005954942
0001b0 5c 17 5f 3e 76 ba e0 be aa d7 85 bd 9e a4 d0 3e
       0.21786255 -0.43892258 -0.06535275 0.40750593
0001c0 17 fa 8f be 02 71 b1 3e 18 12 5d 3e 4a 99 71 3e
       -0.2812049 0.3465653 0.21588933 0.23593631
0001d0 a7 5c 94 3d 60 ec 9c be e8 32 5f be 9a c5 0c 3d
       0.072442345 -0.3064909 -0.21796763 0.034368135
0001e0 6b 44 db be 44 af fb be ed f2 1c be 66 70 81 3e
       -0.42825636 -0.49157155 -0.15327044 0.25281066
0001f0 5f 82 55 3e e1 75 7c 3e b5 22 58 be a3 d8 c8 3e
       0.20850514 0.24654342 -0.2110699 0.3922778
000200 34 5a 3d 3e 94 7a 8a 3e d0 d4 13 bf 4c 51 92 be
       0.18491441 0.27046645 -0.577466 -0.2857765
000210 23 eb 7f be 03 ce ec 3e 12 41 98 bd 46 99 af 3d
       -0.24992041 0.46250924 -0.07434286 0.085741565
000220 1c eb a9 be 21 38 c9 be 2c 81 f9 be 89 c7 10 3f
       -0.33187187 -0.39300635 -0.48731363 0.56554466
000230 7f dd 2d 3e 53 31 2e be a7 d0 9f 3e 55 fa 6e bc
       0.16979025 -0.17011003 0.31213877 -0.014586051
000240 a8 9b d7 3e a9 64 71 bd 56 c5 ee 3b 01 a3 d6 bd
       0.42110944 -0.058933888 0.007286708 -0.10480309
000250 af 51 a3 3e cf bf ae 3d 33 34 61 be 6a 35 00 bf
       0.31898257 0.08532678 -0.21992569 -0.50081503
000260 15 6d 88 3b 25 aa 3e be 8a fa 6b 3e df 24 af be
       0.004163394 -0.18619592 0.23044792 -0.34207818
000270 cc 63 50 be 81 5b aa 3e f7 e7 89 3e 60 b9 64 be
       -0.2035057 0.33272937 0.26934788 -0.2233634
000280 80 71 15 be 7c 14 37 bd a0 42 d2 3e 79 57 cb 3e
       -0.14594078 -0.04469727 0.41066456 0.39715174
000290 24 eb 6d 3e b8 b1 99 3c 5e 0d 9e bd 5b 35 08 3d
       0.2323423 0.0187615 -0.07717393 0.03325401
0002a0 da d3 a9 be a3 95 22 be dc 57 03 3e d1 d4 6b 3e
       -0.33169442 -0.15877394 0.12826484 0.23030402
0002b0 36 48 e1 3e d2 cb 89 be 25 4a d8 bd e6 e9 5d 3e
       0.44000405 -0.26913315 -0.10561017 0.21671256
0002c0 29 b9 5e 3d 60 76 7f 3e 79 35 3e be 96 f8 56 3e
       0.0543758 0.249475 -0.18575086 0.20993266
0002d0 fb cc ef bd 53 6e 33 bf b7 bb e9 bd 1f 5a 9c bb
       -0.11709019 -0.70090216 -0.11412757 -0.0047714855
0002e0 52 1b ae 3e dd 4c da 3d d9 05 bf 3d c4 98 c0 be
       0.3400522 0.10659192 0.09327287 -0.3761655
0002f0 ce e3 b7 3e e3 03 ca 3e a5 76 0f be 23 dd a7 3d
       0.3591599 0.3945609 -0.14010103 0.08196475
000300 c2 44 35 3e 67 f4 b3 3e 3f f7 b6 3d 9b 09 b4 3c
       0.1770201 0.35147402 0.08933877 0.021977236
000310 32 bd 28 3e 9c a4 fd be a8 ce 8d be de c2 24 be
       0.16478422 -0.4953965 -0.2769673 -0.16089961
000320 ea 32 07 3d 3a 7d 03 3e d7 93 18 3e f6 5d eb bd
       0.03300754 0.12840739 0.14900146 -0.11492531
000330 c6 21 f5 be 5d 93 c1 be 05 ca 89 3e 93 44 a5 3e
       -0.4787733 -0.37807742 0.2691194 0.3227888
000340 fa da 78 3e 66 82 66 be 75 19 13 bc 2a 4f 88 bb
       0.24302283 -0.2251068 -0.008978237 -0.0041598277
000350 f8 1d 5c 3d 41 74 72 3e e4 2c ba 39 13 b6 3b 3f
       0.053739518 0.2367716 0.0003551013 0.733247
000360 b1 4b 77 3d 80 13 25 3e bd e9 47 be fc 1c 26 3f
       0.06037492 0.1612072 -0.19522758 0.64887977
000370 af c5 8c be 0f 8f d8 be 37 d3 03 3e 15 df 10 bf
       -0.2749457 -0.42296645 0.12873541 -0.56590396
000380 02 79 42 be e5 62 c7 3e 30 68 85 3e cd 69 a4 be
       -0.18991473 0.38942638 0.2605605 -0.3211197
000390 7e 08 e2 be 0e b5 dc 3e d0 f5 39 3e 2a 00 08 3e
       -0.44147104 0.43106884 0.18160176 0.13281313
0003a0 fb f5 ef 3d 25 b7 33 be ed 74 c9 3e 37 c0 b8 bb
       0.11716839 -0.17550333 0.3934702 -0.005638148
0003b0 86 a7 b9 be 7d 98 b2 be b1 c1 7f be 60 88 bc 3e
       -0.36260623 -0.34881964 -0.24976231 0.36822796
0003c0 44 c9 86 be f8 87 21 3e ad f2 e9 bd 12 98 32 be
       -0.26325428 0.15774524 -0.1142324 -0.17440823
0003d0 d2 da 32 bf 3a 12 d8 bd ca 11 62 3e f1 bd b5 be
       -0.69865143 -0.105503514 0.22077098 -0.35496476
0003e0 e7 18 f5 3d 50 de 0d bf 78 0e 1c 3e a9 60 5e 3e
       0.1196764 -0.55417347 0.15239894 0.2171656
0003f0 3c 47 49 be 23 22 50 bd 18 66 9b bd 31 93 d9 3e
       -0.1965608 -0.050813805 -0.07587832 0.4249511

net.0.bias f4 [64]
000000 58 29 6c bd 97 8e 62 bd 2d 76 71 be 65 00 1f 3e
       -0.057656616 -0.055311766 -0.23580237 0.15527494
000010 7f 83 6b be 8a aa c6 3c 9e cc 8d be 68 a5 ba be
       -0.2299938 0.024251241 -0.27695173 -0.3645432
000020 c8 4d d3 3e b0 85 4e be 85 fc b0 be 01 e0 97 be
       0.4127028 -0.20168185 -0.34567657 -0.2966309
000030 30 3e a5 bd 77 bd 5e be a7 db 19 3e af 98 7e 3e
       -0.08068502 -0.21751963 0.15025197 0.24862932
000040 ac 15 89 3e fd bc 92 be e5 b8 b5 3d e8 51 26 be
       0.26774347 -0.28659812 0.088731565 -0.16242182
000050 49 f5 90 bd 5e 9f 2b be fb 34 2e be 7f 12 48 be
       -0.070780344 -0.16760013 -0.17012398 -0.19538306
000060 a1 88 d9 be e8 c1 ea bd 7b d9 d5 3e bd 2c 6d be
       -0.42487052 -0.11462766 0.41767487 -0.23161598
000070 8a 9f 63 be 5c 3f a0 3d 71 7e 42 3e 95 a4 f7 bb
       -0.22228828 0.07824585 0.18993546 -0.0075574615
000080 df 5c a7 3e 32 39 2c bd b6 42 c0 3e 20 3b b7 bd
       0.32688043 -0.042046733 0.37550896 -0.08946824
000090 83 fb 0d 3e 52 26 37 be 32 0c 92 be 20 e8 ab 3e
       0.13865475 -0.17885712 -0.2852493 0.33575535
0000a0 2b 48 9e 3e f9 35 99 3e 69 9f 54 be ee 39 4e be
       0.30914435 0.2992399 -0.20763935 -0.20139286
0000b0 93 ee 0d 3e 9b f1 28 be 1d b6 93 3e c3 bf 5c 3e
       0.1386054 -0.16498415 0.2884988 0.21557526
0000c0 19 fa 4d 3e 4b a8 2d be db 6e d7 3c d4 60 97 3e
       0.20114936 -0.1695873 0.026297977 0.29566061
0000d0 4c 25 99 3e ca 66 31 be 29 eb b5 3e f3 f4 a3 be
       0.29911268 -0.17324367 0.35530975 -0.3202282
0000e0 75 d1 30 bd 67 7b a4 be 74 2b bb 3e ed e8 e4 3d
       -0.043168504 -0.321254 0.3655659 0.111772396
0000f0 16 42 a3 bd 25 f6 03 3d ea 84 a8 3e 63 37 a9 bd
       -0.07971589 0.032217164 0.32913905 -0.08262517

net.2.weight f4 [64, 64]
000000 20 ea b0 37 04 32 aa 3c 94 2c ed 3b 63 bd b3 3d
       2.1089858e-05 0.020775802 0.00723798 0.08776357
000010 5f 64 ce bd bc 17 a9 3c b8 d1 0e be e0 2b e1 3d
       -0.10077738 0.0206412 -0.13947189 0.109946966
000020 5c a5 5b bd d1 c2 70 3c 10 f0 b2 bd 94 0e 07 be
       -0.053624496 0.014694885 -0.087371945 -0.13189155
000030 96 46 90 3d b0 7c 48 bc ed fa 0f be 95 7a a0 3d
       0.07044713 -0.012236759 -0.14060564 0.07835881
000040 15 0a 41 3c 35 20 c5 bc 50 b6 4f bd 86 a2 f2 3c
       0.011782189 -0.02406321 -0.050710976 0.029618513
000050 15 d3 95 3d 99 ac 97 bd 49 c2 ba 3d 4b 3c 20 bc
       0.07315651 -0.07405967 0.09119088 -0.00978
000060 9c 04 8f bd a9 86 1e 3e c0 92 21 bd c3 5c 91 3d
       -0.06983301 0.15481056 -0.039446592 0.07097771
000070 56 90 ce 3c 76 ea 0d bd b2 61 94 3d 79 32 d2 bd
       0.02521531 -0.034647427 0.072451964 -0.10263533
000080 ee 9c 5f 3d 9b eb 34 3d 04 e0 d2 3d d8 19 40 be
       0.05459302 0.044170003 0.10296634 -0.18759859
000090 f4 7b c3 ba 09 03 26 3d e6 57 a8 bc 3b 10 a6 3c
       -0.001491426 0.04053024 -0.020549726 0.020271411
0000a0 28 87 40 3d d0 18 d3 bd 13 ec 9b bb 49 57 6f 3d
       0.047003895 -0.10307467 -0.004758367 0.05843285
0000b0 30 b5 42 3d dd e5 0e 3e 04 7d 02 3e 9f 75 5a 3d
       0.047536075 0.13954873 0.12743002 0.05333483
0000c0 15 a2 cd bc 8d 17 b2 bd d0 f4 80 b9 7a 88 e2 3d
       -0.0251017 -0.08695898 -0.00024596462 0.11061187
0000d0 5e f7 f8 3d 1a 13 87 3d ad ab 24 3d 66 f0 3d 3d
       0.121565565 0.0659544 0.040202785 0.04637184
0000e0 c4 ed 25 bd 39 92 f0 bc 60 97 82 bd 0b ca 43 bd
       -0.040509954 -0.0293666 -0.06376529 -0.047800105
0000f0 81 21 da 3d d5 76 b5 bd 8e 91 cc bd ac 22 b5 3b
       0.106509216 -0.08860556 -0.099887 0.005527815
000100 b1 1b 92 3d b7 bb 12 bd 26 e3 b0 bd 1f d2 6a bd
       0.07134188 -0.03582355 -0.08637075 -0.057329293
000110 7b d5 8c 3b 25 42 05 3e 19 fe ba 3d 2e 6a 3e bd
       0.00429791 0.13013513 0.091304965 -0.04648798
000120 41 9c db 3c ac a6 4e 3c 48 10 08 be ca 71 9f 3d
       0.026807906 0.01261298 -0.13287461 0.077853754
000130 53 7e 1f bc 96 23 08 bc eb 9b fe bd 81 1b 16 3d
       -0.009734708 -0.008309266 -0.12432083 0.036647324
000140 74 24 75 3b 0a d0 49 3c c3 b8 ec bd d7 60 30 ba
       0.003740576 0.012317667 -0.11558678 -0.00067282974
000150 3b 17 e3 bc 91 ba 30 bd 98 e6 28 3d 74 82 99 3d
       -0.027721038 -0.043146674 0.041235536 0.07495585
000160 20 35 89 bd 74 61 96 bc 83 5b f4 bb 4d 50 e6 3d
       -0.06699586 -0.018357016 -0.007457198 0.11245785
000170 cd 9b 9a bd a8 91 84 3d b4 87 b9 3d 88 e0 0b 3b
       -0.07549248 0.06473094 0.090590864 0.0021343548
000180 7c ce 57 3b e5 55 63 3d 93 86 1d 3c e7 25 9a bd
       0.003292947 0.055501837 0.0096146045 -0.075267605
000190 1d 00 f0 3d 63 fa ac 3d ad c1 88 bd 7b d4 45 bd
       0.117187716 0.08446195 -0.06677566 -0.04829834
0001a0 98 a6 6c bc 90 2b e6 3d e6 5d 8f 3d cb 47 c2 bc
       -0.014444016 0.11238778 0.070003316 -0.023715874
0001b0 42 4c 5d bd 2a 13 dd bd e1 0a 04 bd 20 6f fc bd
       -0.054027803 -0.10794671 -0.032236937 -0.12325883
0001c0 8a d8 14 3d 41 c6 1d bc 94 37 b3 3c 85 69 cd 3a
       0.03633932 -0.009629787 0.021877088 0.0015671706
0001d0 59 d2 32 3d 65 a5 0f bd ba df d4 bd d9 75 2f bd
       0.043657634 -0.035069842 -0.10394235 -0.042836998
0001e0 ac 8a 2f bc be b4 d2 3d c6 23 ce bd 96 22 b5 bb
       -0.010714214 0.1028838 -0.10065417 -0.0055278046
0001f0 8f 27 da bb a6 67 1c bd 63 2b 6a 3d 8b 7e a6 bd
       -0.006657548 -0.038184784 0.057170283 -0.08129605
000200 18 cb 4d 3d 29 82 9b 3d bc aa 08 be 7f 98 8c 3c
       0.050242513 0.075931855 -0.1334638 0.01716256
000210 e4 7f 83 bd 12 5b 3e bd ab 61 65 3b 89 53 03 3e
       -0.064208776 -0.04647357 0.0035000842 0.12824835
000220 48 5e 73 3d 27 ad d7 3d d6 af 44 3d cb 35 70 bd
       0.059416085 0.10531073 0.048019253 -0.05864505
000230 75 d4 d7 bd 64 4e 75 3d 63 c1 fd bd 50 1f 8d bb
       -0.1053857 0.059889212 -0.12390401 -0.0043067113
000240 1d e4 3e 3c cb 6f ff 3d 34 16 58 3d 99 12 db 3d
       0.011651066 0.12472495 0.05275555 0.106969066
000250 0b fb 3d bd d2 65 90 bd 31 6c 10 be 85 1e 0c 3e
       -0.04638199 -0.07050671 -0.14103772 0.13683517
000260 0c 8e db ba 47 2a 36 bd b4 cb 2d bd 0f 3d 98 3b
       -0.0016750707 -0.044473913 -0.042430595 0.0046459506
000270 ce 03 11 bd 59 68 96 bd c2 4e 97 3d f5 65 17 bd
       -0.03540402 -0.073441215 0.07388069 -0.03696247
000280 64 30 cf bd a6 61 9c 3d 93 10 64 bd de f3 3b 3d
       -0.10116652 0.076358125 -0.05567987 0.045886867
000290 8a 88 d5 3d 33 f6 c0 3d 8c b3 60 3d 0e 24 1a 3c
       0.104264334 0.09421959 0.05485873 0.00940801
0002a0 50 20 af 3c df 28 56 bd cf 77 36 bd 0c 1b a0 bd
       0.021377712 -0.05228507 -0.044547852 -0.07817659
0002b0 1c 75 50 3d 55 d9 37 3d dc 96 86 bd 02 72 be 3c
       0.050892934 0.044885 -0.06571743 0.023247723
0002c0 cf 83 f0 3d ba 12 81 3c 1c 68 df 3d ed 9f 96 3d
       0.117438905 0.015756 0.10908529 0.07354722
0002d0 1c a1 ff bd 44 88 82 bc 89 14 4f 3d 76 10 aa 3d
       -0.12481901 -0.015934117 0.050556693 0.08303921
0002e0 d0 38 44 bd c5 dc dd bc a1 ad 89 3d 7a 0f bd 3d
       -0.047905743 -0.02708281 0.0672257 0.092314675
0002f0 97 2b 11 bd f1 85 a8 bc d5 43 15 3d 53 09 c2 3a
       -0.03544196 -0.02057168 0.036441643 0.0014803804
000300 3c 83 a3 bd cf 5e 9f bd d5 09 da 3d 39 48 64 bd
       -0.07984015 -0.07781755 0.106464066 -0.05573294
000310 c0 34 bb 3b 03 f9 5a 3d 36 b2 1c be 05 0b 9e bc
       0.0057130754 0.053460132 -0.15302357 -0.019292364
000320 60 50 42 bd 5a dd 6d 3d 42 ed 11 be a2 0a b5 bd
       -0.047439933 0.058072425 -0.14250663 -0.08839919
000330 e6 a8 e6 bc 09 39 fd b9 51 1d 1c bd d3 58 f8 bc
       -0.028156709 -0.00048298415 -0.038113896 -0.030315792
000340 e4 96 0f 3c f0 49 2d be 12 2e 89 bd 28 3a a1 bc
       0.0087640025 -0.16922736 -0.0669824 -0.019681051
000350 0d 8a 4c 3e 17 0f 25 3d c5 1b 91 bd 6a 23 86 3d
       0.19974537 0.040297594 -0.07085375 0.065497234
000360 6f b4 d6 3c 6d 2b 84 3c 6c 47 be 3d 47 49 8a 3c
       0.026209084 0.016133988 0.092909664 0.016880644
000370 96 a5 30 3d e8 bb de bc b4 f1 b7 bd 89 2e a1 3d
       0.043126665 -0.02718921 -0.08981648 0.07870204
000380 32 39 5b bd 37 7a 71 bc 06 5c 36 bd cb ba 0a 3b
       -0.053521343 -0.014738611 -0.044521354 0.0021168466
000390 2a 61 e9 3d 40 fd e8 3c 6e ff 50 bd ba 0b 3f 3c
       0.11395486 0.028441072 -0.051024847 0.011660511
0003a0 dd f4 07 3e bd d0 31 3d 58 5c c2 3d cc 6d 8d 3d
       0.13277002 0.04341196 0.094902694 0.06905708
0003b0 72 89 ac bd 55 21 0c 3e a1 d0 ea 3c 6a 2a b5 3b
       -0.08424653 0.1368459 0.028663935 0.005528738
0003c0 40 d2 5e bd 44 8d 01 be 99 f3 3b 3d b5 b4 bc 3d
       -0.05439973 -0.12651545 0.04588661 0.09214155
0003d0 44 48 a8 bc b4 12 c3 3d f0 97 1f bd 6b d4 71 3c
       -0.020542271 0.09525052 -0.03896326 0.014760117
0003e0 74 3f e3 bd 40 b7 16 bd 7e f5 09 3e e8 fb 85 bb
       -0.11096087 -0.036795855 0.13472554 -0.0040888675
0003f0 9e 36 a9 3d cf c4 d9 ba 61 56 26 bc 36 7c f2 3d
       0.082623705 -0.001661444 -0.01015243 0.118400976

net.2.bias f4 [64]
000000 a1 01 85 bc fb 67 22 bd 1c 81 6c bd 2b 5d 51 bd
       -0.016236128 -0.039649945 -0.057740316 -0.051114243
000010 df 8e 2c be 4d 1f d1 bd 15 50 5b bb 8c 66 9f 3d
       -0.16851376 -0.10211048 -0.003346448 0.07783231
000020 20 93 11 3e 7a 21 ec bd 71 03 ef bd 70 d0 9a bc
       0.1421628 -0.11529823 -0.11670578 -0.018898219
000030 fa b2 1e 3d c2 c6 95 bd 64 20 ad 3d 81 aa d8 3d
       0.038744904 -0.07313301 0.08453444 0.10579396
000040 1f a6 fa 3d d0 cd a9 bc 87 1f e8 bc 6e 6f c4 bd
       0.12238716 -0.020728022 -0.028335346 -0.09591566
000050 08 04 aa bd 7a 55 e8 bd 5b e2 fe 3c 14 4a 8c bd
       -0.0830155 -0.11344428 0.031113794 -0.06850067
000060 59 78 15 bd 23 ff 09 be d8 ef e3 3d 81 5c 93 bc
       -0.036491726 -0.13476233 0.11129731 -0.017988445
000070 14 13 24 bd 54 43 54 3d 42 c5 32 3c 36 88 82 bc
       -0.040057257 0.05182202 0.010911288 -0.015934091
000080 c9 74 94 bd 3d 4f b9 3d da ba c9 bd 3e c4 ab bd
       -0.072488375 0.09048317 -0.09850092 -0.083870396
000090 e0 c9 ed 3d 51 af 84 bd 0d e2 ce 3c 0c bf d0 3c
       0.1161077 -0.064787515 0.025254274 0.025481723
0000a0 4c 27 32 3c 97 0f 88 bd a9 c0 c4 3d a9 00 1d bc
       0.010873627 -0.066435985 0.096070595 -0.009582677
0000b0 e7 48 97 bc 98 27 20 3d 29 e5 0a 3d dd ea c3 3d
       -0.01846738 0.03910026 0.03390995 0.09566281
0000c0 d7 fb 9c 3d 99 92 5c 3d 8d e4 98 bd 88 20 fc 3d
       0.07665222 0.053850744 -0.074654676 0.12310892
0000d0 7d 0f 75 3d bf e7 b4 3d 13 c6 29 3d 7d d4 af 3d
       0.059829224 0.088332646 0.041448664 0.08585451
0000e0 df 1c 85 bd 76 b5 de bd 57 0b d0 bc ae 1c e1 bd
       -0.06499647 -0.10874455 -0.025396032 -0.10991798
0000f0 52 74 09 3d 3e 8f a3 bc 12 d4 d3 3d 7c 13 98 3d
       0.033558197 -0.019965764 0.103431836 0.07425591

net.4.weight f4 [3, 64]
000000 c5 ea 19 3c 48 aa 1e 3b 69 d5 01 3d 0d d5 ae ba
       0.009394352 0.0024210382 0.031697664 -0.001333864
000010 40 c5 91 3d 7c 9c 32 bd ca 50 80 3a ac 9e 1a bc
       0.071177006 -0.043606266 0.0009789702 -0.009437244
000020 5c 8e 9c 3a d5 22 4b 3c 35 00 6e 3c 2c 04 d1 bb
       0.0011944282 0.012398441 0.014526417 -0.006378671
000030 a6 8a 86 3b e9 92 56 3b 64 32 a4 b9 c6 f3 a0 39
       0.0041058837 0.0032741374 -0.00031318062 0.00030699203
000040 ad e9 65 bd 77 12 11 bb 80 d2 84 bc c5 85 e6 bc
       -0.056131054 -0.002213625 -0.016213655 -0.028139958
000050 ed 76 14 bc e8 a9 8d 3b 66 b4 db 39 d2 e0 9a 3c
       -0.009061557 0.004323233 0.00041905342 0.01890603
000060 a5 8d 1a bd bd 8a 63 3d 41 78 1c 3d c2 3f 96 3b
       -0.03773274 0.055552233 0.03820062 0.0045852372
000070 cd 0d 39 bb 29 9a fd 3c 7e c6 1f 3d 09 64 cf 39
       -0.0028236986 0.030957298 0.039007656 0.0003955665
000080 25 39 8c bd 60 33 95 3d db 9e 55 3d 14 06 30 bc
       -0.06846837 0.0728519 0.05215345 -0.010743637
000090 7f 07 a5 bd 14 7f bb bb 21 46 29 bd f2 8b c4 3c
       -0.080580704 -0.005721936 -0.041326646 0.023992512
0000a0 19 0a 50 39 2b a3 b4 bb 14 03 9f bc 82 ed 57 bc
       0.00019840187 -0.005512615 -0.019410647 -0.013179185
0000b0 bb de 78 bd 0e 9e 9b bd f7 bb 4a 3c be cb 58 3d
       -0.060759287 -0.07598506 0.012373916 0.05292868
0000c0 ab 9b 77 3a 0d e0 64 bd f5 4b 1a bd 8e e6 98 bc
       0.00094454986 -0.055877734 -0.037670095 -0.018664625
0000d0 0b a2 9f bd d0 80 08 3b 98 5a bb bb e1 4f ce bb
       -0.07794579 0.0020828731 -0.0057175867 -0.0062961434
0000e0 10 d0 8b bc c0 75 90 bc 99 f0 1a 3c 8c 2c 17 bd
       -0.017066985 -0.017634273 0.009456777 -0.036907718
0000f0 72 95 f0 b8 2c 09 a0 3b 37 ac d8 3c e0 3d 1d 3d
       -0.00011471928 0.004883906 0.026449306 0.038389087
000100 b2 25 fd bc 4f 3f 04 bc 63 d9 b4 bb bf 88 99 bb
       -0.030901764 -0.008071735 -0.0055190786 -0.004685491
000110 9a 16 99 3b 5a cc 74 bd 43 35 20 bb 2b 48 48 bd
       0.004671884 -0.059765197 -0.002444581 -0.04889695
000120 92 de ed bc 9a 69 86 bd ba f1 50 bd 23 bb ca bc
       -0.029036794 -0.06563111 -0.05101178 -0.024747437
000130 7f b0 02 bb f1 db 0b bb b2 c6 b4 3a 01 67 e8 3b
       -0.0019941626 -0.0021340812 0.0013792126 0.007092357
000140 ad 6c 82 3d 6a a7 f6 ba 7b a3 68 3d 6e e1 a5 bc
       0.063683845 -0.0018818204 0.056796532 -0.020249095
000150 2a 94 5d bb 74 7e 48 bd 86 c1 a0 3a b4 3a 4b 3c
       -0.0033810236 -0.04894872 0.0012264706 0.012404133
000160 2c a5 d4 bc be 28 0a bd 51 1b 9c 3d d4 69 08 bc
       -0.025957666 -0.03373026 0.07622398 -0.008326013
000170 ef 70 11 bc 36 da e0 bb df 12 15 3d 11 37 fe ba
       -0.008877023 -0.0068619503 0.03639495 -0.0019395073
000180 a1 65 5d bd 4e e4 5a 3c 29 f8 04 3c 97 7d 60 3c
       -0.054052 0.013360096 0.008115807 0.013701818
000190 0c 80 3a bd aa b8 a7 3c e4 2d e8 3b f7 cd 20 3d
       -0.04553227 0.020473797 0.0070855487 0.039258923
0001a0 ee 6c 6e 3a 20 2b bd 39 e1 1c 1d 3b ce c1 2e 3c
       0.0009095211 0.0003608102 0.0023973512 0.010666324
0001b0 af 33 58 bd dd c8 9c bd 25 3a 55 bd ef 41 7b bc
       -0.052783664 -0.07655499 -0.052057404 -0.015335544
0001c0 a7 df 80 3d 6b af 8b bc 57 4b 7d 3d f8 8b c0 3b
       0.06292658 -0.01705142 0.061839428 0.0058760606
0001d0 6f 78 42 3d 05 54 b6 3c 01 27 3d 3b 18 d3 db bc
       0.047478136 0.02225686 0.002886236 -0.026834056
0001e0 3f 7a 93 bd 0d 1e 16 bc bc 68 3c 3c c1 35 9b bd
       -0.07201051 -0.009162438 0.01149958 -0.07578612
0001f0 de f6 70 ba 64 b7 cb 3b fd c4 b0 3c ff 29 86 3d
       -0.00091920595 0.00621693 0.021578306 0.06550979
000200 f6 e0 0e bd 89 02 87 bb a5 ae 45 bc 8c 04 54 39
       -0.03488251 -0.0041201753 -0.012065564 0.0002021959
000210 25 d9 8a 3c 2a c3 81 3d 7e ee 35 b9 d1 43 da 3d
       0.016949246 0.06336053 -0.0001735035 0.10657466
000220 a9 be d4 3d e9 20 b1 bd 1b cc 5f bd 0f 87 4a 3c
       0.10387928 -0.08648855 -0.05463801 0.012361302
000230 3f f0 8c 3a ff 5c c8 ba 78 43 9b 3a 21 90 6e bb
       0.0010752751 -0.0015286504 0.0011845669 -0.0036401825
000240 6f 21 18 bd ce 0b 55 3b 53 d0 b2 3d 51 21 8c bc
       -0.03714126 0.0032508257 0.08731141 -0.01710573
000250 f6 65 39 3b fe d8 57 3c 1a 97 7a 39 11 7f 53 3b
       0.0028289533 0.013174294 0.00023898148 0.0032271782
000260 6e ad 50 3d 9d f1 3d 3d 95 af b3 bc 67 97 70 bb
       0.050946645 0.046373 -0.02193431 -0.0036711337
000270 67 29 fe ba 8e 2f 1b 3d e5 60 04 3e d6 f4 4a 3b
       -0.0019391001 0.03788715 0.12927587 0.0030968687
000280 64 db 9d bd ad c2 96 bd 79 75 bb bc 6c a6 ee bc
       -0.07707861 -0.0736135 -0.022883164 -0.02913209
000290 2a fa c2 3d 93 8d 84 3b 7f 08 80 bd c0 e9 e9 3c
       0.09520371 0.0040451973 -0.062516205 0.028553843
0002a0 b4 82 0b ba 2a b7 9d 3b cc 52 37 3d 14 5a 1c bd
       -0.00053219055 0.0048130946 0.044756696 -0.038171843
0002b0 ce f6 85 3d 72 45 92 bd 57 be 0a 3e 99 58 18 3d
       0.06541215 -0.07142152 0.13549171 0.03719387
0002c0 4c 7f ac bd 87 33 3f 3d 6c 0c d4 3d a4 c9 84 3d
       -0.084227175 0.04668 0.10353932 0.064837724
0002d0 1b e1 0c bd e9 e3 f6 3c 06 41 36 3a 0c cc ea 3d
       -0.034394365 0.030137973 0.0006952438 0.114647
0002e0 2f 69 c0 bc e9 24 07 39 0f d7 90 bb 4e a3 71 bd
       -0.023487655 0.00012888353 -0.004420168 -0.05899363
0002f0 d9 d5 ef 3a 0c 2f 05 3c 5d e2 82 3d ce a4 f2 bb
       0.0018297984 0.008128893 0.063908316 -0.0074049

net.4.bias f4 [3]
000000 30 7b 24 3c dd cd 5a bd b4 30 17 bd
       0.010039136 -0.053418983 -0.03691168
