simple_mlp_dynamics.pth (torch, 23552 bytes, 6 tensors)

net.0.weight f4 [64, 9]
00000000: 57a9 afbe 6e9b bcbd cc84 44bc d686 0dbe
00000010: bf7f 953e ff09 85bc 1b1b 5c3e ee6e c53d
00000020: 54a3 f2bc 4dab 283d 87d4 5dbe 411b 283d
00000030: cd9b 803e 622d e8bd af44 27be 4160 e33d
00000040: b7be e9be cea5 713e 31f4 62be ac4b 56bd
00000050: fa62 723e 7e1e d23d 883d 473e b05f 8e3e
00000060: 6ec6 953e 43ed 83bd b757 253d c03d 423d
00000070: 5aba 38be 27ad dc3c 8d5c 18be 3326 a33e
00000080: ec4e 9abe dc65 5dbe b6d8 893e 70e5 3c3d
00000090: 66c4 6cbe 5606 7c3d 0b2a 613e 071c 953e
000000a0: 85d2 353d 9f0b 783e 61bf 463e 2741 71be
000000b0: f419 b93e 91ea 3a3d 1370 4a3e ba0c 973e
000000c0: 44d6 18bf e8e8 353c 920c 7bbe 9809 c2bd
000000d0: 6de6 7fbe 8d19 dc3d 00e8 b33e 830b 2f3e
000000e0: a998 9e3e 7061 79bd 1ff9 a83c 2781 2dbe
000000f0: d8fb 043e 0975 213c d895 2ebe 7e16 863e
00000100: 5443 693e f654 1e3e 1f40 b5bc 1c39 88be
00000110: 930f 063e b39c 0dbd b87f 743d 6479 7c3e
00000120: a11e b73e af53 dcbc 733a bf3d b35e b23e
00000130: 897c c23d e44b ff3d 1bf9 8fbe 4c7b 38be
00000140: c4c0 093e 02bc b4be 21cb aebe 3a42 cbbd
00000150: 5083 26be f123 62be d885 0a3d 5330 a5be
00000160: ccd0 653e e879 93be 1ddf 533e eff8 513d
00000170: d8d5 753e df21 d2bd 1bd9 b33e 6475 55bd
00000180: 4b7e 483d 397d 68be 5a57 ae3d 0df2 9f3e
00000190: 7a05 edbd a78e 24be 85e8 bd3d 4540 d8bc
000001a0: 7203 0ebd c287 bf3d 6fbb 703e 0a16 98be
000001b0: 6b7f e53d 535b 00be 72ed f03e 2990 81bd
000001c0: 9f63 04be 973d 473e 9e61 f23e 7913 903d
000001d0: 0ec1 77bd 17dc da3c 0fe2 b53d cc1f a53d
000001e0: d994 3cbd ddef e8bd cc63 35bc 8b04 763e
000001f0: 810c 12bc c6d8 4f3e 9b81 92bd 7fd3 47be
00000200: c081 163c f45a 99bd 7e3a 8e3e 072a 12be
00000210: 5ea7 7a3e 9bfb b7be 9d2a 923d 2362 91be
00000220: 1497 36be 07f6 78be 8c23 04be 9b53 b5be
00000230: 12b6 8f3e 6aeb b9be 197f ae3e ef6c 003e
00000240: a002 513d 2dfe c83d ffa8 083c ec72 183e
00000250: 2a98 b73e d9ce 2c3e 4b5f 71be aeb5 80be
00000260: de71 e0bd 5f9b 06be d3a8 c9bd d42c 2dbe
00000270: 64ec 99be 719d ca3d 4947 c6bd c02d 94be
00000280: 79bd 583e 0e47 87be 9fc8 06be e0b3 bebd
00000290: 61e7 20be e871 70bc 5757 2a3e 87a5 913e
000002a0: f460 83bd d67a 95bd 96db 2dbe 6f88 e63c
000002b0: dfb0 70be fac1 78be 9c12 7ebe a2e1 07be
000002c0: 81a8 06be a47f d0be 36a1 7d3e d665 92be
000002d0: 70f0 17bd 5222 933e 790b 53be 8fe0 cbbe
000002e0: 5aa4 fcbd 6b23 553e f3c3 e73c aecc a0bd
000002f0: 35bc 163e 292a 473e c126 823e f4ea df3c
00000300: e6ab 88bc 036e 803e 144a 003d 0e2d 38be
00000310: 8109 33be c56a 51bd 4a98 58be 50eb 42be
00000320: cf96 85be ed61 36be 0ce0 93be e8d5 13bd
00000330: 69eb a43d 8de0 89bd f179 20be ad53 35bc
00000340: 1c72 e7bc 9169 dabd 11f1 f53d 0989 1abe
00000350: c50a 0cbd 5e73 69be 9958 f4bd d5f7 de3d
00000360: b37c 623e 23c1 b83d 6886 a1bd b4bb aebb
00000370: 2c1a 2a3e cffc c33e 492e a8be bc61 653e
00000380: 9f56 913e 0209 21be b50f 89be 4365 8a3e
00000390: ec9f a9be dcf1 72bd 938e c03e 5d0c 87bd
000003a0: 19f5 0abd 9007 2b3e 334d 873e c71f 9a3e
000003b0: 1276 0fbe 689b 9a3e e3e8 7fbe 530a 513d
000003c0: 9be2 c43d b1d3 17be 4909 af3e 1b8b 3ebe
000003d0: ba80 343e 924f a0bc 601c f43d 9238 893e
000003e0: 939e 02be ff85 953e 076a 793e 53b0 433e
000003f0: fc9d 15bc 8c7b c1be b237 df3d 069a 623e
-0.34308884 -0.09209333 -0.011994552 -0.13820967 0.29199025 -0.016240118 0.21494715 0.09640299
-0.029618897 0.04117899 -0.21663104 0.041041616 0.25118867 -0.11336781 -0.16334794 0.11102343
-0.45653316 0.23598406 -0.22163464 -0.05231826 0.23670569 0.10259722 0.19457066 0.2780738
0.29252952 -0.064417385 0.040366855 0.04742217 -0.18039837 0.026938034 -0.14879055 0.3186508
-0.30138338 -0.21620888 0.2692315 0.046117246 -0.23121795 0.06152948 0.21988694 0.29122946
0.04439022 0.24223183 0.19408943 -0.2356001 0.36152613 0.045633856 0.19769315 0.29501897
-0.59701943 0.011102892 -0.24516514 -0.09474486 -0.24990244 0.10747061 0.3513794 0.17094235
0.30975845 -0.06088394 0.020626603 -0.16943799 0.12986696 0.0098545635 -0.17049348 0.26189035
0.2277959 0.15462098 -0.022125302 -0.2660607 0.13091879 -0.03457327 0.059692115 0.24655682
0.35765556 -0.026895372 0.0933732 0.34837875 0.094964094 0.12465647 -0.2811974 -0.18015784
0.1345244 -0.3529969 -0.3413935 -0.09924741 -0.16261029 -0.22084023 0.03381905 -0.3226343
0.22442931 -0.28803945 0.2069058 0.051262792 0.24007356 -0.10260367 0.35126576 -0.052113906
0.048948567 -0.22704019 0.08512755 0.31239358 -0.1157331 -0.16070043 0.09272865 -0.026397834
-0.034671254 0.093520656 0.23509 -0.29704314 0.11205944 -0.12534837 0.47056156 -0.063263245
-0.12928627 0.19457088 0.473401 0.07034964 -0.060486846 0.026716275 0.08881008 0.080627054
-0.04604039 -0.11373875 -0.011071157 0.2402517 -0.008914114 0.20297536 -0.071536265 -0.19514273
0.009186208 -0.07488051 0.27779 -0.14273845 0.24477908 -0.35934147 0.07137034 -0.28395185
-0.17831069 -0.24312602 -0.12904185 -0.35415348 0.28068596 -0.3631242 0.34081343 0.12541555
0.051027894 0.09814105 0.008341073 0.14887589 0.3585828 0.16875781 -0.23571508 -0.2513861
-0.109592184 -0.13145207 -0.09846654 -0.16911632 -0.30063164 0.09893311 -0.09681565 -0.28941154
0.21166028 -0.26421398 -0.13162468 -0.09311652 -0.15713264 -0.014675595 0.1663488 0.284466
-0.06414977 -0.0729882 -0.16978297 0.028141228 -0.23504971 -0.24292746 -0.24811786 -0.13269666
-0.13150217 -0.40722382 0.24768528 -0.2859332 -0.037094533 0.28737122 -0.20609845 -0.39819762
-0.12336035 0.20814292 0.028291678 -0.078515396 0.14720233 0.19449677 0.25420192 0.027333714
-0.01668353 0.25083932 0.031320646 -0.17985937 -0.17484094 -0.051127214 -0.21151844 -0.19035077
-0.2609162 -0.17810793 -0.28881872 -0.03609267 0.080527134 -0.06732283 -0.15671517 -0.011067313
-0.028252654 -0.106646664 0.120088704 -0.15091337 -0.034189958 -0.22797915 -0.11930961 0.10887114
0.22117881 0.09021213 -0.07886964 -0.0053324345 0.16611546 0.38278815 -0.32847813 0.22400564
0.283864 -0.15726092 -0.26769796 0.27030382 -0.33129823 -0.059312686 0.37608775 -0.06594155
-0.03392515 0.16702104 0.26426086 0.3010237 -0.14009884 0.3019669 -0.24991183 0.051035237
0.09613534 -0.14826848 0.34186772 -0.18607752 0.1762723 -0.019569192 0.119194746 0.26800972
-0.12755804 0.29203793 0.24356852 0.19110231 -0.009131905 -0.3778957 0.10899295 0.22129068

net.0.bias f4 [64]
00000000: feba 50be 2522 acbd b650 aabd fa3f 88bd
00000010: b8e0 be3e 62b5 fabc e7f3 1fbc 6ab5 823e
00000020: 387a 333e acb6 4e3e d8d7 b9b9 376b 303d
00000030: 7537 80be 2599 5abe 2591 10bc 7e34 99be
00000040: bbd6 8abe cca2 81be d7eb 823e b56c 9dbe
00000050: 8333 84be 12ba 683e 4e46 e23d 64d9 b33e
00000060: 5116 e03e 818b 4bbe df28 353e 92a7 46be
00000070: db5b 40be ab1c 8f3e 0560 bf3e 95c0 153e
00000080: 8762 ecbd 88be a33e 9046 d33d d17d 0c3e
00000090: 104c 59be 9399 b43e 41a3 0f3e ca62 6bbd
000000a0: 233d 273e d591 c83e 468f 973d b036 963d
000000b0: ec1a c1bd 6c86 68be bbe0 4ebe 2ee0 8a3d
000000c0: 7ab9 51be f161 7ebe 8f5c a6be b040 e63d
000000d0: 823d 7c3d 56f4 f73a 9f2a 8bbe 3e97 453e
000000e0: 757a 8abe 8fd1 2b3e 78e0 45bc 22d7 603e
000000f0: c82b 6f3d 799c 0b3e ad47 c13d ad1b 6ebd
-0.20383832 -0.0840495 -0.08316176 -0.066528276 0.37280822 -0.030604068 -0.009762741 0.25529033
0.17527092 0.20186871 -0.00035446766 0.043070998 -0.2504231 -0.21347483 -0.008823668 -0.2992286
-0.2711695 -0.25319517 0.25570557 -0.30747 -0.2582055 0.2272723 0.11048566 0.35126793
0.43767026 -0.19877435 0.17691372 -0.1939986 -0.1878504 0.2795156 0.37377945 0.14624245
-0.1154223 0.319813 0.10316193 0.1371987 -0.21220422 0.35273418 0.1402712 -0.05746726
0.16331916 0.3917376 0.07400374 0.073346496 -0.09428963 -0.22707528 -0.20202915 0.0678104
-0.2048091 -0.24842049 -0.32492492 0.11242807 0.061582096 0.0018917422 -0.27180955 0.19295976
-0.27046552 0.16779159 -0.012077443 0.21957067 0.058391362 0.13633908 0.09437499 -0.058131862

net.2.weight f4 [64, 64]
00000000: 7e24 0bbe ee50 dbbd f868 873d 7b84 d039
00000010: ae5a d0bd 308a 10bd 71b6 86bd 64c3 b93d
00000020: 7ae4 fb3d a5ee e83d 04bb 91bc 87bf 163e
00000030: 6dfc f0bd bc0c 2e3c f9dd 333d aa9a 8bbd
00000040: 5db8 9cbd c7b1 543c 5018 823d b69d db3c
00000050: 2f56 a0bd 0c5f 583a 95d0 113d 4cff 90bd
00000060: 87a1 4bbd b406 1ebc d0d3 cdbd 8acc f3bd
00000070: 9094 0cbe 5fc6 a6bb 0725 4cbc d9ca 2e3d
00000080: 3a82 1a3e b7dc abbd 11e7 c63d 9a52 2b3d
00000090: ded0 00be eb96 0abc c85c 0bbc a2fc 8f3d
000000a0: 32f8 f73d b57e 743d 180a d43a 1c8f ecbd
000000b0: 3bf3 fbbd c283 d0bb c935 cc3d 318d a2bc
000000c0: 58d4 d0bd d0d2 bdbc 5f1c 9cbd 6a60 f03d
000000d0: 2e3d 8a3d 41c9 f9bd 1e1f e1bd 12df 933d
000000e0: 8849 1bbe ba6a 373e 833b b2bd 8339 083e
000000f0: 7828 7f3d 6036 7e3d d65f ecbc 4458 9dbd
00000100: 4ed4 bd3d 0406 1ebd e0a4 a8bd 0160 433e
00000110: dc24 4cbd d45b 9abd b30d d2bc 9d14 133d
00000120: f705 6c3d 5a2e e03d de4d bcbd 1942 213e
00000130: 15f8 b83d a02f 65bd 4c25 34bb 6a0b 1ebd
00000140: 9440 363d 7c9e a33d 977e 9b3d 7170 d2bc
00000150: 6d68 cdbb bb1a d0bd 332e 803a a28b ebbd
00000160: 5778 29be 6e6b 16be 349d b1bc 8f9d 943c
00000170: ff8f 41be de6e 313d d324 9e3d 5325 5dbd
00000180: e951 92bd 4a42 d53d fed7 db3d 93f6 ba3d
00000190: 8054 9c3d a43c 203d af30 483c 9933 0abe
000001a0: 68fc e93d 90e8 debd cc97 b73d f191 82bd
000001b0: 6295 d0bd c198 503d 7d12 303d 4ff3 e5bd
000001c0: d211 783d 213e 033d 9403 123e 9506 713d
000001d0: 13e3 57bd 8e13 ccbd e281 bebc ccb3 f93d
000001e0: 3ef0 153d afb2 c3bd 2e03 263e 37d5 5cbd
000001f0: 393f bdbd 9fcf c8bd 6b32 c2bd 3946 02be
00000200: 0c86 4e3d 31c8 543d ab55 b4bc dd43 f73d
00000210: a0ee ca3d b6e2 2b3d aca0 e43d 8ba0 073d
00000220: a3a0 c8bd 3813 c0bd 19c0 00bd 34c9 f83c
00000230: 43a4 13be 6389 20be 2b1a 9b3d c122 73bd
00000240: ac72 753d 2e56 8a3d 57ae 43bd 0f0d 0b3d
00000250: 6f4c eb3d 6d3e d73d c92b adbd d58a e23d
00000260: 633f a0bd ace4 393d b657 25be dd96 07be
00000270: 69c8 143e aa21 05be e871 e13d 056d c2bd
00000280: 2c06 88bd 78c2 963d ff3b 3c3d 8247 9bbd
00000290: 21a7 843d c6fb 583d f8f2 9cbd 15a8 d3bd
000002a0: ecf8 3e3d 2be9 b03d e879 9e3d 8b2e 15bd
000002b0: bd61 6d3d ddd2 8dbc d3f4 9c3d 7435 3abd
000002c0: 0931 4cbc ddef d3bd 6a60 9f3d 2bff 03be
000002d0: d809 0fbe 0227 e8bd 8db5 82bd 8b46 973d
000002e0: d503 94bd 15cf 9a3d 4891 373d 1a16 4cbd
000002f0: c0d7 7e3c 4813 1abc 12e3 cdbb 4f38 c63d
00000300: f6bb 9ebd 4d7b e63d 7ad7 01be ddf2 da3c
00000310: 7ede 34bd fd38 6e3b 2a4d a23d 5217 80bc
00000320: 1208 e0bc 1642 caba 65ab 8cbc 11b1 5a3c
00000330: 77d3 63bd 40a7 eabd 8c5b 97b9 035e 0dbe
00000340: 0421 21bd a8f9 363d dd7f 6c3d a804 b6bd
00000350: 28b1 7ebd a955 efbd d6c0 57bd 20f6 6cbb
00000360: 1d1d fc3b b8ba 943d d437 6b3a 07c6 853d
00000370: 925d 383d b020 b33d 21a3 d1bd e118 043e
00000380: f1a1 043e 7794 9bbd 49a6 dc3d d65b c2bd
00000390: 9efc 0fbd efca d23d bdfd 113e d770 39bc
000003a0: 627a 0f3d ffd1 4b3d f175 f9bc e0f7 a83c
000003b0: 2f06 cbbd fec3 f53d 4a70 11bc 6727 4c3c
000003c0: 8b3b 18bd f335 d13d 8221 d23d b55f 68bd
000003d0: 4163 15bd d7f5 acbc 2fac 683d cdb3 b53d
000003e0: 69b0 253d d254 0c3d 115f febd eac8 8f3d
000003f0: f8c4 fb3c 19fc 083d fd33 8dbd 1360 a53d
-0.1358814 -0.107087955 0.06611818 0.00039771557 -0.10173546 -0.035288036 -0.06577767 0.09070471
0.12299438 0.11373643 -0.017789371 0.147215 -0.117668964 0.010623153 0.04391286 -0.06816609
-0.07652352 0.012981839 0.063522935 0.0268086 -0.07828938 0.0008253909 0.03559931 -0.07079944
-0.04971459 -0.009645153 -0.10050166 -0.11904247 -0.13728547 -0.0050895656 -0.01246 0.04267392
0.1508874 -0.083917074 0.09712041 0.041826822 -0.12579677 -0.008458833 -0.0085060075 0.07030608
0.121078864 0.05969115 0.0016177325 -0.115507334 -0.12302252 -0.006363363 0.09971196 -0.019842716
-0.10196751 -0.023171812 -0.07622599 0.117371395 0.0674995 -0.12196589 -0.10992263 0.07220282
-0.15164769 0.17911807 -0.08702757 0.13303189 0.062294453 0.062063575 -0.028854292 -0.07682851
0.092690095 -0.038579956 -0.082345724 0.19079591 -0.04983984 -0.07537046 -0.025641298 0.03590833
0.057622876 0.10946341 -0.091945395 0.1574787 0.09031693 -0.055953622 -0.002748805 -0.038585104
0.04449518 0.07989213 0.075925045 -0.025688382 -0.006268552 -0.101613484 0.0009779393 -0.11501242
-0.16549812 -0.14689419 -0.021681406 0.018141536 -0.18902586 0.04331862 0.077218674 -0.053990673
-0.07144529 0.10413034 0.107345566 0.091290615 0.076333046 0.03912033 0.012218638 -0.13496245
0.11425096 -0.108842015 0.089645 -0.06375492 -0.101847425 0.050926927 0.04298638 -0.11228048
0.06056387 0.032041673 0.14259177 0.058844168 -0.05270679 -0.09964667 -0.023255292 0.12192497
0.036606066 -0.095555656 0.1621215 -0.053914275 -0.092405744 -0.098052256 -0.09482273 -0.127221
0.050420806 0.05194873 -0.022013506 0.12073491 0.09908795 0.041964255 0.11163458 0.03311209
-0.09796264 -0.09378666 -0.0314332 0.030369379 -0.1441813 -0.15677409 0.075733505 -0.059359316
0.059923813 0.06754719 -0.047773685 0.033948 0.11489188 0.10509954 -0.08455617 0.11061636
-0.0782459 0.045384094 -0.1614674 -0.13241144 0.14529575 -0.13001123 0.11008054 -0.0949345
-0.06641802 0.07361311 0.045955654 -0.075819984 0.0647719 0.052974485 -0.0766353 -0.103347935
0.04662411 0.08638223 0.077380955 -0.03642134 0.05795454 -0.017312462 0.07663884 -0.045461133
-0.012462863 -0.10348485 0.077820614 -0.12890308 -0.13968599 -0.11335565 -0.06382284 0.07386502
-0.072272934 0.07559029 0.044816285 -0.049825765 0.0155543685 -0.009404011 -0.0062831724 0.09678709
-0.077506945 0.112539865 -0.12679854 0.026727134 -0.044157498 0.0036349886 0.07924874 -0.01563612
-0.027347598 -0.0015431072 -0.017171571 0.01334788 -0.05562159 -0.11457682 -0.00028869172 -0.13805394
-0.039338127 0.044671685 0.057739127 -0.08887607 -0.062180668 -0.1168626 -0.052674137 -0.0036157444
0.0076939003 0.07262176 0.00089728576 0.06531911 0.04501111 0.08746469 -0.102361925 0.12900116
0.129524 -0.07596677 0.10773904 -0.094901726 -0.035153024 0.10292613 0.1425695 -0.011318407
0.035028823 0.049760815 -0.030451747 0.020626009 -0.09913289 0.12000273 -0.008876869 0.012460566
-0.03716616 0.10215368 0.10260297 -0.0567319 -0.03647161 -0.02111332 0.056804832 0.08872185
0.04045144 0.03426058 -0.12420476 0.07020743 0.03073357 0.033443544 -0.068946816 0.08074965

net.2.bias f4 [64]
00000000: 6122 10bd 0d6d 7b3b d449 d1bd 2d23 b13d
00000010: 784e 013e 1cf7 593d 6537 b33d 0646 86bd
00000020: 426b 923d 9689 d53d 426a af3d 7091 493d
00000030: ff6b 34bc a65b 9abd ae06 bb3d a853 a33d
00000040: fec0 133e 48a9 0cbe 74bc 9f3d 2e54 673c
00000050: d97a f4bd 509a 8cbd 7ccd 013e 66b8 e53c
00000060: 5ed8 bdbc 8aea b73d ee84 b5bd 2a53 0fba
00000070: e312 e43d 4fdb e93c f2ca 16bd 180b 303d
00000080: 60bc d03d 7cdb c13d 92c1 ba3d d3cb 2d3c
00000090: edc9 9b3d acd9 53bd 4681 ed3c 369c 303d
000000a0: 4c4f 5b3d b763 7d3c 4d30 d6bd 0054 c0bb
000000b0: 7145 883d 4058 853c e826 35bd 009f 7d3d
000000c0: 6f1e c13a a06c a1bb 2e65 ba3d adc7 df3c
000000d0: e623 de3d 00d4 d43d 4988 c3bd 7d8c f2bc
000000e0: c57e c8bd ff53 ec3d af33 a53d 9fb0 eabd
000000f0: 1a82 a73d 693c debc f520 c53b 6a1f 083d
-0.035189036 0.003836456 -0.1021916 0.086492874 0.1262759 0.053214177 0.087508 -0.06556325
0.07149364 0.10426633 0.08565189 0.049210966 -0.011012076 -0.07537012 0.091321334 0.079749405
0.1442909 -0.1373645 0.077996165 0.014119191 -0.11937494 -0.0686537 0.12676042 0.02804203
-0.023174461 0.08980282 -0.08863245 -0.00054674095 0.11136415 0.028546957 -0.036814637 0.04297933
0.1019218 0.094656914 0.09118952 0.0106076775 0.07606874 -0.05172126 0.028992306 0.043117724
0.05354242 0.015465668 -0.104584314 -0.0058693886 0.0665387 0.016277432 -0.044226557 0.061919212
0.0014733801 -0.004926279 0.0910133 0.027316893 0.10846691 0.10391998 -0.09547479 -0.029608006
-0.09789804 0.115394585 0.080664985 -0.11459469 0.08179112 -0.027128415 0.0060158917 0.033233084

net.4.weight f4 [6, 64]
00000000: 5e9e 4f3d 8fa7 833c 57a7 44bd f77d 143d
00000010: df44 86bd dfed 9b3d 41cf 4dbb f765 fd3b
00000020: c401 833c 68de debc b788 e3bc ded7 dd3d
00000030: 440d 6d3d 718a 8abd 722c 533d 5cb0 b03d
00000040: b123 80bd 9084 003d 4b49 823d 26b2 adbd
00000050: 9807 e3bb 3d4e 7c3d 9ea3 07bc 2c9b 21bd
00000060: e8c2 333b 4397 35bb 36dd 24bd d0ba 033d
00000070: 3ec9 f83c fd69 89bd e1b9 923d e1c6 3e3d
00000080: aa76 9bbc ee51 43bd f20d 8cbd b473 25bd
00000090: 36e6 32bd 0403 963d 7470 95bd 2977 9cbd
000000a0: 95a9 073c 2d9c 023d 6465 8a3d 9ee1 4c3d
000000b0: 127b 663d 501f 88bd 37d1 ab3c 0a26 2e3d
000000c0: a1d8 793d 4a1b 503d 3e55 16bd 4bcb d43b
000000d0: dbbc 843c 71fb 503c d5cb e33c 9680 f73c
000000e0: 8adf b33d 34e3 dfbd 6c9c 043d 7d27 a53d
000000f0: 2250 883d 9f9c b63d 8bca 69bd 6961 aebd
00000100: 780c fabc cbd9 1e3c 093c d73d 4504 1d3a
00000110: e98d 82bb 4fa6 91bd f8f6 14bd 24f5 353c
00000120: acbb 83bd 5592 533d 572e 713d 8006 8dbd
00000130: ea27 233d f15d 833d 5e93 103d d3b8 003d
00000140: d37e b9bc e81e ddbc 2306 413d dd61 303d
00000150: ebfb 933d b1da 13bd 30d7 f4bc ff00 94bd
00000160: 1207 e1bc 905f 5bbd 5fec b8bc 59de 42bc
00000170: 4336 a1bd 7e16 84bd 37fa 653d 3a91 0b3d
00000180: 8aff 453d 1a4d c0bd 3779 653b 8f70 d2bc
00000190: 50ee 3a3d 76ad 2d3d 7727 11bd b451 b4bc
000001a0: ddeb 85bd 5ee0 7d3d 269a 383c ab33 c2bc
000001b0: bc2e 3bbd 64ea d33d f39a af3d 9730 693c
000001c0: e88a 59bc a71d 3a3d 86dc cdbd c191 5d3c
000001d0: dfd5 2c3d 72d8 6b3d c3d1 953d aaf7 203d
000001e0: 2f1c 0bbc 2c09 173d 4883 3a3d 7520 e1bc
000001f0: a331 b03b e9eb 953d f59a 8bbd aad6 3ebd
00000200: 5d3a 393d 3e84 a23d 6642 1a3d bce8 203d
00000210: 645b cbbc 9637 493d 1969 a83b 5ebb 293d
00000220: 7856 613d 9dc6 53bd af68 9ebd d0b3 7abd
00000230: ea8e 8bbd a361 7abd e337 6d3b 4b7d 903d
00000240: 7e66 9cbd bff6 823d 3c42 693c 7676 4c3d
00000250: 1539 893d 1e15 343d 17af 84bd d961 7bbd
00000260: 5661 3fbb f6ea 063d 74f4 783d fc0c b2bc
00000270: cdae 6fbd d997 82ba 551f 743d d085 44bc
00000280: 87ee b4bd ec13 933d 55d9 85bd 2f72 7ebd
00000290: e717 3bbb 45c5 54bd b203 4f3d 06c6 d0bb
000002a0: 7f6d 283c 142f 3ebb 8935 1d3d cbdc 43bd
000002b0: dd93 1ebb 28ac eabc 3d66 9bbc 7d10 bc3c
000002c0: e453 653d 004c 15bd 3e0e 5a3d db4b 9dbc
000002d0: cb41 69bd 5a12 a63c e868 e43c e429 17bc
000002e0: 7323 46bd aeec 40bd 8177 143b d27d a73b
000002f0: 92b0 d43c 5cf8 943d 9818 b23c 5e1b 973d
00000300: 2e4c 19bd eb4d b73d 67d7 143d 2066 b4bd
00000310: ac8a 12bd a794 4dbd 8504 6ebd a83f 563d
00000320: 9cdd cb3d 2944 0a3c c97e adbc bdc5 a4bc
00000330: 8e5b 67bd 624e cf3d 5b9f a53d 8692 ff3d
00000340: bd62 8b3d e5f9 c1bd f2fe e03d d73e 783d
00000350: 01a3 b43a a0d4 333d 83a6 a7bd 5218 bc3c
00000360: 4253 a43d ece3 20bd 4e48 d3bd 145e 1cbd
00000370: 6fb5 573d 0da9 b2bd 5fa2 373d bdf6 903d
00000380: 00d8 d33d 4665 0cbd 3ca0 db3d 09c2 5e3d
00000390: 73ac fa3b 9205 e53d 361b 5c3d b977 87bd
000003a0: aa23 8aba 888e 9bbd 73ce c83c 662a 853d
000003b0: 91b0 e3bd 0632 fa3b d005 c9bd f870 ce3d
000003c0: b4d2 8e3d 2891 fcbc 0e76 833d 2b33 83bc
000003d0: 02cf 0eba f24e 013e 5b51 24bd 8da7 24bd
000003e0: b552 9c3d 2919 3cbd 8ecb 87bd b90c 61bd
000003f0: 9124 3d3c 1a62 88bd a006 54bd 0a47 84bd
0.05068814 0.01607111 -0.04801115 0.036252942 -0.06556105 0.0761373 -0.003140405 0.0077331024
0.015992053 -0.027205661 -0.027775152 0.10832189 0.05787398 -0.06764687 0.05155606 0.08627388
-0.062568076 0.03137642 0.06361636 -0.08481245 -0.0069283955 0.06159805 -0.0082787555 -0.039454624
0.0027429406 -0.0027708567 -0.040250026 0.03216058 0.030369397 -0.06709669 0.0716436 0.046576384
-0.018977482 -0.047685556 -0.06838597 -0.040393546 -0.043676578 0.07324794 -0.07296839 -0.076399155
0.008280178 0.031887222 0.0675762 0.050019853 0.056269713 -0.066465974 0.020973785 0.042516746
0.06099761 0.050807275 -0.036702387 0.006493961 0.016203335 0.012755261 0.027807156 0.030212682
0.08782871 -0.109320074 0.032375738 0.080641724 0.06655909 0.08916592 -0.057077926 -0.08514673
-0.030523524 0.009695481 0.10509498 0.0005989711 -0.003984202 -0.07111799 -0.03636834 0.011105809
-0.0643228 0.051653225 0.058882084 -0.068860054 0.039832987 0.06414402 0.03529679 0.031426262
-0.022643482 -0.026992276 0.047124993 0.04306208 0.07225784 -0.036097232 -0.029887766 -0.072267525
-0.027469192 -0.053557932 -0.022573648 -0.011893832 -0.07871678 -0.064496025 0.056146827 0.034074046
0.048339404 -0.09389706 0.0035014877 -0.025688438 0.04563743 0.042401753 -0.035438027 -0.022011615
-0.06539128 0.06198155 0.011267221 -0.023706278 -0.045698866 0.10347441 0.08574476 0.014232776
-0.013277747 0.045438435 -0.10051827 0.01352352 0.04219615 0.057579465 0.073153995 0.03929869
-0.008490606 0.03687398 0.045535356 -0.027481297 0.005377011 0.07320387 -0.06816665 -0.04659144
0.045221675 0.079353794 0.03766098 0.039284453 -0.024823852 0.049125277 0.0051394817 0.041438453
0.055014104 -0.051703084 -0.077348106 -0.06120664 -0.06814368 -0.06112827 0.003619664 0.07055148
-0.07636736 0.06394719 0.014236983 0.04991766 0.06700341 0.04396545 -0.06478708 -0.06137261
-0.0029202304 0.03293892 0.060780004 -0.021734707 -0.058516312 -0.0009963467 0.059600193 -0.011994794
-0.08834558 0.07181534 -0.065355934 -0.062120613 -0.0028548182 -0.051945943 0.050540633 -0.0063712625
0.010280012 -0.002901976 0.038381133 -0.047817986 -0.002419702 -0.028646544 -0.01896965 0.022957081
0.055988207 -0.036449432 0.05323624 -0.01920121 -0.05694751 0.020272423 0.027882054 -0.009226296
-0.04837365 -0.047100715 0.0022654238 0.0051114345 0.025963102 0.07273933 0.021740243 0.07378267
-0.037426166 0.089504085 0.036338236 -0.08808541 -0.03577678 -0.050190594 -0.05810978 0.0523068
0.09954378 0.008439102 -0.02117862 -0.02011382 -0.056483798 0.10122372 0.08087035 0.12479119
0.06805942 -0.09471492 0.10986127 0.060606804 0.0013781489 0.043903947 -0.081860565 0.022960816
0.08023693 -0.039279863 -0.103165254 -0.038175657 0.052663263 -0.0872365 0.044832584 0.070783116
0.10343933 -0.03427627 0.10723922 0.054384265 0.007649952 0.11182703 0.053736888 -0.06614632
-0.0010539193 -0.07595545 0.024512505 0.065022275 -0.11117662 0.007635358 -0.09815562 0.10080141
0.06973782 -0.030830935 0.064190015 -0.01601561 -0.00054477167 0.12627771 -0.04011665 -0.04019885
0.076329626 -0.045922432 -0.06630622 -0.054943774 0.011544363 -0.066593364 -0.05176413 -0.06458862

net.4.bias f4 [6]
00000000: 5d48 533d 0ab8 223d bb0c 8d3d 3d57 adbc
00000010: 8b1f 57bd 60d7 7c3d
0.051582683 0.039726295 0.06887194 -0.021159763 -0.052520316 0.061728835
