models/trained/checkpoint_epoch_0.pth (torch, 22916 bytes, 8 tensors)

physics.motor_gains f4 [4]
0	0x41207c0f	10.030288
1	0x411f2352	9.946123
2	0x411c3de3	9.765109
3	0x4120aa8c	10.041637

physics.friction_coeffs f4 [4]
0	0x3f0d035c	0.5508325
1	0x3ef76198	0.48316646
2	0x3f52bd7f	0.823204
3	0x3f11ca57	0.5694937

residual_net.0.weight f4 [64, 7]
0	0x3e988909	0.2979205
1	0x3eebaf3c	0.4603213
2	0xbd8e3f2b	-0.06945642
3	0x3e99a366	0.30007476
4	0xbf28e8a1	-0.65979964
5	0xbf333e4e	-0.70016944
6	0x3da12b09	0.078695364
7	0xbe9b7434	-0.30362093
8	0x3dfa9d03	0.12236979
9	0xbe6f4eab	-0.23369853
10	0x3e1a960e	0.15096304
11	0xbe5aa2d9	-0.21351184
12	0xbe9c28ab	-0.30499777
13	0x3d035ccb	0.032070916
14	0xbdfcb4f6	-0.12339203
15	0x3d92c943	0.07167294
16	0x3d3804e8	0.044926554
17	0xbc8b3322	-0.016992155
18	0x3eb345f6	0.35014313
19	0x3e74f0de	0.23920009
20	0xbe992538	-0.29911208
21	0x3e4d4aff	0.2004814
22	0x3e0bd166	0.13654098
23	0x3eb79dd0	0.3586259
24	0x3e2c58ff	0.16830824
25	0x3efb75f8	0.4911344
26	0xbf500bbf	-0.81267923
27	0xbe3a12b1	-0.18171193
28	0xbe90544c	-0.28189313
29	0xbe40b7fe	-0.18820187
30	0x3d8f92a6	0.07010393
31	0xbe7d99d7	-0.24765716
32	0x3ea75806	0.32684344
33	0xbe1e9c32	-0.15489271
34	0x3e4d3497	0.20039593
35	0x3ee82325	0.45339313
36	0x3f13f8d0	0.5780153
37	0x3d539791	0.051658217
38	0xbed07ea3	-0.40721616
39	0xbdc7d34e	-0.097571
40	0xbebcfd1a	-0.3691185
41	0x3d0b8c2a	0.034069218
42	0xbf0dbe5d	-0.55368596
43	0xbb439794	-0.0029844986
44	0x3e2f98db	0.17148153
45	0x3e06fb39	0.13181771
46	0xbdbfdffe	-0.09368895
47	0xbf24b35a	-0.6433617
48	0x3e3819e6	0.1797863
49	0xbeac1c2e	-0.3361525
50	0xbe46d90f	-0.19418739
51	0x3e0747ac	0.13210934
52	0x3e48649f	0.19569634
53	0xbe4fad55	-0.20280965
54	0x3dadf3c3	0.084937595
55	0xbdc82a83	-0.097737335
56	0x3ee50e92	0.4473768
57	0x3e566364	0.20936352
58	0x3c6383c7	0.013886399
59	0x3e28eca6	0.16496524
60	0xbe3506bf	-0.17678355
61	0xbdfa78b8	-0.122300565
62	0x3d9c8061	0.07641674
63	0x3e1101fb	0.14160912
64	0xbe15e731	-0.14638974
65	0x3cd121ba	0.025528777
66	0xbbfece23	-0.0077760383
67	0x3e00036b	0.12501304
68	0xbf348c76	-0.70526826
69	0x3e2dfd2b	0.16991107
70	0xbea18ddf	-0.31553552
71	0x3e0cbedc	0.13744682
72	0x3c75ba8a	0.014998088
73	0xbd7be0cc	-0.06149368
74	0x3ca99d2c	0.020704828
75	0x3ea74bf2	0.3267513
76	0x3cbb0002	0.022827152
77	0x3e6554ee	0.2239568
78	0xbc91540f	-0.017740278
79	0xbe8aef58	-0.2713573
80	0x3df46b3b	0.11934515
81	0xbf0a6e0f	-0.54074186
82	0x3d8867f3	0.06660452
83	0x3def51e1	0.11685539
84	0xbe57aac3	-0.21061234
85	0xbde38f08	-0.111112654
86	0xbd6881ef	-0.05676454
87	0x3e181282	0.1485081
88	0xbe9512d7	-0.29115936
89	0xbe8ea347	-0.27858946
90	0xbe571ba5	-0.2100664
91	0x3ed94279	0.42433527
92	0xbd3f50e2	-0.046707995
93	0x3d87eeaa	0.066373184
94	0xbe49e26b	-0.19715278
95	0x3e9ceaeb	0.30647978
96	0xbe76f0a4	-0.24115235
97	0xbe9733dc	-0.29531753
98	0xbce200d6	-0.02758829
99	0xbe8e8e51	-0.27842954
100	0xbe080703	-0.13283925
101	0x3d2605ab	0.04053275
102	0x3ddb8619	0.107189365
103	0xbd901ed5	-0.07037131
104	0x3ce90919	0.02844672
105	0x3da006ed	0.07813821
106	0x3e55b7df	0.20870923
107	0xbe30bbc8	-0.17259133
108	0x3e358ba1	0.17729045
109	0x3e7739e1	0.24143173
110	0x3e0f7771	0.14010407
111	0x3dbc8ffb	0.092071496
112	0x3e445072	0.19171312
113	0xbd7db8ee	-0.06194394
114	0xbcb45e10	-0.022017509
115	0x3d0887cf	0.033332642
116	0xbe9f66ee	-0.31133217
117	0x3d822abe	0.06355809
118	0xbd71159f	-0.05885851
119	0xbc96453e	-0.018343564
120	0xbedf9077	-0.43664905
121	0xbb707bf3	-0.0036694973
122	0xbeadeb00	-0.33968353
123	0xbcb72b50	-0.02235952
124	0xbd554965	-0.052071948
125	0xbbb2bc20	-0.005454555
126	0xbe905ba7	-0.28194925
127	0xbe4612e3	-0.19343142
128	0xbe84f030	-0.259645
129	0xbe86018f	-0.26173064
130	0xbde859eb	-0.113452755
131	0x3eeb0f75	0.4591023
132	0xbe2db979	-0.16965283
133	0x3df5a7f9	0.11994929
134	0xbecfebd6	-0.40609616
135	0xbbf3d530	-0.0074411854
136	0x3c4f964e	0.012670113
137	0x3e4a0b06	0.19730768
138	0x3eb3a6ac	0.35088098
139	0x3e74fba9	0.23924126
140	0xbe8df8c9	-0.2772887
141	0xbe50cc9b	-0.20390551
142	0x3dc3c9e5	0.09559993
143	0xbe8e1074	-0.27746928
144	0x3dfbcfef	0.122955196
145	0x3ec4ee3b	0.38463005
146	0x3e694bee	0.22782871
147	0xbe81d2e7	-0.25356218
148	0x3e764bb0	0.2405231
149	0x3db24331	0.08704222
150	0x3eca1335	0.3946778
151	0x3eae9b07	0.3410265
152	0xbe94c4f2	-0.29056507
153	0x3e85a4ea	0.26102382
154	0x3e14468a	0.14480034
155	0x3f328d74	0.6974709
156	0x3daa7557	0.08323162
157	0xbe639af0	-0.22227073
158	0x3e7bfa90	0.24607301
159	0x3c3ca27d	0.01151335
160	0xbdb792af	-0.089635246
161	0xbe1c6a5f	-0.15274952
162	0xbd75f146	-0.06004455
163	0xbd664503	-0.05621816
164	0x3e254d17	0.16142689
165	0xbe6d82d1	-0.23194434
166	0xbe6a5a44	-0.22885996
167	0x3dfc3e51	0.123165734
168	0x3e3b25cd	0.18276139
169	0x3e8752b7	0.26430294
170	0x3d843674	0.064556986
171	0x3e813093	0.25232372
172	0xbe0e5a27	-0.13901578
173	0x3e3a725a	0.18207684
174	0xbe402ed8	-0.1876787
175	0x3e873ebd	0.26415053
176	0xbf20c8b8	-0.6280627
177	0x3e1de7cd	0.15420456
178	0x3eb661bf	0.3562145
179	0xbdb9a805	-0.0906525
180	0xbe8f3389	-0.27969006
181	0xbe30a121	-0.17248966
182	0xbe269b8f	-0.16270278
183	0x3e8e6fe9	0.27819756
184	0xbe1ae11a	-0.15124932
185	0x3ec3f9cf	0.38276526
186	0xbea74a52	-0.3267389
187	0xbe9b1f06	-0.30297107
188	0x3e3dd704	0.18539053
189	0x3ecfcac0	0.40584373
190	0x3bc5c549	0.006035481
191	0xbe936279	-0.28786066
192	0x3ddb66d4	0.10712972
193	0x3e16a8ba	0.14712802
194	0x3e4a327a	0.19745818
195	0x3d1b24cc	0.03787689
196	0x3e94582e	0.28973526
197	0x3ed283fb	0.41116318
198	0x3dac7239	0.08420224
199	0xbe34b121	-0.17645694
200	0x3e92d776	0.2868001
201	0x3e5a62b3	0.21326713
202	0x3e90ff00	0.2831955
203	0xbdf80412	-0.12110151
204	0xbe54401d	-0.20727582
205	0xbe82949f	-0.25504014
206	0x3bb9cb0c	0.005669957
207	0xbe3627e8	-0.1778866
208	0x3da163e1	0.078803785
209	0xbddf33aa	-0.10898526
210	0x3e499f2f	0.1968963
211	0x3f01cd5e	0.5070399
212	0x3ccd8105	0.025085935
213	0x3d91d0b4	0.07119885
214	0x3e18b718	0.14913595
215	0xbeda2a59	-0.42610434
216	0x3d6d1543	0.057881605
217	0x3eb89267	0.36049196
218	0xbd5d406c	-0.054016516
219	0x3d53dbfb	0.05172346
220	0x3d68694c	0.056741044
221	0xbed8dd9e	-0.4235658
222	0xbf5cb7a9	-0.86217743
223	0xbdb8283f	-0.08992051
224	0x3e8dbfe0	0.27685452
225	0x3d5e29c4	0.05423905
226	0xbe23ec49	-0.16008104
227	0xbe213f98	-0.15746915
228	0x3d6b3efe	0.05743312
229	0xbe531210	-0.20612359
230	0x3e2addc4	0.1668616
231	0x3dfdc76a	0.12391551
232	0xbd712306	-0.05887129
233	0x3db81a8f	0.08989441
234	0x3e57eb44	0.2108584
235	0xbe854a1c	-0.26033103
236	0x3e172032	0.14758375
237	0x3e55d6f7	0.20882784
238	0xbe4d3691	-0.20040347
239	0xbf46fba4	-0.77727723
240	0xbcce757f	-0.02520251
241	0x3ccf71df	0.025322853
242	0xbe81f538	-0.253824
243	0x3e07b35b	0.13252012
244	0xbd9b6695	-0.07587925
245	0xbde2c956	-0.11073558
246	0xbe9d5b9f	-0.30733964
247	0x3dc9d22b	0.098545395
248	0xbdfa3e48	-0.122189105
249	0xbda2260c	-0.07917413
250	0xbd42b295	-0.04753359
251	0xbe65d150	-0.22443128
252	0x3ead3f10	0.33837175
253	0xbe9a3a34	-0.3012253
254	0x3e68472d	0.22683401
255	0x3ec16552	0.37772614

residual_net.0.bias f4 [64]
0	0xbd9c580f	-0.07633983
1	0xbe2fa4d0	-0.17152715
2	0x3e6a2793	0.22866659
3	0xbe49a744	-0.19692713
4	0xbe791280	-0.24323463
5	0x3e810f73	0.252071
6	0x3e51cc9d	0.2048821
7	0xbd65c942	-0.056100138
8	0x3e7fee16	0.24993166
9	0x3cb4a037	0.022049053
10	0x3e8b690d	0.27228585
11	0x3ded26a5	0.115796365
12	0x3e6a8940	0.22903919
13	0xbe74add0	-0.23894429
14	0x3e1951a3	0.14972548
15	0x3dc8dbda	0.09807558
16	0x3da44b0d	0.08022127
17	0x3e85ffd7	0.26171753
18	0xbdb8c0f4	-0.09021178
19	0x3c303659	0.010755145
20	0xbecfa37a	-0.4055441
21	0x3e0ed941	0.13950063
22	0x3e63e4af	0.22255205
23	0x3d92cd5d	0.07168076
24	0x3e85cfa1	0.2613497
25	0x3e6a1aed	0.22861834
26	0x3e9c49ce	0.30525059
27	0x3e8a443b	0.2700518
28	0xbf16139d	-0.5862368
29	0xbe23fb86	-0.16013917
30	0x3d82e17d	0.06390665
31	0x3da19fc3	0.078918
32	0x3e89ebd0	0.26937723
33	0x3e9560af	0.29175326
34	0xbec494b3	-0.38394699
35	0x3e279cf5	0.16368468
36	0x3e0b5d8e	0.13609907
37	0xbf046412	-0.51715195
38	0xbe938e61	-0.28819564
39	0xbedbb5b4	-0.42912066
40	0xbe82b289	-0.25526837
41	0xbe40cbb6	-0.1882771
42	0xbe7f3556	-0.2492269
43	0xbe82796b	-0.2548326
44	0x3da74f48	0.081694186
45	0xbf2809c1	-0.65639883
46	0xbea8e884	-0.32989895
47	0x3e7dee0c	0.24797839
48	0xbd87bcb6	-0.06627791
49	0x3c9f516c	0.019448005
50	0xbe4a0ec0	-0.19732189
51	0xbe14ea17	-0.14542423
52	0x3e973328	0.29531217
53	0x3ee1300e	0.43981975
54	0xbe647e7a	-0.22313872
55	0xbe8b2521	-0.27176765
56	0x3e39f275	0.18158896
57	0xbe9ebbf1	-0.31002763
58	0x3e7cdb4a	0.24693027
59	0xbf0af09c	-0.5427339
60	0xbebea5e0	-0.37235928
61	0xbcaca040	-0.021072507
62	0x3e714ce4	0.23564488
63	0x3d04badf	0.032404777

residual_net.2.weight f4 [64, 64]
0	0x3c10a2b9	0.008827859
1	0x3cb7db0c	0.022443317
2	0x3d243cb0	0.04009694
3	0x3c3c6de3	0.011500808
4	0x3d47a9f4	0.048746064
5	0xbdc5295e	-0.09627031
6	0xbd86f20e	-0.06589137
7	0xbde50dc4	-0.11184266
8	0x3d84b5f6	0.06480019
9	0xbdfb0d12	-0.12258352
10	0xbb81cf51	-0.0039614816
11	0xbdb65afb	-0.08904072
12	0xbba0e9d4	-0.004910687
13	0xbe1fe2e4	-0.15613896
14	0xbc3d76e1	-0.0115639875
15	0xbcfe942a	-0.03107651
16	0xbd4e7c0f	-0.05041128
17	0xbd741a71	-0.05959553
18	0xbe054ad7	-0.1301683
19	0xbe37eda2	-0.17961743
20	0xbdf341a0	-0.11877751
21	0xbdc3d202	-0.0956154
22	0x3d572559	0.052525852
23	0xbe017c7a	-0.1264514
24	0x3d0e99a0	0.034814477
25	0xbe1fc4e6	-0.15602455
26	0xbdc984a5	-0.09839753
27	0xbe1a8532	-0.15089872
28	0xbe2d043d	-0.16896148
29	0xbdada42a	-0.084785774
30	0x3e2e2c7b	0.17009155
31	0x3c7a5216	0.01527836
32	0xbe1cf5d1	-0.15328147
33	0xbe127330	-0.14301753
34	0xbd25b65e	-0.040457122
35	0xbd0e937c	-0.03480862
36	0xbe0d0cab	-0.13774364
37	0xbde442d5	-0.1114556
38	0xbe07abb0	-0.13249087
39	0x3bacc969	0.0052730334
40	0x3c9c2123	0.01905877
41	0xbcc2c41c	-0.023775153
42	0xbe12096b	-0.14261405
43	0xbc220dc0	-0.009890974
44	0xbd9a39ff	-0.07530593
45	0xbe084b6c	-0.13310021
46	0x3ba3d051	0.0049991985
47	0xbd8c6851	-0.06855834
48	0x3c1227b6	0.008920601
49	0xbe2f7f5f	-0.17138432
50	0xbdb35025	-0.08755521
51	0xbd8f2294	-0.06989017
52	0x3dd53c7c	0.10411927
53	0xbca2031c	-0.019776873
54	0xbc5f25ba	-0.013619835
55	0xbd1cbb91	-0.038264815
56	0xbdcebf39	-0.100950666
57	0xbd8e9aff	-0.06963157
58	0xbe0a2fae	-0.13494751
59	0xbbd50033	-0.006500268
60	0x3d714624	0.058904782
61	0xbdea844c	-0.11451015
62	0xbc84e1ed	-0.016221011
63	0x3d9a2ae5	0.07527713
64	0xbd68f933	-0.05687828
65	0x3d9c08c4	0.076188594
66	0xbc0c65e3	-0.008569214
67	0x3c82d494	0.015970506
68	0xbde5e0e7	-0.11224537
69	0x3ccb4f6b	0.024818143
70	0xbe233511	-0.15938212
71	0x3b706527	0.0036681385
72	0xbe24df75	-0.16100867
73	0x3c5a5df7	0.013328067
74	0xbc6b1df2	-0.014350401
75	0xbe03b28d	-0.1286108
76	0xbe0503b4	-0.12989694
77	0xbbf85b3a	-0.0075792344
78	0xbe1a453b	-0.15065472
79	0xbd9b720c	-0.07590112
80	0xbd0cc0f2	-0.034363694
81	0xbd0c68c1	-0.03427959
82	0xbd7bcc3d	-0.061474074
83	0x3b16c351	0.0023004601
84	0xbd5a9236	-0.053362094
85	0xbe26ba19	-0.16281928
86	0xbdab51fe	-0.08365248
87	0xbcd3c662	-0.025851432
88	0x3ce2646e	0.02763578
89	0xbe246c77	-0.16057001
90	0xbcbe4898	-0.023227975
91	0xbe179793	-0.14803915
92	0xbd2ffd15	-0.042965967
93	0xbdf5366a	-0.11973269
94	0xbdb3f944	-0.08787778
95	0xbe2ed4b1	-0.17073323
96	0xbd66f20b	-0.056383174
97	0x3d11831a	0.03552542
98	0xbcca03df	-0.024660049
99	0x3d6f3d4e	0.058408074
100	0xbe0462b1	-0.12928273
101	0xbda9fc20	-0.08300042
102	0x3d0ff318	0.03514394
103	0xbc489610	-0.012242809
104	0xbde1f45b	-0.11032935
105	0xbda8a47a	-0.082344964
106	0xbe1cad3f	-0.15300463
107	0xbe154d1b	-0.14580195
108	0xbdf14920	-0.117815256
109	0xbd991f0e	-0.07476626
110	0xbcd1be2d	-0.025603378
111	0xbdc631e1	-0.096774824
112	0xbd2ea3bf	-0.04263663
113	0xbd0210ac	-0.03175418
114	0x3c639e0b	0.013892661
115	0xbe2af82e	-0.16696236
116	0x3d670058	0.056396812
117	0xbd7fb13c	-0.062424883
118	0x3a5b27b1	0.00083601015
119	0x3c04b9b0	0.008100912
120	0xbda91a7f	-0.08257007
121	0xbd30a48c	-0.043125674
122	0xbe091c4d	-0.13389702
123	0xbe2524b4	-0.16127282
124	0xbd6dd22c	-0.058061764
125	0xbdb01e38	-0.08599514
126	0xbda0e32c	-0.078558296
127	0x3d1d847b	0.03845642
128	0x3b51e97a	0.0032030032
129	0xbd33be5e	-0.04388272
130	0x3c985b97	0.018598361
131	0x3cb60725	0.022220204
132	0xbc62a826	-0.013834035
133	0x3ca0ac78	0.01961349
134	0xbd8ecddc	-0.06972858
135	0xbe33db66	-0.17564163
136	0x3dba0105	0.09082226
137	0x3de6e331	0.11273802
138	0xbe71422c	-0.23560399
139	0xbd9142ef	-0.07092845
140	0xbe0d7993	-0.13815908
141	0x3d433935	0.04766198
142	0x3e0a0190	0.13477159
143	0x3d211360	0.039325118
144	0x3db5883d	0.08863876
145	0x3d67b897	0.056572523
146	0xbe88f362	-0.26748186
147	0xbd2dfa46	-0.042475007
148	0xbe106a84	-0.14103132
149	0x3dab19e8	0.083545506
150	0xbe2c2621	-0.1681142
151	0x3d9943e3	0.074836515
152	0x3d27ca9c	0.040964708
153	0x3cf44827	0.029819561
154	0x3d650aa0	0.055918336
155	0x3daf9f1e	0.08575271
156	0xbe1023f0	-0.14076209
157	0xbd799735	-0.060935218
158	0x3d456cb6	0.048199378
159	0x3da2ff9a	0.079589084
160	0xbd11aa2f	-0.03556269
161	0x3ce41540	0.027842164
162	0xbd7ca91b	-0.06168471
163	0x3dcc7451	0.09983123
164	0x3e9c75e7	0.30558702
165	0xbc288700	-0.010286093
166	0xbcca210b	-0.02467396
167	0x3c8c8ff3	0.017158484
168	0x3e01aba9	0.1266314
169	0x3e394368	0.1809212
170	0x3d0bdf0f	0.034148272
171	0xbdf757f6	-0.12077324
172	0xbd55a1f6	-0.05215641
173	0xbe271a5f	-0.16318654
174	0x3e24f9b9	0.16110887
175	0x3dd3102e	0.103058204
176	0x3cddd565	0.027079294
177	0x3e110dc8	0.14165413
178	0xbdc4d318	-0.096105754
179	0x3e1de5c9	0.15419687
180	0xbdf13793	-0.11778178
181	0xbd887d76	-0.06664555
182	0xbdfe7814	-0.12425247
183	0xbe26f36e	-0.16303799
184	0x3e52fc1a	0.20603982
185	0xbecb1fac	-0.396726
186	0xbda1bb70	-0.07897079
187	0x3d53b277	0.05168387
188	0x3e0ae017	0.13562046
189	0xbdff2810	-0.12458813
190	0xbe9f2dbe	-0.31089586
191	0xbe34f896	-0.17672953
192	0xbe327337	-0.17426763
193	0xbe3183cd	-0.17335434
194	0x3d388cd3	0.045056175
195	0xbda3002c	-0.07959017
196	0xbe2dd59e	-0.1697602
197	0xbbbf2d8c	-0.005834287
198	0xbd866d1b	-0.06563779
199	0xbd6ecfa2	-0.058303483
200	0xbdd5a438	-0.10431713
201	0xbdc25497	-0.094887905
202	0xbd9ae7f0	-0.0756377
203	0x3b3ced84	0.0028828094
204	0x3c8cd182	0.017189745
205	0xbe07bf38	-0.13256538
206	0x3c8a1dca	0.016859908
207	0xbe19cc30	-0.15019298
208	0xbdccda14	-0.100025326
209	0xbded0b4a	-0.11574419
210	0xbd55828d	-0.052126456
211	0xbdac1e2a	-0.08404191
212	0xbd97bc2c	-0.07408938
213	0xbe380cd6	-0.17973647
214	0xbd78456b	-0.060613077
215	0xbc608a35	-0.013704826
216	0xbdb8484d	-0.08998165
217	0xbe0d86d5	-0.13820966
218	0xbd7b8cc7	-0.061413553
219	0xbdfb202b	-0.12261995
220	0xbe1942a2	-0.14966825
221	0x3d8e04f5	0.06934539
222	0xbcd03c24	-0.025419302
223	0x3d8281e0	0.06372428
224	0xbde26c9e	-0.11055873
225	0xbca2f6b9	-0.019893037
226	0xbe22bb1c	-0.15891689
227	0xbb994db6	-0.0046784533
228	0xbdd7f538	-0.10544819
229	0xbdfc223b	-0.123112164
230	0xbe08320d	-0.13300343
231	0x3d6431c8	0.055711538
232	0xbd9cfc3c	-0.076652974
233	0xbd637ad5	-0.055537064
234	0x3caed2d4	0.021340765
235	0xbe032597	-0.12807308
236	0x3d8a4257	0.067509346
237	0xbe383434	-0.17988664
238	0xbd2bc345	-0.04193427
239	0xbe2f524b	-0.17121236
240	0xbe00a266	-0.1256195
241	0xbd54b5df	-0.05193126
242	0xbbd2ea89	-0.00643665
243	0x3d88f091	0.066865094
244	0x3d404876	0.046944104
245	0x3a8f13b7	0.001091591
246	0x3d72d37c	0.05928372
247	0xbce2adb2	-0.027670715
248	0xbdb1b7a5	-0.086776055
249	0xbda33aaf	-0.079701774
250	0xbd817688	-0.06321436
251	0x3d0332e8	0.03203097
252	0xbcb2da66	-0.021832656
253	0xbe0c8c24	-0.13725334
254	0x3bac3ec9	0.005256508
255	0xbc953ca4	-0.018217392

residual_net.2.bias f4 [64]
0	0x3d8a1568	0.06742364
1	0xbdfe9593	-0.12430873
2	0x3ce9dd23	0.028547829
3	0x3c8c239d	0.017106825
4	0xbdf7fdf4	-0.121089846
5	0xbc229ee9	-0.009925582
6	0xbc47c625	-0.012193237
7	0xbde0f73c	-0.10984656
8	0x3d8d08b1	0.068864234
9	0xbdf61276	-0.1201524
10	0x3d6cfa2c	0.05785577
11	0xbcd2d725	-0.025737355
12	0xbe0958ad	-0.13412733
13	0xbb767a5b	-0.003760955
14	0x3c56995e	0.013098089
15	0xbd75da1b	-0.060022455
16	0x3d82246c	0.06354603
17	0x3b644d41	0.0034836086
18	0x3c07c524	0.008286748
19	0xbe29ea31	-0.16593243
20	0xbe2539d4	-0.16135341
21	0xbc3a4b5e	-0.011370508
22	0xbd484430	-0.048893154
23	0xbd809a9f	-0.06279492
24	0x3d651bd6	0.05593475
25	0xbdf576d2	-0.11985554
26	0x3d0c6980	0.0342803
27	0x3d11fe0a	0.03564266
28	0xbd0ab48e	-0.033863597
29	0xbdc3c462	-0.095589414
30	0xbe2e9326	-0.1704832
31	0x3d5311fa	0.051530816
32	0xbe018ba1	-0.1265092
33	0xbd34beb2	-0.044127174
34	0x3c10ee4e	0.008845879
35	0xbdd79f54	-0.10528436
36	0x3d18a956	0.037270866
37	0xbe16bf21	-0.14721347
38	0x3c2e6750	0.010644749
39	0xbe0e85df	-0.13918255
40	0x3c4e1b6d	0.012579781
41	0xbb076648	-0.002066033
42	0xbcdd681d	-0.027027184
43	0xbda6aff2	-0.08139028
44	0xbe301b81	-0.17197992
45	0xbd52395e	-0.05132424
46	0xbddb6d62	-0.107142225
47	0xbd180500	-0.037114143
48	0x3bb96c2e	0.005658648
49	0xbd76528b	-0.060137313
50	0xbe27c3a1	-0.1638322
51	0x3de24f9d	0.11050341
52	0xbccc5776	-0.024944048
53	0xbd4e1124	-0.050309315
54	0xbd98d06a	-0.07461627
55	0xbe1d033a	-0.15333262
56	0x3ca7895f	0.020451246
57	0xbde1a1ca	-0.11017187
58	0x3dcd127c	0.10013291
59	0xbdb5b820	-0.0887301
60	0xbe234ba6	-0.15946826
61	0x3d27bbd2	0.040950604
62	0x3d8a018b	0.067385755
63	0xbd2490c3	-0.040177118

residual_net.4.weight f4 [3, 64]
0	0xbd467166	-0.04844799
1	0x3b457668	0.003013039
2	0xbd32c877	-0.04364821
3	0x3d37f551	0.044911686
4	0x3d40cc70	0.047069967
5	0x3d289ce9	0.041165266
6	0x3d2db21a	0.04240618
7	0x3d36f070	0.044662893
8	0x3cd911a8	0.026497677
9	0x3d293888	0.041313678
10	0xbd860449	-0.06543786
11	0x3cf0a49a	0.029375363
12	0x3c930872	0.017948363
13	0xbd3b7b2f	-0.045771774
14	0xbc3fab24	-0.011698518
15	0x3d28511f	0.041092988
16	0xb90821c9	-0.00012982557
17	0xbdaee698	-0.08540076
18	0x3cfe6789	0.031055229
19	0xbd92cbfe	-0.07167815
20	0x3d2f2dce	0.042768292
21	0x3d361f5a	0.044463493
22	0x3d124768	0.03571263
23	0xbbdb206c	-0.0066872146
24	0x3d14fc5e	0.03637349
25	0xbbed63fa	-0.007244584
26	0x3d2632eb	0.040575903
27	0x3d2d0d38	0.042248935
28	0x3c0efbcf	0.008727028
29	0x3d230a5a	0.039804794
30	0x3d17cc6f	0.037060197
31	0xbc43d298	-0.011952065
32	0x3d391225	0.04518332
33	0x3ccb25f1	0.024798365
34	0x38f90500	0.000118741766
35	0xbda9ddff	-0.082942955
36	0xbcb6f32a	-0.022332747
37	0x3d32ceb4	0.04365416
38	0x3d0ca9d2	0.03434164
39	0x3d2a93ef	0.041644987
40	0xbd293e10	-0.041318953
41	0x3c458835	0.0120564
42	0x3d2b41a1	0.041810635
43	0x3cc8b766	0.024501514
44	0x3d100ca1	0.035168294
45	0x3d1ea0ad	0.03872745
46	0x3d2bec3d	0.04197334
47	0x3d1e2ebc	0.038618788
48	0x3d2b1560	0.04176843
49	0x3d2b92ae	0.04188793
50	0xbd756e75	-0.059919793
51	0xbcba261a	-0.022723246
52	0x3d2e836d	0.042605806
53	0x3e280d5a	0.16411343
54	0x3d49cdfc	0.049268708
55	0x3d2471d5	0.04014762
56	0x3bc9da07	0.006160024
57	0x3d2f4c30	0.042797267
58	0xbe17a149	-0.14807619
59	0xbd68f5e2	-0.056875117
60	0xbd359aeb	-0.044337194
61	0x3d19fe90	0.037596285
62	0x3cb2526f	0.021767823
63	0x3d093613	0.033498835
64	0xbb4c6403	-0.0031187541
65	0x3d06a3e1	0.03287113
66	0xbd41dc46	-0.04732921
67	0x3d3a5047	0.045486715
68	0x3d127c8a	0.0357633
69	0x3d35fac5	0.044428606
70	0x3d385cb3	0.04501028
71	0x3d3a8572	0.04553742
72	0x3d2b0907	0.041756656
73	0x3d2f82c7	0.04284933
74	0xbd10d5bb	-0.03536008
75	0x3d3515fc	0.04421042
76	0x3d12beff	0.03582668
77	0xbbaafa4b	-0.0052178255
78	0x3bb0c177	0.0053941566
79	0x3d377660	0.044790626
80	0x3d13b042	0.036056764
81	0xbcc07a76	-0.023495894
82	0x3cf1c1c8	0.029511347
83	0xbd4be200	-0.049776077
84	0x3d378124	0.044800892
85	0x3d38c3de	0.04510867
86	0x3d32d814	0.0436631
87	0x3cd2799a	0.02569275
88	0x3d3252d1	0.04353601
89	0x3b29ad02	0.0025890474
90	0x3d34c525	0.044133324
91	0x3d38b859	0.045097683
92	0x3d0903bf	0.03345084
93	0x3d31c4bc	0.04340051
94	0x3d310bb6	0.04322406
95	0x3cef1792	0.029186044
96	0x3d3a6fb3	0.04551668
97	0x3d1666e3	0.036719214
98	0xbe0997c9	-0.13436808
99	0xbdec72c0	-0.11545324
100	0x3cd46650	0.025927693
101	0x3d3a5afa	0.04549692
102	0x3d2dc2ba	0.042422034
103	0x3d36518f	0.044511374
104	0x3bcf6afe	0.006329893
105	0x3d160206	0.036623023
106	0x3d34d2bd	0.04414629
107	0x3d13be1f	0.036069985
108	0x3d2a80f2	0.041626878
109	0x3d36be9d	0.044615377
110	0x3d38fb4c	0.04516153
111	0x3d38b90e	0.045098357
112	0x3d3441b6	0.04400798
113	0x3d37ecf1	0.0449037
114	0xbd709365	-0.058734316
115	0xbe2eb1dc	-0.17060035
116	0x3d38a454	0.04507859
117	0x3bcc40af	0.006233297
118	0x3cf50878	0.029911265
119	0x3d363c8f	0.044491347
120	0x3d1a5b7a	0.037684895
121	0x3d37dfe1	0.044891242
122	0x3dc605a2	0.09669043
123	0xbd6be05d	-0.057587016
124	0xbbe7815e	-0.0070649823
125	0x3d33d551	0.043904606
126	0x3d3527d9	0.044227455
127	0x3d29d0e4	0.04145898
128	0x3d0952a5	0.03352608
129	0x3d37e3e6	0.044895075
130	0xbe2441c6	-0.16040716
131	0x3d38ce83	0.04511882
132	0x3d15cc05	0.03657152
133	0x3d319173	0.0433516
134	0x3d358a63	0.04432143
135	0x3d35eb04	0.04441358
136	0x3d293bdc	0.041316852
137	0x3d1f8296	0.038942896
138	0x3c120605	0.008912568
139	0x3d33f3bd	0.04393362
140	0x3cc6a6bb	0.024249425
141	0xbcb386d8	-0.021914884
142	0xbcca6585	-0.024706611
143	0x3d3693ec	0.044574663
144	0x3d16262c	0.036657497
145	0xbcae7770	-0.021297187
146	0x3cd2f134	0.02574978
147	0xbd547b98	-0.05187568
148	0x3d34df7a	0.044158436
149	0x3d373c96	0.044735514
150	0x3d322ee4	0.04350175
151	0x3ccd2c3c	0.025045507
152	0x3d3217ce	0.043479733
153	0xbc64204e	-0.013923718
154	0x3d30984f	0.043114003
155	0x3d2ef2c2	0.04271198
156	0x3c168294	0.009186406
157	0x3d3b9f52	0.045806237
158	0x3d215a99	0.03939304
159	0x3c238429	0.00998024
160	0x3d3a25b9	0.04544613
161	0x3ce8b3f5	0.028406123
162	0x3db3b569	0.087748356
163	0x3cb83135	0.022484401
164	0x3c46e471	0.012139426
165	0x3d395bef	0.04525369
166	0x3d28ec38	0.0412409
167	0x3d34c9a0	0.044137597
168	0x3aae617c	0.0013304199
169	0x3ce0c977	0.027439816
170	0x3d3104fa	0.043217637
171	0x3c9967c6	0.01872624
172	0x3d2048ca	0.039131917
173	0x3d2d3d31	0.042294685
174	0x3d353b39	0.044245932
175	0x3d343796	0.043998323
176	0x3d3364bb	0.043797236
177	0x3d367069	0.044540796
178	0xbd7410c5	-0.059586305
179	0x3b0c0ec8	0.0021371115
180	0x3d331932	0.0437252
181	0xbe19c0e9	-0.15014996
182	0x3cc65eb9	0.02421509
183	0x3d30d333	0.043170165
184	0x3d0cece1	0.034405593
185	0x3d33cfe6	0.04389944
186	0xbe4539a6	-0.19260272
187	0xbdaf1af3	-0.08550062
188	0x3e731be2	0.23741105
189	0x3d3815a0	0.0449425
190	0x3d2e26a6	0.042517327
191	0x3d1e01bc	0.038575873

residual_net.4.bias f4 [3]
0	0x3cec85eb	0.02887245
1	0x3d28550a	0.041096725
2	0x3d4f1e79	0.05056617
