models/trained/hybrid_physics_residual_weights.pth (torch, 22944 bytes, 8 tensors)

physics_model.motor_gains f4 [4]
000000 74 db 1e 41 04 94 1e 41 25 4c 1e 41 1a da 1e 41
       9.928577 9.911137 9.89359 9.928247

physics_model.friction_coeffs f4 [4]
000000 35 15 d4 3e 01 1c cf 3e 2b e8 c9 3e c2 a2 d6 3e
       0.4142243 0.40451053 0.39434943 0.4192105

residual_net.0.weight f4 [64, 6]
000000 7a 24 7d 3e 4b 81 bc be 71 08 a5 3d 82 ab 5f 3c
       0.24720946 -0.36817393 0.08058251 0.0136517305
000010 da 4a a5 3e 14 cb 59 3e 08 3f 7e be c2 f8 ae be
       0.3228367 0.21268874 -0.24828732 -0.34174162
000020 15 72 3e 3e 50 b5 30 be ac 37 e5 bc a7 fe 85 be
       0.18598206 -0.17256665 -0.027980648 -0.26170847
000030 52 02 ff bc 12 91 71 3e bd 0d d9 be 26 58 96 be
       -0.031129036 0.23590496 -0.42393294 -0.29364127
000040 1a 7c 75 be 3e 41 b6 3e f1 98 48 3e 7b 86 0d be
       -0.23973122 0.3559665 0.19589593 -0.13820831
000050 14 7c 88 bd f1 d6 a6 3e cb 0e 56 3e 9c 55 5f be
       -0.06664291 0.32585862 0.2090408 -0.21810001
000060 c0 8d bf 3e 0e 10 69 be 8a 78 90 be 0e 88 82 be
       0.37412834 -0.2276003 -0.28216964 -0.25494426
000070 f2 d9 0a bb 1e be 82 3e f0 82 49 3e 50 e3 3d 3e
       -0.0021187034 0.25535673 0.19678855 0.18543744
000080 ce 1b 80 be 7e e2 49 be 55 83 d8 bd cc e8 d2 bd
       -0.25021213 -0.19715306 -0.105719246 -0.10298309
000090 a1 02 90 3e 13 f3 1f 3d a6 fc 67 be 31 6a 3d 3e
       0.28127006 0.039050173 -0.22654971 0.1849754
0000a0 5c 94 05 3e 63 4f 5c 3c d8 f4 a9 bd cb e6 ac be
       0.13044876 0.013446662 -0.08298653 -0.3376983
0000b0 5a cd 94 be b4 68 88 bd b4 ae 98 be bf cb a1 3e
       -0.2906292 -0.066605955 -0.29820788 0.31600758
0000c0 5b 37 28 3e 63 ac e7 3c 95 3e 93 3d b2 95 cd be
       0.16427366 0.028280443 0.07189671 -0.4015327
0000d0 4a 13 b8 3e 98 1f 67 be 1c 00 18 3e 0c 27 b1 be
       0.35952216 -0.22570646 0.14843792 -0.34600103
0000e0 61 95 09 be db 37 1e be 76 d0 cd bd ea 44 2c 3e
       -0.1343589 -0.15450995 -0.100495264 0.16823164
0000f0 7b e4 a2 3e 27 86 ad 3e a0 39 83 bd 12 a1 97 3e
       0.31814942 0.33891413 -0.064074755 0.29615074
000100 8b 52 03 be 8f c2 69 be b5 77 37 3e 70 12 93 bd
       -0.12824456 -0.22828124 0.17916758 -0.07181251
000110 38 de bc be 8d a0 a4 3e 7d 75 91 be 7a ac 8a bc
       -0.3688829 0.3215374 -0.2840995 -0.016927946
000120 34 48 4b 3e c3 33 05 3d fc 84 d2 3e 54 0b 8d 3e
       0.19851762 0.032520067 0.41117084 0.27547705
000130 bd 84 3e be 25 37 38 be 24 b5 b8 3e f5 2a 7d 3e
       -0.18605323 -0.17989786 0.360757 0.24723418
000140 70 47 c5 be e3 c4 2e be 1e c6 04 3d 5a 7a a1 be
       -0.38531065 -0.17067294 0.0324155 -0.3153866
000150 f8 64 c6 bc c9 79 c6 be 1a a3 b4 be 0b 49 70 bd
       -0.024218068 -0.3876479 -0.35280687 -0.05866341
000160 5f 9f 9d be 75 3a bc 3e c1 b2 37 3d ef 4b 92 3e
       -0.30785653 0.3676335 0.044848207 0.28573558
000170 7b 36 17 bc 4b f4 54 be d7 0b 17 3e c6 2c d6 bd
       -0.009229298 -0.20796315 0.1475061 -0.104577586
000180 de 6c 40 be cc 81 17 be 35 e4 87 bd 28 42 20 3e
       -0.1879153 -0.14795607 -0.06635324 0.15650237
000190 18 0d 61 be 51 c9 95 be d0 d9 62 bd 40 d9 8f 3e
       -0.21977651 -0.29255155 -0.055383503 0.28095436
0001a0 a4 f0 a8 3e 71 39 88 be 33 2b 42 be a8 ac 59 3e
       0.32996094 -0.26606324 -0.18961792 0.2125727
0001b0 3b 7d 9b 3d 16 7d 9e be 79 07 01 3e 18 88 0c be
       0.07592245 -0.30954808 0.12600507 -0.1372379
0001c0 63 aa 43 be bd 71 e6 bc 0b 56 9c 3e 89 8a 1e bd
       -0.19107966 -0.028130407 0.30534396 -0.038706336
0001d0 ab ae 52 3c fa fc 24 be 55 60 da bd d4 47 b6 be
       0.012859027 -0.16112128 -0.10662905 -0.35601676
0001e0 cf b2 c1 be a6 22 ed bd 51 a0 ae 3e bc 1e 3f 3e
       -0.37831733 -0.11578874 0.34106687 0.18664068
0001f0 f5 5d cf 3d f6 55 1b 3d 05 a2 f9 bd 0f 00 7e 3c
       0.10125343 0.037923776 -0.12189106 0.015502944
000200 97 e7 a2 3e 6c da bf be b7 e3 c4 3d 98 80 22 be
       0.31817314 -0.3747133 0.09613746 -0.15869367
000210 b0 83 19 be 8d 2d 30 be 06 21 72 3e 79 4a b9 3e
       -0.14991641 -0.17204876 0.2364541 0.3618963
000220 01 fe b8 be 41 68 bc 3e f8 b5 b9 3e 84 8e fc 3d
       -0.3613129 0.3679829 0.36271644 0.1233187
000230 5a 32 93 3e ed 25 5a 3e bc 29 c7 3e 48 60 81 3e
       0.28749353 0.2130353 0.38899028 0.2526877
000240 3f b8 90 3e 8d 32 9d 3e 28 dd b4 be f3 42 d1 be
       0.2826557 0.3070263 -0.3532498 -0.4087139
000250 77 29 be 3e 0b fa 40 be 55 0b 5b 3e 53 d0 b9 3e
       0.3714101 -0.18845384 0.21391042 0.3629175
000260 70 0e a1 be 77 79 de 3d ee 3d 67 be 78 b0 af be
       -0.31456327 0.10863011 -0.22582218 -0.34314322
000270 a6 f5 74 3e 70 88 4a bd 5a c5 3a 3e 3f 09 a8 3e
       0.23921832 -0.049446523 0.18239346 0.32819554
000280 10 6a aa 3e 21 c3 f7 bd b6 d1 32 bd 36 c6 52 3e
       0.33284044 -0.12097765 -0.043657027 0.20583424
000290 0d 5c d3 be ac 04 81 3e a4 7b 06 3c 52 32 46 3e
       -0.41281167 0.25198877 0.008208189 0.19355133
0002a0 21 d6 08 be d3 2d ad 3e ef 86 86 3e e6 53 f5 3c
       -0.13362934 0.33824024 0.2627482 0.029947232
0002b0 65 21 d2 3d bc c1 46 3c 7f 8a 0f be 4e 9a 64 3e
       0.10260276 0.012131151 -0.14017676 0.22324488
0002c0 38 ba a5 3e 65 40 4a 3c ec c3 d7 bd 05 65 41 be
       0.32368636 0.012344454 -0.10535416 -0.18886192
0002d0 69 cd 92 3e 46 f5 de be aa c2 01 3c 00 68 a0 3e
       0.2867234 -0.43546504 0.007919947 0.31329346
0002e0 18 51 8f 3e ec c1 bc 3d ad a0 1a 3e 77 d5 b2 be
       0.27991557 0.09216675 0.15100355 -0.34928486
0002f0 d1 ca 14 3e 95 76 03 3e 92 f8 b6 be 5b fb 6c 3e
       0.14530493 0.12838204 -0.3573652 0.2314276
000300 fd 3e d2 3d 3c 09 f9 3c 92 29 8f be 5e 62 dc bd
       0.1026592 0.030399911 -0.27961403 -0.107609496
000310 fa f9 6e 3e 60 d9 fa bd 9a df 5d bc f1 18 bf 3e
       0.23337546 -0.12248492 -0.01354208 0.37323716
000320 01 c2 a3 bd af 7d 41 bd fb 57 8f be 44 0e af be
       -0.07995988 -0.047239 -0.2799681 -0.3419057
000330 d5 a0 95 3d 86 68 bb bd ce 39 c6 be a1 58 b7 3e
       0.07306067 -0.09150796 -0.38715976 0.35809806
000340 b6 59 c7 bc e6 40 c2 be 68 bc 45 be 06 ae 90 be
       -0.02433477 -0.3794014 -0.19310153 -0.2825777
000350 f7 e7 27 be 3a cc 9e be b5 86 0f 3e 91 c9 bb 3e
       -0.16397081 -0.31015188 0.1401623 0.3667722
000360 1e 58 d5 be e7 57 1c bd 94 42 a8 bd 13 bb 33 3d
       -0.4166879 -0.038169768 -0.08215824 0.04387958
000370 be 00 00 3e 4f 88 83 be cd 00 3d 3e 04 e5 61 be
       0.12500283 -0.25689933 0.18457337 -0.22060019
000380 77 b6 98 3e 47 a5 13 3d 77 c2 dc 3d cb 69 58 be
       0.2982671 0.036046293 0.10779279 -0.21134107
000390 94 51 e4 bd 00 54 d7 3e 2e 5a 31 3d be 15 00 be
       -0.11148372 0.42056274 0.043298893 -0.12508294
0003a0 3b c0 89 bc ff 37 98 be 52 6f b3 3e 1a 08 6e 3e
       -0.016815295 -0.29730222 0.35045868 0.23245278
0003b0 10 f2 a2 be 00 1b 98 3e 53 e4 60 be 64 f6 8d be
       -0.31825304 0.297081 -0.21962099 -0.27727044
0003c0 c6 1a 04 be 31 e8 c1 3e 7c 42 96 be 7d 2c f2 bd
       -0.12900838 0.3787246 -0.293476 -0.11824892
0003d0 72 67 62 bd 90 34 bf be c6 94 c8 be d7 62 71 3d
       -0.055274434 -0.3734479 -0.39176005 0.05893215
0003e0 5e 79 97 3e 38 74 1c be 1c ad a5 be 24 2d c6 bc
       0.29584783 -0.15278709 -0.32358634 -0.024191447
0003f0 67 da 5f 3d f9 eb 1b 3e 49 bc 87 be 79 bd 58 be
       0.054651644 0.15226735 -0.26510838 -0.21166028

residual_net.0.bias f4 [64]
000000 d4 c9 cb be 88 14 4d be 61 ef 7e be 0b 9d 92 3e
       -0.3980242 -0.20027363 -0.24896003 0.2863544
000010 1c 28 29 3e 15 64 0e 3e 2c a3 9c be 3a 5b d7 be
       0.16519207 0.13905366 -0.3059324 -0.42061788
000020 76 f1 26 3e c0 3c 81 be 93 8a 55 be 74 0d 13 be
       0.16303048 -0.2524166 -0.20853643 -0.143606
000030 d7 db 15 be e6 9e a1 bd c9 69 e3 bd 3f 72 cc 3e
       -0.14634643 -0.078916356 -0.11104161 0.39930913
000040 42 7b 61 be 58 0a 55 3e e9 0d 29 39 70 91 c2 be
       -0.22019675 0.20804727 0.00016122278 -0.38001585
000050 0a ac 03 be 3d 71 8a 3e 51 66 07 3e ab 76 b8 3e
       -0.12858596 0.2703952 0.13222624 0.36028036
000060 b8 97 b6 be 1a 6a 9a be 65 54 98 3d ad d6 93 be
       -0.35662627 -0.30159074 0.07437972 -0.28874722
000070 42 40 97 3e d3 df b3 bd 98 76 99 be 12 ae 32 3e
       0.29541212 -0.087829255 -0.29973292 0.17449215
000080 cd e9 b2 be c6 1a 89 be 89 f0 92 be 02 9d a3 be
       -0.34944 -0.2677824 -0.2869914 -0.31955725
000090 96 f6 96 be 7c 67 d0 be 70 f8 80 be f1 c4 d1 3e
       -0.29485005 -0.40703952 -0.25189543 0.40970567
0000a0 d6 e8 bf be 15 74 97 3e fc a6 d6 3e e7 ad 58 be
       -0.37482327 0.2958075 0.41924274 -0.21160088
0000b0 14 23 d8 3e 22 5c 00 3e 1d be 91 be 84 27 d9 3e
       0.42214262 0.12535146 -0.28465357 0.4241296
0000c0 99 e9 17 3e 39 b8 5e 3e b1 50 77 be 46 43 c5 be
       0.14835204 0.21749963 -0.24151875 -0.38527888
0000d0 fc 83 25 be 82 0b ba 3c b8 00 c5 3e 0c ee 6d 3d
       -0.1616363 0.022710565 0.3847711 0.058088347
0000e0 dd 6b ad be 9c 3c 57 be aa a6 0d bc eb c4 83 3e
       -0.33871356 -0.21019214 -0.008645693 0.25736174
0000f0 2c ff 09 be fd 8b 89 be a7 6b 78 be 07 11 a7 3e
       -0.13476247 -0.26864615 -0.24259816 0.32630178

residual_net.2.weight f4 [64, 64]
000000 b6 21 c4 bd 76 2a 6d bc 22 28 ca 3d fb 11 37 bd
       -0.09576742 -0.0144754555 0.09870936 -0.044694882
000010 f5 25 b4 3d bf 83 ad bc 34 a1 76 bd dd a1 6f bd
       0.08796302 -0.021180985 -0.06021233 -0.058503974
000020 f9 5f 52 3d c6 c7 c9 bd ee ab 05 3c f8 f9 e6 3d
       0.051361058 -0.09852557 0.008158667 0.112781465
000030 e7 ee 66 3d 9b 18 f8 3d b3 da e1 bd 36 cd c9 3d
       0.05638018 0.12114068 -0.11028042 0.09853594
000040 07 13 91 3d e9 99 a4 3d d3 e1 fa bc bf aa ab bd
       0.07083707 0.080371685 -0.03062526 -0.083821766
000050 ea 6a 95 bd 13 06 9d 3d 05 14 60 bd 99 40 6f 3d
       -0.07295783 0.07667174 -0.054706592 0.058411215
000060 a8 74 22 3e 96 ce 03 3d 9a 92 d2 bd 44 b5 76 3d
       0.15864813 0.032179438 -0.10281868 0.060231462
000070 0d 62 b7 3c c1 e6 0a bc bc 28 13 be 7f 48 b5 bd
       0.022385621 -0.008477868 -0.14371008 -0.08851718
000080 75 88 88 3d 70 69 92 bd 41 9b aa bd d3 02 dc 3d
       0.06666652 -0.07149017 -0.083303936 0.10742726
000090 63 9d 8b 3d 0c 22 11 be f0 96 9c 3b 92 2a 64 bd
       0.068171285 -0.14173144 0.0047787353 -0.05570466
0000a0 da 92 78 3a 61 de bf 3c 3e 63 51 bd 5f b8 a0 bd
       0.0009482332 0.023421468 -0.051120035 -0.07847666
0000b0 5a a8 f1 3c 95 32 c4 3d 65 fa 4d bc 38 36 cf 3d
       0.029499222 0.0957996 -0.012571906 0.10117763
0000c0 27 58 0c 3e d2 fc 98 3d 41 52 2a 3d 88 2c b9 bc
       0.13705502 0.07470097 0.04158235 -0.022604242
0000d0 2f 7f 19 bd cb de 75 3d 62 c1 69 bc 82 8b 46 3d
       -0.037474807 0.060026925 -0.014267297 0.04847289
0000e0 88 f1 27 be ed 65 64 3c a3 d1 d8 3d 87 f7 03 be
       -0.1640073 0.013940317 0.1058686 -0.12887393
0000f0 a9 bb 04 be 9b 45 d1 3d f4 97 0d be cb 7c a5 bb
       -0.12962212 0.10218354 -0.13827497 -0.005050277
000100 89 ce 2c 3d 97 b3 ab bd 00 38 63 bd 0e da 25 3d
       0.042189155 -0.083838634 -0.055473328 0.040491156
000110 a7 39 c9 bd 89 5d d7 bc 4e c4 b9 bd 1c ae 83 3d
       -0.098254494 -0.026289718 -0.09070645 0.06429693
000120 77 81 91 bd 02 05 b7 bb de 9b b9 bd 61 24 b1 3d
       -0.071047716 -0.005585314 -0.090629324 0.08649517
000130 a5 5f d0 bd b0 c5 2e 3c a8 13 89 3c 7a 07 d1 bb
       -0.10174493 0.01066725 0.016733006 -0.006379065
000140 2b 2e 36 3c f9 8e ea bd db 35 00 be 2c e3 5d 3d
       0.011119406 -0.11453051 -0.12520544 0.054171726
000150 fd fd af 3c 5c 39 b7 bd 54 42 ea bd f9 c8 ba bd
       0.021483416 -0.08946487 -0.11438432 -0.09120364
000160 3c b2 c4 3d 46 4b c0 3d 3d 81 75 bd 1b 1b f7 bd
       0.09604308 0.09389357 -0.059937704 -0.12065717
000170 9c 8f 19 3d dd e9 34 bd c5 48 46 bd d9 55 0f bd
       0.037490472 -0.044168342 -0.048409242 -0.03499398
000180 af fd e3 3d c6 98 4f 3b 06 f5 a5 3d ec 39 58 bd
       0.11132371 0.0031676753 0.08103375 -0.052789614
000190 be 02 90 bd cf bd 3a bd 93 4a 92 bd 71 e8 10 bd
       -0.07031773 -0.04559117 -0.0714313 -0.035377923
0001a0 8e 24 cd bd 16 2d bf bd f1 5d ec 3d 0a 82 53 bd
       -0.10016738 -0.09334771 0.115413554 -0.051637687
0001b0 8c ed 12 3c 71 59 eb bd 4b 32 e5 bd 11 60 0a 3e
       0.008967768 -0.11491669 -0.11191233 0.13513209
0001c0 c3 39 5a bd fb cf ab 3d fd 46 39 3d a4 4f 64 bd
       -0.053277742 0.083892785 0.045233715 -0.055740014
0001d0 42 d8 a0 bd a2 f6 34 3d 57 a9 b6 bd 96 0a f5 3d
       -0.07853748 0.04418052 -0.08919018 0.1196491
0001e0 d6 60 35 3d 9c 07 c8 3d b4 84 cf 3c f1 53 0d 3d
       0.044281803 0.097670764 0.025331832 0.03450388
0001f0 d6 dd ac bd ce bc b8 bd b0 bb 8f bd 56 8e 97 3d
       -0.08440749 -0.09020387 -0.070182204 0.07400195
000200 7e 85 da bd b5 c1 d2 3d d8 29 3c 3d f5 4d ff bc
       -0.10669993 0.10290853 0.045938343 -0.031165102
000210 56 11 f0 3d 4b bc c2 3d e4 2e 2e 3e d1 3f 47 bd
       0.117220566 0.0950857 0.17010075 -0.048644844
000220 2b 26 36 3d ee 81 aa bd ec 5e 1a 3e 06 de bb 3c
       0.044469994 -0.08325563 0.15075272 0.022933017
000230 ce 4d 98 bc ed 53 0c 3e 95 c2 b8 3d 8c ca c0 3d
       -0.018591788 0.1370389 0.090214886 0.09413633
000240 25 d3 05 bc 84 72 21 be 2b 39 91 bd 70 0c 20 3d
       -0.008168017 -0.1576634 -0.07090982 0.03907436
000250 1c d5 d8 bd ec a9 8d bb 6e 98 9e 3c 97 d7 a8 3d
       -0.105875224 -0.004323235 0.019359794 0.082442455
000260 95 8d eb 3d 97 25 43 bc 98 9e 26 3d 08 1f 11 bd
       0.11501614 -0.011910818 0.04067859 -0.035429984
000270 f3 71 41 bd 1c e2 27 3d 19 5f 75 3d b9 4e c7 bc
       -0.04722781 0.04098712 0.059905145 -0.02432953
000280 68 82 26 3d 83 7e 1c 3e ef e2 da 3d 5d 90 f1 bc
       0.04065171 0.15282635 0.106878154 -0.029487783
000290 15 9a 69 3d f4 2a d1 bd de 8b d4 bd 2b 32 9b bd
       0.05703171 -0.10213271 -0.1037824 -0.07577928
0002a0 a9 5e 03 3d 1c 4f 5d 3d 07 2e de 3d 7c 68 0f 3e
       0.032072697 0.054030523 0.10848623 0.14004701
0002b0 7f ba c7 3c 06 a1 04 3d ac b3 16 3c e1 42 e8 bd
       0.02438092 0.032380126 0.009198111 -0.11340881
0002c0 bc 61 1c 3e 1e a8 35 3d 12 93 a9 3d ad 38 26 bd
       0.15271658 0.044349782 0.082800046 -0.040581394
0002d0 58 54 0e 3e 9a be 1a 3d 79 d3 32 bd 19 22 67 3d
       0.13899362 0.037779428 -0.043658707 0.056429002
0002e0 3b 50 f4 bd 3d b5 00 3e f8 3d dd 3d 02 6a 85 3d
       -0.11929365 0.12569137 0.10802835 0.0651436
0002f0 35 b3 4a 3d 1d dc c0 3d f3 4d 0e bd d3 fe 6e 3c
       0.04948731 0.09416983 -0.034742307 0.014587122
000300 da 82 17 3d 74 08 df 3c 52 ba 09 3d 11 44 fc bd
       0.036990024 0.02722571 0.033624955 -0.1231767
000310 6f 7b d4 bd b9 e5 ff 3c 24 88 6a 3d 79 f3 c8 bd
       -0.103751056 0.03123747 0.05725874 -0.09812064
000320 f2 f8 be bd 84 ce 81 bd bc ca ad bc e9 2a 01 be
       -0.09324826 -0.06338218 -0.021214835 -0.12614025
000330 ec 5e 88 bd 6d 4a 33 bd b0 0d 8c 3d 6b 49 32 3d
       -0.0665873 -0.04377215 0.06838548 0.043527048
000340 1c f5 6e bd dd e2 9a bd ca 05 bd 3d 2d f3 ab 3d
       -0.058339223 -0.07562802 0.0922962 0.083959915
000350 0d a4 16 3e f4 1d 20 3e 44 98 c1 3d 2a 05 00 bc
       0.14711018 0.15636426 0.094528705 -0.007813731
000360 2a ff 0a be b1 ff 1a bc 49 f0 23 3e 4b c3 6e 3d
       -0.135739 -0.009460376 0.1600963 0.058291715
000370 db a0 fb 3c d2 eb f0 3d 5f a9 91 bd 41 0f cc 3d
       0.03071635 0.11763729 -0.07112383 0.09963847
000380 42 22 e5 3c 04 96 bc 3c 59 a0 81 bd f6 07 c6 bd
       0.027970437 0.023020752 -0.06329412 -0.09669487
000390 5a ec 0f bb b6 c0 bf bd 0d 5f 85 bd 54 20 ba 3d
       -0.0021960945 -0.093629286 -0.0651227 0.09088197
0003a0 db 95 7e bd 9f be 03 3d d6 2c ec bc 3b 9f f7 bd
       -0.062154632 0.032164212 -0.028829973 -0.12090918
0003b0 af f0 04 be 18 4d 55 bd fc e1 2d 3e 97 ec f5 3c
       -0.12982439 -0.052075475 0.16980737 0.030020041
0003c0 3b 5d ab bd 8e 29 87 3d 61 ae ac 3b 8f ab 8a 3d
       -0.08367392 0.06599723 0.005269811 0.067710035
0003d0 16 9e 3d 3c b5 7e 98 bd 24 3d 8e 3d f0 6a 83 bc
       0.011573335 -0.074460424 0.069452554 -0.016042203
0003e0 c2 8f 35 3d 76 ba b0 bd 2d 40 65 3d a4 64 0a 3d
       0.04432655 -0.086293146 0.055969406 0.033787385
0003f0 6b 9c 6e bb e2 ea 8f bd ae d1 21 3e 30 15 bd 3c
       -0.003640915 -0.07027222 0.15802643 0.023081392

residual_net.2.bias f4 [64]
000000 ba 6d 0b 3e 9b 8e fa 3d 47 0a cd 3d 6d d9 85 3a
       0.13616076 0.12234231 0.10011726 0.0010211893
000010 e8 4e 86 3d 87 7f a0 3d 91 14 6b 3d b5 85 63 3d
       0.06558019 0.07836824 0.05739266 0.055547435
000020 70 f5 9e bd e2 dd 80 bd b8 d9 18 bd 7c e0 91 3d
       -0.07761657 -0.06292321 -0.037317008 0.07122895
000030 4f 24 aa bb 30 79 2b 3d 31 a6 9e bc 76 91 d0 bd
       -0.0051923166 0.04186362 -0.019366356 -0.101839945
000040 97 71 0f bc c7 21 a0 3d d8 60 cd 3c 16 ed ba 3d
       -0.008755109 0.078189425 0.025070593 0.09127252
000050 2c 95 24 be ef e5 32 bb 23 12 0b bc db e0 2c 3c
       -0.1607253 -0.0027297696 -0.008488211 0.010551657
000060 32 3e e0 bc 59 b1 8f 3b de 45 b2 bd d3 4c 3a bd
       -0.027373407 0.004385155 -0.08704732 -0.04548342
000070 15 0c 9f 3d 24 d0 63 bd d8 ad 2b 3d 30 8c 89 3d
       0.07765976 -0.05561842 0.041913837 0.06716192
000080 1b 47 ce bd 87 60 23 3e c2 b6 84 bd 63 fe f1 bc
       -0.10072156 0.15954791 -0.06480171 -0.029540246
000090 9c 46 0f 3d e2 23 92 bd 08 5d 89 3d 8a d7 51 bd
       0.034979448 -0.0713575 0.067071974 -0.051230945
0000a0 b4 10 2e bd df 2f 80 3d 93 fe 32 3c 0f 6d 91 bd
       -0.042496398 0.06259131 0.010924953 -0.071008794
0000b0 37 4c 2d bd cd b7 68 3d 60 8c 40 bd 02 94 bb bb
       -0.042309012 0.05681591 -0.047008872 -0.005724431
0000c0 4c f8 8b 3c 9f 78 e8 bd 67 4a e3 bb 30 45 f2 bd
       0.01708617 -0.11351132 -0.0069363597 -0.11829603
0000d0 16 0b 48 b9 89 89 0e 3c e5 b0 cb 3d 87 4e c2 bd
       -0.00019077616 0.008699783 0.09945849 -0.09487634
0000e0 18 56 d3 3d bf 76 e0 bd 7c 32 dd bd 55 50 0a 3e
       0.103191555 -0.10960149 -0.10800645 0.13507207
0000f0 ca 7e 4d 3d fe 8a 68 bd 83 47 40 bd b1 70 33 3e
       0.050169744 -0.05677318 -0.0469432 0.17523457

residual_net.4.weight f4 [3, 64]
000000 09 d9 06 bd 35 1a dd bd 5a 06 5b 3c 2e 1e 07 be
       -0.032921825 -0.10796014 0.013368214 -0.13195106
000010 bd d1 56 3d 27 98 d0 3d ea c0 c2 bd b0 1b a7 3d
       0.052446116 0.10185271 -0.09509452 0.08159578
000020 27 c6 07 be 90 9f ca bc a2 12 a0 bd 29 95 b5 3d
       -0.13259183 -0.024734288 -0.07816054 0.08866341
000030 65 6f f8 3d 45 3c 07 3d 4f f0 56 bd 4a 46 6c bd
       0.12130622 0.033016462 -0.05247527 -0.05768422
000040 11 16 83 3d 61 12 08 bc 98 35 67 3d 96 c3 e8 bb
       0.06400693 -0.008305163 0.056447595 -0.007103394
000050 92 3e 83 3c e0 31 0b 3e 19 e7 37 bd 40 31 be bd
       0.016021047 0.13593245 -0.044898126 -0.092867374
000060 f9 27 a3 bb 54 5a f4 3d ec 9a 0b bc ad 2d 5f 3d
       -0.0049791303 0.11931291 -0.008520823 0.05448692
000070 10 f3 02 be a6 67 57 bd c6 3e b0 bd 6c c9 dd bd
       -0.12788033 -0.05258908 -0.08605723 -0.10829434
000080 25 73 63 3d 15 41 f6 bb 00 ae 65 3c c7 cc a5 bc
       0.055529732 -0.0075150826 0.014018536 -0.020239247
000090 13 3f c0 3c f8 60 e3 3d e3 ba 94 3c c0 12 cd bd
       0.023467576 0.1110248 0.01815552 -0.10013342
0000a0 d9 83 1b 3d 47 6f 88 3d 75 8c ad 3d f0 f6 a8 bd
       0.037967537 0.066618495 0.08474056 -0.082502246
0000b0 a0 73 0b 3c bc f1 05 bb 51 f9 34 3b 59 37 5f bd
       0.008511454 -0.0020438274 0.0027614424 -0.054496143
0000c0 f8 bd aa 3d 34 d5 9d 3d d9 cc 22 bd 0f 15 b9 3d
       0.08337015 0.07706681 -0.03974614 0.0903722
0000d0 39 52 db 3c 3e b3 00 3e ce d2 59 bd 43 26 ee 3c
       0.026772605 0.12568375 -0.053179555 0.029070979
0000e0 3e 72 e7 3d fe 24 be bd 68 96 45 bc 7b 8e e8 bd
       0.11301087 -0.092843994 -0.012059785 -0.11355301
0000f0 9f 19 f2 bd a7 50 3b 3d b4 4c c5 3d a0 f8 13 be
       -0.11821293 0.045731213 0.096337706 -0.14450312
000100 c0 54 0c be bc 51 0b bc 72 f4 cc 3b 17 a2 2a bd
       -0.13704205 -0.008503374 0.006254726 -0.041658487
000110 9b a0 50 bd 18 1a d6 3d a8 da 01 3e 85 bf b0 3d
       -0.050934415 0.10454196 0.12681067 0.086302795
000120 72 82 d8 bd 67 9d f5 3d e8 bf f2 3d bb 36 6b bd
       -0.105717555 0.11992913 0.118530095 -0.057425242
000130 d8 b0 ae bd a6 7f 35 3d 38 53 c1 3d a5 17 3f bd
       -0.08529824 0.04431119 0.09439701 -0.04665341
000140 aa 25 9d 3d f1 da 82 bd 7b d5 f3 bd 7d 29 6a 3b
       0.076731995 -0.06389416 -0.119059525 0.0035730295
000150 2b 6e 9c 3d 16 45 cb 3c d6 45 9b bd b4 56 00 be
       0.076382 0.024813216 -0.075816795 -0.12533075
000160 1a 5c a1 bc 3d fd c9 3d 02 fd 81 3d de db 94 bd
       -0.019697238 0.098627545 0.063470855 -0.07268499
000170 86 f0 d6 bd 4b 96 f2 bd 24 3e 99 bc cf 8d 6e 3d
       -0.10495095 -0.11845072 -0.018706389 0.058240708
000180 44 a4 fe bb 59 23 46 bd d5 cc 8a 3d 0c ec 15 3d
       -0.007771047 -0.048373554 0.0677735 0.036602065
000190 ef 47 da 3c db bb 82 3d 90 c8 f4 bb 9c 24 80 3d
       0.026645629 0.06383487 -0.007470198 0.06256983
0001a0 7e 68 41 bd 2f 30 3b bd 01 6c 8e 3d ae b9 5f 3d
       -0.047218792 -0.04570025 0.06954194 0.054620437
0001b0 c4 25 ba 3d 5b b7 18 3d ca de 08 be be 26 fb 3a
       0.090892345 0.037284236 -0.13366237 0.0019161326
0001c0 e7 33 eb 3d dc 0b 30 bd bc 54 4f bc d8 f6 a7 3d
       0.11484509 -0.04298006 -0.01265448 0.082013786
0001d0 2c ae ca bd fd 88 35 3d 7e 4b f1 3c 62 70 ad 3d
       -0.09896502 0.044320095 0.029454943 0.08468701
0001e0 0d 36 75 bd 6b 59 6a 3d 76 18 c8 3d a7 88 12 3e
       -0.059866 0.057214182 0.097702906 0.14309941
0001f0 9d 28 48 3d 78 fb 0d be 67 25 16 bd 45 0d 9b bd
       0.048866857 -0.13865459 -0.036656763 -0.0757089
000200 4f 19 3d be d3 99 6f bd 70 85 bb bd 61 0c 09 3e
       -0.18466686 -0.058496308 -0.091563106 0.13383628
000210 65 d4 1c 3c a5 8c d5 3d d6 e3 45 3d cc 33 f8 3d
       0.009572123 0.104272164 0.048312984 0.121192545
000220 0e 0a 3d be 4d 6e 0f be 01 2f bd bd f6 a8 28 3e
       -0.18460867 -0.1400692 -0.09237481 0.16470703
000230 45 a8 0e be 27 26 2c 3e 65 97 14 3e 20 08 3a 3e
       -0.13931377 0.16811429 0.14510877 0.18167162
000240 3a f6 1e be 2b 53 12 3e 4a 03 f5 3d 0f d8 38 3e
       -0.15523615 0.14289539 0.11963518 0.1805117
000250 cb 8e 27 3e 85 77 31 3e 70 ad c7 3d 37 c3 cf 3d
       0.16363065 0.1733075 0.097498775 0.10144656
000260 fe 3d 2e 3e 39 43 3a bd d7 a3 fd 3d cd 33 e3 3d
       0.17015836 -0.045474265 0.123847656 0.110938646
000270 a2 8b 70 3d cc 06 89 b8 95 76 40 3e 4e ec 2d 3e
       0.058726914 -6.533935e-05 0.18795235 0.16984674
000280 f5 c6 04 3e 8d 67 57 be e9 3f ca bd 1c 02 52 be
       0.12966521 -0.21035595 -0.09875471 -0.20508617
000290 64 a1 03 be e4 35 23 be 33 a1 3d 3e 07 1d 0a 3e
       -0.12854534 -0.15938526 0.18518524 0.13487636
0002a0 9c 1f 6c bc a7 c5 91 3d ac 2d c3 3d 96 d2 03 3e
       -0.014411833 0.07117777 0.095301956 0.12873301
0002b0 f9 92 f5 bd 34 e6 37 be a3 33 a0 3d f5 3c dc 3d
       -0.119909234 -0.1795891 0.07822349 0.10753814
0002c0 98 aa ed 3d 8c 0f a2 3d 93 5a 2a 3e 63 cc 51 3e
       0.11604804 0.079131216 0.16636114 0.20488124
0002d0 9b 38 03 3d c3 4f 44 3e bc dc fa bd af 63 80 bd
       0.032036405 0.19171052 -0.12249133 -0.06269013
0002e0 43 88 ea bd 0c 35 37 3e 03 a7 80 3d 3e b2 22 be
       -0.11451771 0.1789133 0.06281855 -0.15888306
0002f0 5f c2 13 3e ad 80 15 be 24 b0 4d 3e c3 50 52 bd
       0.14429615 -0.14599867 0.20086724 -0.05134655

residual_net.4.bias f4 [3]
000000 54 e8 85 3d 31 40 a3 3d a0 2a 5e bd
       0.06538454 0.07971228 -0.05423987
