models/trained/hybrid_model_new.pth (torch, 22892 bytes, 8 tensors)

physics.motor_gains f4 [4]
0	0x411f36a0	9.950836
1	0x411e720a	9.902842
2	0x41139a29	9.225137
3	0x41206857	10.025474

physics.friction_coeffs f4 [4]
0	0x3f0e961e	0.5569781
1	0x3f060b29	0.5236078
2	0x3f58dc19	0.8471084
3	0x3f12b813	0.57312125

residual_net.0.weight f4 [64, 7]
0	0x3eebd59c	0.4606141
1	0xbe1c7d5a	-0.15282193
2	0x3ca63ae4	0.020291753
3	0x3e44b724	0.19210488
4	0xbf889bb7	-1.067252
5	0xbef4a34a	-0.4778083
6	0x3dcfa048	0.10137993
7	0xbea3598e	-0.31904262
8	0x3df3ef97	0.119109325
9	0xbe7d2078	-0.24719417
10	0x3e8f6101	0.28003696
11	0xbe795578	-0.2434901
12	0xbe41d0fa	-0.18927374
13	0x3c60ef6a	0.013728956
14	0xbe5af7cb	-0.21383588
15	0x3db99a6c	0.09062657
16	0x3c8b7abb	0.017026296
17	0xbdf28422	-0.118416086
18	0x3e81da70	0.25361967
19	0x3f30a008	0.6899419
20	0xbe48c55e	-0.1960654
21	0xbee68fb0	-0.450315
22	0x3e8532e7	0.26015398
23	0x3dd82048	0.10553032
24	0x3ea509e1	0.322341
25	0x3f020cb1	0.50800616
26	0xbf9eef22	-1.2416728
27	0xbe25b5da	-0.16182652
28	0xbedca93c	-0.43097866
29	0xbd98fcff	-0.0747013
30	0x3d9f1e40	0.077694416
31	0xbe0e95ee	-0.13924381
32	0x3ed9f31b	0.42568287
33	0xbd383dd9	-0.044980858
34	0x3e873c6c	0.26413286
35	0x3e9e83f4	0.30960047
36	0x3f0deec5	0.5544246
37	0x3dc52fa5	0.09628228
38	0xbf36d129	-0.71412903
39	0xbe025df5	-0.12731154
40	0xbf7766dc	-0.96641326
41	0x3d311b9a	0.043239214
42	0xbf1e2e2e	-0.61789215
43	0x3f00d97d	0.5033186
44	0x3e7acc81	0.24492075
45	0x3e14358d	0.14473553
46	0xbe9efc03	-0.31051645
47	0xbee03d20	-0.43796635
48	0x3db9d48f	0.090737455
49	0xbeb94200	-0.36183167
50	0xbe39c4ff	-0.18141554
51	0x3e1dae11	0.15398432
52	0x3e03eaec	0.12882584
53	0xbd1b6905	-0.03794195
54	0x3f0c60d3	0.5483524
55	0xbd0802fb	-0.033205967
56	0x3f33d98c	0.70253825
57	0x3e719c9c	0.23594898
58	0x3d35f756	0.04442533
59	0x3de63789	0.11241061
60	0x3d86f001	0.06588746
61	0xbdea87fe	-0.1145172
62	0x3d84989b	0.0647442
63	0x3e20620b	0.156624
64	0xbf8a631d	-1.0811497
65	0x3e05ce37	0.13066946
66	0xbe0800bb	-0.13281529
67	0x3e961a02	0.29316717
68	0xbf874ff7	-1.0571278
69	0x3dc105aa	0.094249085
70	0xbea32138	-0.3186128
71	0x3e1af574	0.15132695
72	0x3c96c3ee	0.018403973
73	0x3b21ff70	0.0024718903
74	0x3d818e9a	0.06326027
75	0x3f3fab51	0.74870783
76	0x3d0a17de	0.033714168
77	0x3eac29f0	0.33625746
78	0xbd49bc20	-0.049251676
79	0xbe892bd2	-0.26791245
80	0x3e72b13c	0.23700422
81	0xbf0db3b0	-0.55352306
82	0x3dc40cbc	0.095727414
83	0x3d1fb1e1	0.038987998
84	0xbe58a953	-0.21158342
85	0xbdde6a08	-0.108600676
86	0xbd4fb5d1	-0.050710503
87	0x3c834502	0.016024116
88	0xbe51ddfa	-0.20494834
89	0xbeb4e252	-0.3532892
90	0xbe52f782	-0.20602229
91	0x3eee348f	0.46524474
92	0xbd13092b	-0.035897415
93	0x3d792b6d	0.06083243
94	0xbe5d0249	-0.21582903
95	0x3ed9baf7	0.42525455
96	0xbe8e5b6c	-0.27804124
97	0xbe8464e7	-0.25858232
98	0xbd33a7a4	-0.043861046
99	0xbe9f8e96	-0.31163472
100	0xbdf92aac	-0.12166342
101	0xbde8454e	-0.11341344
102	0x3dd5ded4	0.10442892
103	0xbe9e0808	-0.30865502
104	0xbc7576c3	-0.014981928
105	0x3d4893e2	0.048969157
106	0x3e591c9c	0.2120232
107	0xbe199600	-0.14998627
108	0x3e183b84	0.14866453
109	0x3f04dc7c	0.5189893
110	0x3eac1ef2	0.3361736
111	0x3dc50782	0.096205726
112	0x3e721b48	0.2364322
113	0xbd4d4145	-0.050111074
114	0x3dc87928	0.09788734
115	0xbdc7478a	-0.09730442
116	0xbf251572	-0.6448585
117	0x3ec11a10	0.37715197
118	0xbda53cbe	-0.08068226
119	0x3cc5563e	0.024088975
120	0xbeedd954	-0.4645487
121	0xbcc3eb58	-0.023915932
122	0xbf0031be	-0.500759
123	0xbdcbe8a5	-0.09956483
124	0xbb74bd12	-0.003734414
125	0xbc9fb3f9	-0.019494997
126	0xbe6a6851	-0.22891356
127	0xbe4298ab	-0.1900355
128	0xbe8507bf	-0.25982472
129	0xbe48dcf8	-0.19615543
130	0x3ec6ceb7	0.38829586
131	0x3f0d66c2	0.5523492
132	0xbe3f0558	-0.18654382
133	0x3e33d125	0.17560251
134	0xbf520c2c	-0.8204982
135	0x3d9726ac	0.07380423
136	0x3d069c91	0.032864157
137	0x3e782d04	0.24235922
138	0x3e8aadc4	0.27085698
139	0x3efa0553	0.48832187
140	0xbeb3b98d	-0.35102502
141	0xbe9cfd5f	-0.30662057
142	0x3de3b5a2	0.11118628
143	0xbe618514	-0.22023422
144	0xbda28158	-0.079348266
145	0x3eb63168	0.3558457
146	0x3e1c6782	0.1527386
147	0xbe7142c4	-0.23560625
148	0x3ea0333f	0.31289098
149	0x3dcacaaa	0.09901936
150	0x3f2754d2	0.653638
151	0x3ddba17c	0.1072416
152	0xbf417284	-0.7556536
153	0x3df087e5	0.1174467
154	0x3d947f02	0.07250787
155	0x3fa2430d	1.2676712
156	0x3d43926c	0.04774706
157	0xbd7c5f43	-0.061614286
158	0x3ece1e5e	0.40257543
159	0x3ce3f67d	0.027827496
160	0xbe273905	-0.16330345
161	0xbe269703	-0.16268544
162	0xbd4e760f	-0.05040556
163	0xbd72d72f	-0.059287246
164	0x3d119b50	0.03554851
165	0xbe854634	-0.26030123
166	0xbe8b7457	-0.27237198
167	0x3dd869b3	0.105670355
168	0x3e5a67aa	0.21328607
169	0x3e6ce1e4	0.23133045
170	0x3d877440	0.0661397
171	0x3e0c5dc1	0.1370764
172	0xbddb1527	-0.10697394
173	0x3f114e8e	0.5676049
174	0xbe2a7040	-0.16644382
175	0x3e9c6efb	0.3055342
176	0xbf68ee0a	-0.9098822
177	0xbd272d1f	-0.040814515
178	0x3ed20fd9	0.41027716
179	0x3d8794f0	0.066202044
180	0xbe15fc97	-0.14647137
181	0xbe3970bb	-0.1810941
182	0xbe17b7d5	-0.1481622
183	0x3e9c9b65	0.30587307
184	0xbe156ba5	-0.14591844
185	0x3eccfb76	0.400356
186	0xbeb10447	-0.34573576
187	0xbdff9038	-0.124786794
188	0x3dc0fef7	0.09423631
189	0x3eef6f86	0.46764773
190	0xbeffac6b	-0.49936232
191	0xbe580d07	-0.2109872
192	0x3e948234	0.29005587
193	0xbd43d524	-0.04781069
194	0x3f29c926	0.66322553
195	0x3bd7719b	0.006574822
196	0x3a09f568	0.00052627036
197	0x3e9fe81a	0.31231767
198	0xbd7e1ed1	-0.062041108
199	0xbe2f3ea2	-0.17113736
200	0x3ee66dc9	0.45005634
201	0x3f04aaa6	0.5182289
202	0x3e92bb1e	0.28658384
203	0xbde67a30	-0.11253774
204	0xbe5962f5	-0.21229155
205	0xbe83ed8d	-0.25767174
206	0x3e4bfe64	0.19921261
207	0xbe592a1c	-0.2120747
208	0xbe4e43b5	-0.20143016
209	0xbdc37aee	-0.09544931
210	0x3ee13f20	0.43993473
211	0x3f0a1fd2	0.53954804
212	0x3d965ddb	0.0734212
213	0x3d4c8855	0.049934704
214	0x3e150ad4	0.14554912
215	0xbefe7aaf	-0.49702975
216	0x3dad2e90	0.08456147
217	0x3f8fc30a	1.1231396
218	0xbe3100a3	-0.17285399
219	0x3c0c9f62	0.008582922
220	0x3e0009de	0.12503764
221	0xbea06f8e	-0.3133511
222	0xbf67ffc7	-0.9062466
223	0xbda54c65	-0.08071212
224	0x3ea17059	0.31531027
225	0x3d3f54c3	0.046711694
226	0xbe21d027	-0.1580206
227	0xbe002c00	-0.12516785
228	0x3e82e54d	0.25565568
229	0xbe6911cd	-0.22760697
230	0x3d8b503d	0.068024136
231	0x3e031621	0.1280141
232	0xbd956d82	-0.072962776
233	0x3dcfbb54	0.10143152
234	0x3e67728a	0.22602287
235	0xbe88fd13	-0.2675558
236	0x3e70a663	0.23500971
237	0x3e65a30d	0.2242548
238	0xbf73f1f5	-0.9529107
239	0xbf8feb26	-1.1243637
240	0xbd8e6d39	-0.06954426
241	0xbdeb8913	-0.11500754
242	0xbe1e26f6	-0.1544455
243	0x3eef267f	0.46709058
244	0xbb944abe	-0.0045255115
245	0xbe136522	-0.14394048
246	0xbe9bb128	-0.30408597
247	0x3dd279f8	0.1027717
248	0xbdd27436	-0.10276072
249	0xbe10a813	-0.14126615
250	0xbeafccca	-0.3433593
251	0xbe378599	-0.17922057
252	0xbeb74e80	-0.35802078
253	0xbf30bd9c	-0.6903932
254	0x3dbb30db	0.09140178
255	0x3e8061e8	0.25074697

residual_net.0.bias f4 [64]
0	0xbe973fe6	-0.29540938
1	0xbea5ce9d	-0.32384196
2	0x3e576f8a	0.21038643
3	0xbee05655	-0.43815866
4	0xbe8369b6	-0.2566659
5	0x3e946e1f	0.28990266
6	0xbddee488	-0.108834326
7	0xbe139b08	-0.14414608
8	0x3ea19e1c	0.3156594
9	0x3e1659ea	0.14682737
10	0x3e8e5b60	0.2780409
11	0xbd9e8f6a	-0.07742198
12	0x3e4e78d6	0.20163283
13	0xbe8f7db1	-0.28025582
14	0x3e1fbab1	0.15598561
15	0x3d72bbbd	0.059261072
16	0xbd3a4b01	-0.045481686
17	0x3e4054ac	0.187823
18	0xbdbd9577	-0.09257024
19	0x3e8e706c	0.27820146
20	0xbf053531	-0.5203429
21	0x3e624bf3	0.22099285
22	0x3ed4a45b	0.41531643
23	0x3dafda8e	0.08586608
24	0x3e3fa69c	0.187159
25	0x3e5a9650	0.21346402
26	0x3e54af91	0.20770098
27	0x3e4760f0	0.19470572
28	0xbf38b0ee	-0.72144973
29	0xbe285ad5	-0.164409
30	0x3e0fb0b1	0.14032246
31	0x3dee828f	0.11645996
32	0x3e907356	0.28212994
33	0x3e99a3e3	0.30007848
34	0xbf0508cc	-0.5196655
35	0x3e4d3d2c	0.20042866
36	0x3ea003e1	0.3125296
37	0xbf7b6ba5	-0.9821113
38	0xbedd711e	-0.43250364
39	0xbf0c3227	-0.54764026
40	0xbf28d0cf	-0.65943617
41	0xbe87c1e7	-0.26515123
42	0xbe523404	-0.20527655
43	0xbd7c48cb	-0.06159286
44	0x3d232219	0.03982744
45	0xbf47a996	-0.7799314
46	0xbf05efd5	-0.5231908
47	0x3e2f7545	0.17134579
48	0xbe1469de	-0.1449351
49	0xbe4eb6b7	-0.20186888
50	0xbe9ddc3e	-0.30832094
51	0xbe4b7d57	-0.19872032
52	0x3e6db64f	0.23214076
53	0x3ecb8fbb	0.39758095
54	0xbe8537c2	-0.26019102
55	0xbea25c49	-0.31711033
56	0x3e03c481	0.12867929
57	0xbeb713a6	-0.35757178
58	0x3e077095	0.1322654
59	0xbf453d72	-0.77046883
60	0xbeeb86a0	-0.46001148
61	0xbd91c5a1	-0.07117773
62	0x3ea8579d	0.32879344
63	0xbd70d962	-0.058801062

residual_net.2.weight f4 [64, 64]
0	0xbe0d5e84	-0.13805586
1	0xbe2cf3e0	-0.16889906
2	0x3d0eb9eb	0.034845274
3	0x3b45240c	0.00300813
4	0xbdcad161	-0.09903217
5	0xbe37e5b4	-0.17958719
6	0xbdb53c6c	-0.08849415
7	0xbe502ac2	-0.20328811
8	0xbd8693e0	-0.06571174
9	0xbe834451	-0.2563806
10	0xbde17669	-0.11008913
11	0xbe7c4f6d	-0.24639674
12	0xbd940b8d	-0.07228766
13	0xbe20ceba	-0.1570386
14	0xbd509f76	-0.050933324
15	0xbe34ee24	-0.17668968
16	0xbe174ed3	-0.14776163
17	0xbdbbfd98	-0.091792285
18	0xbe07c4a6	-0.13258609
19	0xbe954132	-0.29151303
20	0xbe92361a	-0.285569
21	0xb7bbf6fe	-2.2407152e-05
22	0x3c3a9f31	0.011390493
23	0xbe8683b3	-0.26272354
24	0x3a663105	0.0008781108
25	0xbe373e1e	-0.1789479
26	0xbdf61ef8	-0.120176256
27	0xbe79d6a7	-0.2439829
28	0xbebb4e03	-0.36582956
29	0xbdc11354	-0.09427515
30	0x3eb799fd	0.3585967
31	0xbc8bc001	-0.017059328
32	0xbea1fe9c	-0.31639564
33	0xbe773940	-0.24142933
34	0xbd861ce9	-0.06548483
35	0xbd851b8c	-0.06499395
36	0xbe689316	-0.22712359
37	0xbde328b8	-0.11091751
38	0xbe999aa1	-0.30000785
39	0xbe1143da	-0.1418604
40	0xbe0ac904	-0.13553244
41	0xbc1214ca	-0.008916089
42	0xbe9798e9	-0.2960885
43	0xbc5d08d2	-0.013490872
44	0xbe488421	-0.19581653
45	0xbe43eaa6	-0.1913248
46	0xbe0ffbfa	-0.14060965
47	0xbe628e96	-0.22124705
48	0xbd1c971b	-0.038230043
49	0xbe75964c	-0.23983115
50	0xbdcfee2c	-0.101528496
51	0xbda81fa8	-0.08209163
52	0x3dc607cc	0.09669456
53	0xbe06a66a	-0.1314942
54	0xbdd58733	-0.10426178
55	0xbe61ffc7	-0.22070228
56	0xbe5cb08b	-0.21551721
57	0xbdba5f3f	-0.09100198
58	0xbe1d9813	-0.15390043
59	0xbbf1a183	-0.00737399
60	0xbdd632ef	-0.104589336
61	0xbdef5c8d	-0.116875745
62	0xbd19fd0c	-0.03759484
63	0xbd8d95aa	-0.06913312
64	0xbd68f933	-0.05687828
65	0x3d9c08c4	0.076188594
66	0xbc0c65e3	-0.008569214
67	0x3c82d494	0.015970506
68	0xbde5e0e7	-0.11224537
69	0x3ccb4f6b	0.024818143
70	0xbe233511	-0.15938212
71	0x3b706527	0.0036681385
72	0xbe24df75	-0.16100867
73	0x3c5a5df7	0.013328067
74	0xbc6b1df2	-0.014350401
75	0xbe03b28d	-0.1286108
76	0xbe0503b4	-0.12989694
77	0xbbf85b3a	-0.0075792344
78	0xbe1a453b	-0.15065472
79	0xbd9b720c	-0.07590112
80	0xbd0cc0f2	-0.034363694
81	0xbd0c68c1	-0.03427959
82	0xbd7bcc3d	-0.061474074
83	0x3b16c351	0.0023004601
84	0xbd5a9236	-0.053362094
85	0xbe26ba19	-0.16281928
86	0xbdab51fe	-0.08365248
87	0xbcd3c662	-0.025851432
88	0x3ce2646e	0.02763578
89	0xbe246c77	-0.16057001
90	0xbcbe4898	-0.023227975
91	0xbe179793	-0.14803915
92	0xbd2ffd15	-0.042965967
93	0xbdf5366a	-0.11973269
94	0xbdb3f944	-0.08787778
95	0xbe2ed4b1	-0.17073323
96	0xbd66f20b	-0.056383174
97	0x3d11831a	0.03552542
98	0xbcca03df	-0.024660049
99	0x3d6f3d4e	0.058408074
100	0xbe0462b1	-0.12928273
101	0xbda9fc20	-0.08300042
102	0x3d0ff318	0.03514394
103	0xbc489610	-0.012242809
104	0xbde1f45b	-0.11032935
105	0xbda8a47a	-0.082344964
106	0xbe1cad3f	-0.15300463
107	0xbe154d1b	-0.14580195
108	0xbdf14920	-0.117815256
109	0xbd991f0e	-0.07476626
110	0xbcd1be2d	-0.025603378
111	0xbdc631e1	-0.096774824
112	0xbd2ea3bf	-0.04263663
113	0xbd0210ac	-0.03175418
114	0x3c639e0b	0.013892661
115	0xbe2af82e	-0.16696236
116	0x3d670058	0.056396812
117	0xbd7fb13c	-0.062424883
118	0x3a5b27b1	0.00083601015
119	0x3c04b9b0	0.008100912
120	0xbda91a7f	-0.08257007
121	0xbd30a48c	-0.043125674
122	0xbe091c4d	-0.13389702
123	0xbe2524b4	-0.16127282
124	0xbd6dd22c	-0.058061764
125	0xbdb01e38	-0.08599514
126	0xbda0e32c	-0.078558296
127	0x3d1d847b	0.03845642
128	0x3e10e325	0.14149149
129	0xbe78058e	-0.24220869
130	0x3df1cee7	0.118070416
131	0x3dbd6ec1	0.0924964
132	0x3c7f049e	0.015565066
133	0x3dc25f1c	0.09490797
134	0xbdd81c7f	-0.1055231
135	0xbeb66922	-0.35627085
136	0x3d1536a9	0.03642908
137	0x3d10e152	0.035371132
138	0xbe7ceb47	-0.24699126
139	0xbc9aa077	-0.018875344
140	0xbcb9a2f7	-0.022660716
141	0xbe1ccb79	-0.15311994
142	0x3e3d8bf5	0.1851042
143	0x3e40761b	0.18795054
144	0x3e1bf2af	0.15229295
145	0x3e6a5bcc	0.2288658
146	0xbe06c052	-0.13159302
147	0xbd81cdff	-0.06338119
148	0xbe7a823f	-0.24463747
149	0x3e002a29	0.12516083
150	0xbeb3f0cd	-0.35144654
151	0x3d41a1e4	0.04727353
152	0xbc227606	-0.009915834
153	0x3db6999e	0.08916019
154	0x3d892bd0	0.0669781
155	0x3e7e6ad8	0.24845445
156	0xbd00e7f1	-0.031471197
157	0x3e1e0cc4	0.15434557
158	0x3d009fcc	0.031402394
159	0x3d718d09	0.058972392
160	0xbdb9d7fa	-0.090743974
161	0x3d369821	0.044578675
162	0xbe8b02db	-0.27150616
163	0x3e3fa273	0.18714313
164	0x3ebc3947	0.3676245
165	0xbd49df1f	-0.04928505
166	0xbdbeab42	-0.093100086
167	0x3c59d7fe	0.013296125
168	0x3e7ca1ce	0.24671099
169	0x3e35cdb2	0.17754248
170	0x3db2a1f7	0.087222986
171	0xbe78bbde	-0.24290416
172	0xbde855cd	-0.1134449
173	0xbf2f89d1	-0.68569666
174	0x3e4f6ea7	0.20257054
175	0x3e24fbf9	0.16111745
176	0x3b81ac3b	0.003957299
177	0x3e673dbc	0.22582144
178	0x3d82086f	0.06349265
179	0x3e3e520b	0.18585984
180	0xbe53533e	-0.20637223
181	0xbde44f94	-0.11147991
182	0xbc064a6e	-0.008196456
183	0xbe9cade2	-0.30601412
184	0x3efb41fb	0.49073777
185	0xbf63f2f1	-0.89042574
186	0xbcc566da	-0.024096895
187	0x3d67c75d	0.056586612
188	0x3e063196	0.13104853
189	0xbeeee13f	-0.46656224
190	0xbe90c50d	-0.28275338
191	0xbe18c97d	-0.14920612
192	0xbe327337	-0.17426763
193	0xbe3183cd	-0.17335434
194	0x3d388cd3	0.045056175
195	0xbda3002c	-0.07959017
196	0xbe2dd59e	-0.1697602
197	0xbbbf2d8c	-0.005834287
198	0xbd866d1b	-0.06563779
199	0xbd6ecfa2	-0.058303483
200	0xbdd5a438	-0.10431713
201	0xbdc25497	-0.094887905
202	0xbd9ae7f0	-0.0756377
203	0x3b3ced84	0.0028828094
204	0x3c8cd182	0.017189745
205	0xbe07bf38	-0.13256538
206	0x3c8a1dca	0.016859908
207	0xbe19cc30	-0.15019298
208	0xbdccda14	-0.100025326
209	0xbded0b4a	-0.11574419
210	0xbd55828d	-0.052126456
211	0xbdac1e2a	-0.08404191
212	0xbd97bc2c	-0.07408938
213	0xbe380cd6	-0.17973647
214	0xbd78456b	-0.060613077
215	0xbc608a35	-0.013704826
216	0xbdb8484d	-0.08998165
217	0xbe0d86d5	-0.13820966
218	0xbd7b8cc7	-0.061413553
219	0xbdfb202b	-0.12261995
220	0xbe1942a2	-0.14966825
221	0x3d8e04f5	0.06934539
222	0xbcd03c24	-0.025419302
223	0x3d8281e0	0.06372428
224	0xbde26c9e	-0.11055873
225	0xbca2f6b9	-0.019893037
226	0xbe22bb1c	-0.15891689
227	0xbb994db6	-0.0046784533
228	0xbdd7f538	-0.10544819
229	0xbdfc223b	-0.123112164
230	0xbe08320d	-0.13300343
231	0x3d6431c8	0.055711538
232	0xbd9cfc3c	-0.076652974
233	0xbd637ad5	-0.055537064
234	0x3caed2d4	0.021340765
235	0xbe032597	-0.12807308
236	0x3d8a4257	0.067509346
237	0xbe383434	-0.17988664
238	0xbd2bc345	-0.04193427
239	0xbe2f524b	-0.17121236
240	0xbe00a266	-0.1256195
241	0xbd54b5df	-0.05193126
242	0xbbd2ea89	-0.00643665
243	0x3d88f091	0.066865094
244	0x3d404876	0.046944104
245	0x3a8f13b7	0.001091591
246	0x3d72d37c	0.05928372
247	0xbce2adb2	-0.027670715
248	0xbdb1b7a5	-0.086776055
249	0xbda33aaf	-0.079701774
250	0xbd817688	-0.06321436
251	0x3d0332e8	0.03203097
252	0xbcb2da66	-0.021832656
253	0xbe0c8c24	-0.13725334
254	0x3bac3ec9	0.005256508
255	0xbc953ca4	-0.018217392

residual_net.2.bias f4 [64]
0	0xbcd76132	-0.026291464
1	0xbdfe9593	-0.12430873
2	0x3d3fbf9a	0.046813585
3	0x3c8c239d	0.017106825
4	0xbdf7fdf4	-0.121089846
5	0xbc229ee9	-0.009925582
6	0xbc47c625	-0.012193237
7	0xbde0f73c	-0.10984656
8	0x3d8d08b1	0.068864234
9	0xbdf61276	-0.1201524
10	0x3d6cfa2c	0.05785577
11	0xbcd2d725	-0.025737355
12	0xbe0958ad	-0.13412733
13	0xbb767a5b	-0.003760955
14	0xbd9c0be9	-0.07619459
15	0xbd75da1b	-0.060022455
16	0x3d8228a9	0.063554116
17	0x3b644d41	0.0034836086
18	0x3c07c524	0.008286748
19	0xbe29ea31	-0.16593243
20	0xbe2539d4	-0.16135341
21	0xbc3a4b5e	-0.011370508
22	0xbd484430	-0.048893154
23	0xbd809a9f	-0.06279492
24	0x3d651bd6	0.05593475
25	0xbdf56261	-0.11981655
26	0x3d0c6980	0.0342803
27	0x3d11fe0a	0.03564266
28	0xbd0ab48e	-0.033863597
29	0xbdfb4a1a	-0.12269993
30	0xbe2e9326	-0.1704832
31	0x3d5311fa	0.051530816
32	0xbe018ba1	-0.1265092
33	0xbd34beb2	-0.044127174
34	0xbc4ec85f	-0.012621014
35	0xbdd79f54	-0.10528436
36	0x3d17ce60	0.03706205
37	0xbe16bf21	-0.14721347
38	0x3c2e6750	0.010644749
39	0xbe0e85df	-0.13918255
40	0x3c4e1b6d	0.012579781
41	0xbb076648	-0.002066033
42	0xbcdd681d	-0.027027184
43	0xbda6aff2	-0.08139028
44	0xbe301b81	-0.17197992
45	0xbd52395e	-0.05132424
46	0xbddb6d62	-0.107142225
47	0xbd180500	-0.037114143
48	0x3bb96c2e	0.005658648
49	0xbd76528b	-0.060137313
50	0xbe27c3a1	-0.1638322
51	0x3de573c8	0.11203724
52	0xbccc5776	-0.024944048
53	0x3d2c5278	0.042070836
54	0xbd98d06a	-0.07461627
55	0xbe1d033a	-0.15333262
56	0x3ca7895f	0.020451246
57	0xbde1a1ca	-0.11017187
58	0x3db213e2	0.086951986
59	0xbdb5b820	-0.0887301
60	0xbdbe3ac7	-0.09288555
61	0x3d29d5aa	0.04146353
62	0x3d8a018b	0.067385755
63	0xbd2490c3	-0.040177118

residual_net.4.weight f4 [3, 64]
0	0x3dcaba89	0.0989886
1	0x3b457668	0.003013039
2	0xbc611397	-0.013737581
3	0x3d37f551	0.044911686
4	0x3d40cc70	0.047069967
5	0x3d289ce9	0.041165266
6	0x3d2db21a	0.04240618
7	0x3d36f070	0.044662893
8	0x3cd911a8	0.026497677
9	0x3d293888	0.041313678
10	0xbd860449	-0.06543786
11	0x3cf0a49a	0.029375363
12	0x3c930872	0.017948363
13	0xbd3b7b2f	-0.045771774
14	0xbe04806b	-0.12939613
15	0x3d28511f	0.041092988
16	0xb907c0ff	-0.000129465
17	0xbdaee698	-0.08540076
18	0x3cfe6789	0.031055229
19	0xbd92cbfe	-0.07167815
20	0x3d2f2dce	0.042768292
21	0x3d361f5a	0.044463493
22	0x3d124768	0.03571263
23	0xbbdb206c	-0.0066872146
24	0x3d14fc5e	0.03637349
25	0xbbec2f36	-0.0072077764
26	0x3d2632eb	0.040575903
27	0x3d2d0d38	0.042248935
28	0x3c0efbcf	0.008727028
29	0x3d4b8663	0.049688708
30	0x3d17cc6f	0.037060197
31	0xbc43d298	-0.011952065
32	0x3d391225	0.04518332
33	0x3ccb25f1	0.024798365
34	0xbddaf3be	-0.106910214
35	0xbda9ddff	-0.082942955
36	0xbcb6dfce	-0.022323515
37	0x3d32ceb4	0.04365416
38	0x3d0ca9d2	0.03434164
39	0x3d2a93ef	0.041644987
40	0xbd293e10	-0.041318953
41	0x3c458835	0.0120564
42	0x3d2b41a1	0.041810635
43	0x3cc8b766	0.024501514
44	0x3d100ca1	0.035168294
45	0x3d1ea0ad	0.03872745
46	0x3d2bec3d	0.04197334
47	0x3d1e2ebc	0.038618788
48	0x3d2b1560	0.04176843
49	0x3d2b92ae	0.04188793
50	0xbd756e75	-0.059919793
51	0x3ca566d7	0.02019064
52	0x3d2e836d	0.042605806
53	0x3eb62aa4	0.35579407
54	0x3d49cdfc	0.049268708
55	0x3d2471d5	0.04014762
56	0x3bc9da07	0.006160024
57	0x3d2f4c30	0.042797267
58	0xbe449e70	-0.19201064
59	0xbd68f5e2	-0.056875117
60	0xbccf4747	-0.025302542
61	0x3d19f962	0.037591346
62	0x3cb2526f	0.021767823
63	0x3d093613	0.033498835
64	0xbdedb35b	-0.11606475
65	0x3d06a3e1	0.03287113
66	0xbd2cde10	-0.042203963
67	0x3d3a5047	0.045486715
68	0x3d127c8a	0.0357633
69	0x3d35fac5	0.044428606
70	0x3d385cb3	0.04501028
71	0x3d3a8572	0.04553742
72	0x3d2b0907	0.041756656
73	0x3d2f82c7	0.04284933
74	0xbd10d5bb	-0.03536008
75	0x3d3515fc	0.04421042
76	0x3d12beff	0.03582668
77	0xbbaafa4b	-0.0052178255
78	0xbbcf4cc3	-0.0063262894
79	0x3d377660	0.044790626
80	0x3d13b085	0.036057014
81	0xbcc07a76	-0.023495894
82	0x3cf1c1c8	0.029511347
83	0xbd4be200	-0.049776077
84	0x3d378124	0.044800892
85	0x3d38c3de	0.04510867
86	0x3d32d814	0.0436631
87	0x3cd2799a	0.02569275
88	0x3d3252d1	0.04353601
89	0x3b380951	0.0028081725
90	0x3d34c525	0.044133324
91	0x3d38b859	0.045097683
92	0x3d0903bf	0.03345084
93	0x3d3c679f	0.04599726
94	0x3d310bb6	0.04322406
95	0x3cef1792	0.029186044
96	0x3d3a6fb3	0.04551668
97	0x3d1666e3	0.036719214
98	0xbe2f657f	-0.17128561
99	0xbdec72c0	-0.11545324
100	0x3cd4603e	0.025924798
101	0x3d3a5afa	0.04549692
102	0x3d2dc2ba	0.042422034
103	0x3d36518f	0.044511374
104	0x3bcf6afe	0.006329893
105	0x3d160206	0.036623023
106	0x3d34d2bd	0.04414629
107	0x3d13be1f	0.036069985
108	0x3d2a80f2	0.041626878
109	0x3d36be9d	0.044615377
110	0x3d38fb4c	0.04516153
111	0x3d38b90e	0.045098357
112	0x3d3441b6	0.04400798
113	0x3d37ecf1	0.0449037
114	0xbd709365	-0.058734316
115	0xbe0f6550	-0.14003491
116	0x3d38a454	0.04507859
117	0x3cb4f94f	0.022091536
118	0x3cf50878	0.029911265
119	0x3d363c8f	0.044491347
120	0x3d1a5b7a	0.037684895
121	0x3d37dfe1	0.044891242
122	0x3dc73488	0.097268164
123	0xbd6be05d	-0.057587016
124	0xbd520547	-0.051274564
125	0x3d33da3b	0.043909293
126	0x3d3527d9	0.044227455
127	0x3d29d0e4	0.04145898
128	0xbd5dd03a	-0.05415366
129	0x3d37e3e6	0.044895075
130	0xbe987c10	-0.29782152
131	0x3d38ce83	0.04511882
132	0x3d15cc05	0.03657152
133	0x3d319173	0.0433516
134	0x3d358a63	0.04432143
135	0x3d35eb04	0.04441358
136	0x3d293bdc	0.041316852
137	0x3d1f8296	0.038942896
138	0x3c120605	0.008912568
139	0x3d33f3bd	0.04393362
140	0x3cc6a6bb	0.024249425
141	0xbcb386d8	-0.021914884
142	0xbde0c5fb	-0.10975262
143	0x3d3693ec	0.044574663
144	0x3d16263a	0.03665755
145	0xbcae7770	-0.021297187
146	0x3cd2f134	0.02574978
147	0xbd547b98	-0.05187568
148	0x3d34df7a	0.044158436
149	0x3d373c96	0.044735514
150	0x3d322ee4	0.04350175
151	0x3ccd2c3c	0.025045507
152	0x3d3217ce	0.043479733
153	0xbc63cea3	-0.0139042465
154	0x3d30984f	0.043114003
155	0x3d2ef2c2	0.04271198
156	0x3c168294	0.009186406
157	0x3d424464	0.047428504
158	0x3d215a99	0.03939304
159	0x3c238429	0.00998024
160	0x3d3a25b9	0.04544613
161	0x3ce8b3f5	0.028406123
162	0x3e54fbc9	0.20799173
163	0x3cb83135	0.022484401
164	0x3c46dfd9	0.01213833
165	0x3d395bef	0.04525369
166	0x3d28ec38	0.0412409
167	0x3d34c9a0	0.044137597
168	0x3aae617c	0.0013304199
169	0x3ce0c977	0.027439816
170	0x3d3104fa	0.043217637
171	0x3c9967c6	0.01872624
172	0x3d2048ca	0.039131917
173	0x3d2d3d31	0.042294685
174	0x3d353b39	0.044245932
175	0x3d343796	0.043998323
176	0x3d3364bb	0.043797236
177	0x3d367069	0.044540796
178	0xbd7410c5	-0.059586305
179	0xba8c779e	-0.0010716801
180	0x3d331932	0.0437252
181	0xbe1ff6b4	-0.15621454
182	0x3cc65eb9	0.02421509
183	0x3d30d333	0.043170165
184	0x3d0cece1	0.034405593
185	0x3d33cfe6	0.04389944
186	0xbed00632	-0.40629727
187	0xbdaf1af3	-0.08550062
188	0x3ef2751a	0.47354966
189	0x3d38169c	0.044943437
190	0x3d2e26a6	0.042517327
191	0x3d1e01bc	0.038575873

residual_net.4.bias f4 [3]
0	0x3d34a6c7	0.044104364
1	0x3d4d6726	0.0501472
2	0x3d550120	0.052003026
